model/FP.pth (torch, 218429 bytes, 16 tensors)

rppg_feature_extractor.FeatureExtractor.0.conv_block_3d.0.weight f4 [8, 3, 3, 3, 3]
0.08345466 0.052442558 -0.085688435 -0.04372769 -0.04966104 0.078583814 0.00024897605 0.06634792
-0.029984169 -0.013368063 0.097410806 -0.083748475 0.0210189 0.087477155 0.108434446 -0.050463915
-0.10885741 -0.050512526 0.005721301 0.062115498 -0.014468245 -0.042373024 -0.05596504 -0.02401667
-0.061466243 0.00091564655 0.029987864 -0.032026134 0.023956068 0.09524826 0.013508402 0.03536705
-0.027532779 -0.09932676 0.012146324 -0.007441677 -0.10409774 0.020372935 0.1021258 0.09658504
-0.012204632 -0.042491965 -0.08858052 0.08152562 -0.020490676 0.08224464 -0.10217355 -0.08415197
0.0500348 -0.092435665 -0.06043968 0.051917918 0.07843701 -0.057700846 0.10508726 -0.006887451
0.075318106 0.07030145 -0.009140015 0.015519418 0.084954314 0.008133739 0.073741086 0.029068835
0.09325094 -0.038251504 0.10056511 -0.09459719 -0.054416128 -0.06349537 0.047012098 0.099002846
0.047566436 -0.075675555 0.05048371 0.0042952 0.06728678 0.09220762 -0.08624211 -0.016577512
0.09554734 -0.08638647 0.08496339 0.09820292 0.016704746 0.024235599 -0.07431559 0.10989765
0.10282604 -0.06464006 0.031846114 0.008285299 0.067501314 -0.071995124 -0.038196832 0.026290752
0.029713236 -0.0051813275 0.07097735 -0.0015530065 -0.08021511 -0.057922814 -0.10908779 -0.08332577
0.09337821 0.060824998 -0.0120750815 0.049180694 -0.08961487 0.09762765 -0.07582426 0.110661246
-0.03858289 -0.08026208 -0.10640653 0.022556268 -0.0894063 0.08437245 -0.033583097 -0.10444394
-0.069400996 -0.10777211 -0.008688539 -0.10768717 0.044805847 -0.10226631 -0.018173046 -0.013137646
-0.0720393 -0.098820776 0.064531215 0.07987655 0.030352034 -0.001117073 -0.0030807555 0.026037775
0.10654434 -0.0503593 -0.03546936 -0.09222089 0.020535253 -0.01082211 -0.033294164 -0.0201853
0.05245731 0.039847918 -0.089889035 -0.107551485 0.010907188 -0.04890308 0.06999072 0.013140969
-0.09055885 -0.055456467 0.07110494 0.050390758 0.040914066 0.084780686 0.08810247 0.08145007
0.048679106 0.020692594 -0.032688886 0.033523373 0.03860248 0.09083729 0.029270835 0.05399955
0.039461397 -0.058352046 -0.019143596 0.024370663 0.051892854 0.059135966 -0.07976634 0.0076784045
-0.101496935 0.01079873 0.11001376 -0.021364056 -0.046952777 -0.044408135 -0.06525372 -0.06286
0.094703026 0.09740781 0.007122487 -0.09350623 0.08355474 0.1017803 -0.067206785 -0.021978512
0.045869403 0.110080965 -0.108539835 -0.030903392 0.07599004 -0.09778575 0.057696946 -0.0020789206
-0.020956345 0.049488313 -0.06020799 0.05963049 0.07505169 0.0022601262 -0.07326724 -0.055839233
0.10718008 0.101406775 -0.07467549 0.040759437 -0.026905164 -0.024506599 -0.05943493 0.055383854
0.07528446 -0.00035332143 0.053357013 0.010825552 0.074233 -0.043582708 -0.012708701 -0.03076335
-0.104847156 0.0017599538 0.008015193 -0.024748221 0.010955267 0.07313854 0.108543955 0.07031543
0.08624161 -0.08511826 0.108945884 0.105682604 0.026985236 -0.10556883 -0.005300127 0.022649817
-0.030618772 -0.062441893 0.10891079 0.092093624 0.012840189 -0.0035187006 0.0051037446 -0.09991063
0.035459973 -0.10846298 0.035516195 -0.054154027 -0.06898376 -0.10310035 0.0015287697 -0.04323729
00000000: 47ea aa3d 02ce 563d 6b7d afbd ce1b 33bd
00000010: 6069 4bbd 8df0 a03d 0089 8239 6be1 873d
00000020: 5ca1 f5bc b805 5bbc 517f c73d 5284 abbd
00000030: d42f ac3c 3927 b33d e112 de3d 40b3 4ebd
00000040: a2f0 debd 39e6 4ebd c079 bb3b d26c 7e3d
00000050: 380c 6dbc 568f 2dbd 993b 65bd 9cbe c4bc
00000060: 07c4 7bbd 0008 703a 1ca9 f53c d62d 03bd
00000070: 843f c43c 8511 c33d 5852 5d3c 0add 103d
00000080: 6c8c e1bc d46b cbbd 6001 473c 50d9 f3bb
00000090: 3231 d5bd 24e5 a63c 5527 d13d 61ce c53d
000000a0: f0f5 47bc 0e0c 2ebd b469 b5bd e7f6 a63d
000000b0: 10dc a7bc e16f a83d 5e40 d1bd de57 acbd
000000c0: 4af1 4c3d e94e bdbd 998f 77bd e2a7 543d
000000d0: 95a3 a03d b957 6cbd fd37 d73d 20b0 e1bb
000000e0: 6140 9a3d 35fa 8f3d 00c0 15bc 2845 7e3c
000000f0: 87fc ad3d 6043 053c 9105 973d c421 ee3c
00000100: 59fa be3d 9cad 1cbd 15f5 cd3d 2cbc c1bd
00000110: 72e3 5ebd dc09 82bd c28f 403d 01c2 ca3d
00000120: 06d5 423d c9fb 9abd 02c8 4e3d c0be 8c3b
00000130: a7cd 893d 59d7 bc3d b49f b0bd 90cd 87bc
00000140: 53ae c33d 64eb b0bd 4901 ae3d 9d1e c93d
00000150: 64d8 883c bc89 c63c c632 98bd 0512 e13d
00000160: 7596 d23d 0262 84bd 1271 023d 10bf 073c
00000170: 213e 8a3d 2e72 93bd 4874 1cbd b45f d73c
00000180: 2c69 f33c 20c8 a9bb 935c 913d 408e cbba
00000190: d247 a4bd 7940 6dbd 6b69 dfbd b4a6 aabd
000001a0: 133d bf3d a223 793d 90d6 45bc b271 493d
000001b0: 0088 b7bd 01f1 c73d c049 9bbd 5da2 e23d
000001c0: 1809 1ebd 7260 a4bd abeb d9bd ecc7 b83c
000001d0: a61a b7bd 77cb ac3d 6e8e 09bd b4e6 d5bd
000001e0: 1c22 8ebd a0b7 dcbd 605a 0ebc 178b dcbd
000001f0: 5686 373d 0071 d1bd a4df 94bc 483f 57bc
00000200: 5789 93bd 8c62 cabd f128 843d 5196 a33d
00000210: d4a4 f83c c06a 92ba 80e6 49bb 2c4d d53c
00000220: eb33 da3d 8e45 4ebd 5248 11bd 4ede bcbd
00000230: 8c39 a83c 384f 31bc 765f 08bd a45b a5bc
00000240: 7add 563d 9237 233d be17 b8bd f443 dcbd
00000250: 10b4 323c 994e 48bd 4b57 8f3d 384d 573c
00000260: eb76 b9bd 5226 63bd 779f 913d 8a66 4e3d
00000270: 8295 273d 7fa1 ad3d 116f b43d 4bcf a63d
00000280: be63 473d 8483 a93c c8e4 05bd ce4f 093d
00000290: a21d 1e3d e708 ba3d 64c9 ef3c a22e 5d3d
000002a0: 46a2 213d 8e02 6fbd 08d3 9cbc fca4 c73c
000002b0: 9a8d 543d 8e38 723d 895c a3bd 209b fb3b
000002c0: a0dd cfbd 28ed 303c e54e e13d ac03 afbc
000002d0: 8e51 40bd 4ee5 35bd bea3 85bd bebc 80bd
000002e0: a9f3 c13d bf7d c73d c063 e93b 3280 bfbd
000002f0: bf1e ab3d 3172 d03d b6a3 89bd 480c b4bc
00000300: 8ee1 3b3d 2172 e13d 224a debd 1c29 fdbc
00000310: aba0 9b3d e543 c8bd a253 6c3d 803e 08bb
00000320: a4ac abbc 42b4 4a3d a79c 76bd 1a3f 743d
00000330: b3b4 993d a01e 143b 220d 96bd aeb7 64bd
00000340: 3b81 db3d 5bae cf3d 77ef 98bd 5ef3 263d
00000350: 3868 dcbc 10c2 c8bc 0b72 73bd 2eda 623d
00000360: bd2e 9a3d 003e b9b9 e28c 5a3d a85d 313c
00000370: 7907 983d c883 32bd 2838 50bc 6c03 fcbc
00000380: 1bba d6bd 40ae e63a 2852 033c c8bc cabc
00000390: b87d 333c a9c9 953d 4b4c de3d 8901 903d
000003a0: 719f b03d 7b52 aebd 051f df3d 1f70 d83d
000003b0: 2410 dd3c 7934 d8bd b0ac adbb 1c8c b93c
000003c0: 38d4 fabc 12c3 7fbd 9f0c df3d 959b bc3d
000003d0: a85f 523c 009a 66bb 503d a73b f29d ccbd
000003e0: 7a3e 113d d721 debd 6e79 113d 9dd0 5dbd
000003f0: 5c47 8dbd 4726 d3bd 0061 c83a 9619 31bd

rppg_feature_extractor.FeatureExtractor.1.conv_block_3d.0.weight f4 [12, 8, 3, 3, 3]
-0.0119663775 0.04244502 -0.00089169294 0.06185828 0.057253644 -0.067943096 -0.054971054 -0.06247679
0.053816795 0.04285744 -0.008625299 -0.034736916 -0.023947045 -0.031604555 0.02450575 0.055083103
-0.002131626 0.046994284 0.054513 0.0667693 -0.057983693 -0.05985318 0.00064347684 0.030055635
0.025309615 0.06803386 -0.015131962 -0.063970014 0.066311255 0.041158244 -0.06471129 0.010426685
-0.05996887 -0.058662243 -0.018296767 0.06231022 -0.026542637 0.06231475 -0.02891757 0.035248302
-0.04962016 -0.03189882 0.009184107 -0.015238803 0.021331787 -0.020593025 -0.019409474 -0.035780013
-0.05461181 -0.018619772 -0.050895646 -0.066701815 -0.032797545 0.04358147 -0.062417176 -0.0475139
0.040749803 0.064041734 0.011030838 0.06658317 -0.047614872 0.06254241 -0.051265888 -0.045345306
0.0608346 0.06633872 -0.025498673 -0.00030604005 -0.04011535 0.045101397 -0.015904266 -0.03269481
-0.05549222 0.053290315 -0.01785218 -0.033688247 0.04469738 -0.063068755 -0.017051656 -0.025149837
-0.015201185 -0.0660528 -0.0146361925 -0.017479308 0.050122336 0.04177226 -0.041857164 0.05441472
0.020971403 0.027520865 -0.06204462 -0.029596068 -0.054649875 -0.039410733 -0.01631634 0.02594208
0.058634043 -0.040553175 -0.03966981 -0.009958442 -0.01532818 0.015200205 0.012683332 -0.06682284
0.03899444 -0.06514848 -0.039767332 0.010549411 0.004737228 0.036425374 -0.0393477 -0.062016964
0.06078379 0.058296084 0.03348142 0.044276193 0.01860118 0.013946541 -0.06461979 0.01893948
-0.06544857 -0.013761573 0.008147821 0.059681192 -0.050188854 -0.028178643 0.014996149 -0.06037806
-0.031678706 0.046900935 -0.054091956 0.047808178 0.013063893 -0.037568137 0.02093988 0.03440258
0.05029481 0.027235962 0.029006973 -0.050825365 0.04233308 -0.0575408 -0.04860717 -0.06338696
0.016629137 -0.020654555 0.06734668 0.028766707 0.05862719 0.059734896 -0.050593577 -0.022958312
-0.022530463 0.022669517 0.04634563 0.042052895 0.022919394 0.06765014 -0.03177909 0.042958215
0.054792203 0.062036857 0.0451681 0.0388724 0.05995506 0.025093302 0.016752586 0.06355603
0.014516689 0.037722245 -0.05684238 0.0055705085 0.0016583204 0.057922676 -0.041248187 -0.050563153
0.020737097 0.004796624 -0.020813435 -0.011094395 -0.04965832 0.064677864 0.064708844 0.042784624
-0.042011343 -0.061025284 0.0377642 0.060305044 0.020675026 0.040814303 0.021256372 0.03194581
-0.00043649226 -0.041635737 -0.0554576 0.04192809 0.03600332 -0.057246227 0.06224525 -0.015671428
-0.022258215 -0.02248453 0.021483324 -0.053916033 -0.01026167 -0.032559507 0.024432711 -0.0010175034
-0.05637423 -0.055786695 -0.04221038 0.025009625 -0.020151556 0.046334736 0.018295549 -0.022230893
-0.014104888 0.03733018 0.02566664 -0.03047669 -0.062462386 -0.017195344 0.03966669 0.048173435
-0.012928579 0.04254795 -0.006537292 -0.0336639 0.02164419 -0.028315347 0.044511795 -0.055922646
-0.02806871 -0.0022958666 -0.025644496 0.020689003 -0.054361936 -0.009999517 0.042570673 0.060992673
0.06278606 0.027418882 0.0035713837 0.04150901 -0.05794722 -0.0367991 0.03986875 -0.034090117
0.04629492 -0.009502612 0.037769705 0.019885808 -0.063281216 0.028825335 0.050803408 -0.02993805
00000000: a00e 44bc d4da 2d3d 80c0 69ba 1c5f 7d3d
00000010: cc82 6a3d c025 8bbd 5429 61bd aae7 7fbd
00000020: 006f 5c3d 488b 2f3d 2051 0dbc 4c48 0ebd
00000030: 982c c4bc c773 01bd 48c0 c83c d29e 613d
00000040: c0b2 0bbb 147d 403d 0649 5f3d 58be 883d
00000050: 4f80 6dbd 9c28 75bd 00af 283a 3c37 f63c
00000060: 1c56 cf3c 5655 8b3d 0cec 77bc b602 83bd
00000070: 32ce 873d 8c95 283d 5a87 84bd b0d4 2a3c
00000080: eba1 75bd d247 70bd 1ae3 95bc 0039 7f3d
00000090: f26f d9bc c03d 7f3d 8ae4 ecbc 8660 103d
000000a0: 823e 4bbd 56a8 02bd f078 163c 2cac 79bc
000000b0: 00c0 ae3c b4b2 a8bc 9e00 9fbc 108e 12bd
000000c0: a2b0 5fbd 7e88 98bc f477 50bd f69a 88bd
000000d0: b856 06bd 7c82 323d 27a9 7fbd ef9d 42bd
000000e0: 44e9 263d 5028 833d b0ba 343c c25c 883d
000000f0: d007 43bd 3c16 803d 2efc 51bd 00bc 39bd
00000100: b42d 793d 98dc 873d 98e2 d0bc 0074 a0b9
00000110: fe4f 24bd 3ebc 383d aa49 82bc feea 05bd
00000120: cf4b 63bd f246 5a3d bc3e 92bc b0fc 09bd
00000130: 9a14 373d 312a 81bd eaaf 8bbc 0807 cebc
00000140: 640e 79bc b146 87bd a4cc 6fbc c430 8fbc
00000150: 144d 4d3d 6419 2b3d 6b72 2bbd f8e1 5e3d
00000160: 38cc ab3c 7073 e13c 8022 7ebd 7473 f2bc
00000170: 8cd8 5fbd 266d 21bd d8a9 85bc 7c84 d43c
00000180: 402a 703d 161b 26bd d07c 22bd bc28 23bc
00000190: 0c23 7bbc 480a 793c c0cd 4f3c 6ada 88bd
000001a0: a2b8 1f3d 916c 85bd 12e3 22bd 70d7 2c3c
000001b0: c03a 9b3b c632 153d 0e2b 21bd 8005 7ebd
000001c0: 6cf8 783d e0c7 6e3d d023 093d f45a 353d
000001d0: 8061 983c 0880 643c 6157 84bd f826 9b3c
000001e0: e609 86bd 3878 61bc 707e 053c 4474 743d
000001f0: d492 4dbd e6d6 e6bc 68b2 753c fc4e 77bd
00000200: 88c1 01bd 321b 403d 878f 5dbd 82d2 433d
00000210: f009 563c 0ce1 19bd 1c8a ab3c b8e9 0c3d
00000220: ee01 4e3d f41d df3c 08a0 ed3c 422e 50bd
00000230: 7465 2d3d e7af 6bbd 5018 47bd 06d1 81bd
00000240: d439 883c be33 a9bc 0eed 893d 28a8 eb3c
00000250: 1023 703d 94ac 743d 363b 4fbd 1213 bcbc
00000260: ce91 b8bc 6cb5 b93c ead4 3d3d a83f 2c3d
00000270: 74c1 bb3c 288c 8a3d cb2a 02bd f4f4 2f3d
00000280: ca6d 603d 5c1a 7e3d 3002 393d aa38 1f3d
00000290: 7093 753d 7890 cd3c b83c 893c aa29 823d
000002a0: 68d7 6d3c a482 1a3d 8ed3 68bd d088 b63b
000002b0: 005c d93a 5440 6d3d dcf3 28bd 4f1b 4fbd
000002c0: d8e0 a93c 002d 9d3b f080 aabc 44c5 35bc
000002d0: 8666 4bbd d475 843d 1286 843d ee3e 2f3d
000002e0: 1614 2cbd a6f5 79bd a2ae 1a3d 6c02 773d
000002f0: ac5e a93c e62c 273d d821 ae3c 9cd9 023d
00000300: 00d9 e4b9 3c8a 2abd 8227 63bd cabc 2b3d
00000310: 3878 133d 057b 6abd e0f4 7e3d 5e61 80bc
00000320: dc56 b6bc 7a31 b8bc ccfd af3c 0fd7 5cbd
00000330: 9020 28bc 1e5d 05bd 1c27 c83c c05d 85ba
00000340: aae8 66bd 9780 64bd cbe4 2cbd fce0 cc3c
00000350: e014 a5bc 7ec9 3d3d 8ce0 953c 901d b6bc
00000360: 3018 67bc 88e7 183d d842 d23c 40aa f9bc
00000370: 8fd8 7fbd 40dd 8cbc 8a79 223d 8251 453d
00000380: 64d2 53bc c246 2e3d c836 d6bb 28e3 09bd
00000390: 284f b13c 96f5 e7bc 0052 363d 250f 65bd
000003a0: 5af0 e5bc 4076 16bb 6814 d2bc fc7b a93c
000003b0: 9faa 5ebd 04d5 23bc 965e 2e3d 74d3 793d
000003c0: fa95 803d 909d e03c e00d 6a3b 5a05 2a3d
000003d0: 105a 6dbd a7ba 16bd 6a4d 233d 14a2 0bbd
000003e0: be9f 3d3d d8b0 1bbc 68b4 1a3d 90e7 a23c
000003f0: 9599 81bd 1c23 ec3c 3c17 503d a440 f5bc

rppg_feature_extractor.FeatureExtractor.2.conv_block_3d.0.weight f4 [12, 12, 3, 3, 3]
-0.029727386 0.042241264 -0.052691188 -0.038648687 -0.026321584 -0.010621581 -0.05031264 0.050343934
0.003935855 -0.016110938 0.013629932 0.012071032 0.04253486 0.031750757 -0.047019325 0.047705766
0.053054128 -0.02437626 0.0067466684 -0.01305718 -0.02437967 0.03842267 -0.031659126 -0.032881595
-0.038030274 0.04573324 -0.041742127 -0.004352525 -0.000919085 -0.03533993 0.04451174 -0.038851686
-0.007208839 -0.042094372 -0.010860879 -0.028918777 -0.030905135 -0.04577653 -0.040785864 0.00821152
-0.009603579 0.01840065 0.037669156 0.04923107 0.006689906 0.052759353 0.025872316 0.009849619
-0.002945654 -0.02524172 0.0076369084 0.03836978 0.039454658 0.02480309 0.048075367 -0.044048086
-0.04969138 -0.0004932694 -0.04577228 0.008784857 -0.012085453 0.04109924 0.036321636 -0.030944493
0.0381501 -0.049207747 -0.018380921 -0.040166512 -0.054438163 -0.011606172 0.019788202 0.033371504
-0.041789863 -0.037003003 -0.043431256 -0.00043934584 0.018324535 -0.021294933 -0.026617581 -0.034648083
0.044097904 0.034883816 0.04944465 0.009281259 0.0117632635 -0.052328985 0.050277058 -0.03927406
0.020789754 0.018378299 -0.01913597 -0.055318467 0.044247817 0.028565545 0.043469768 0.002315607
-0.032819152 0.024905387 0.049633417 -0.041127816 0.04182833 0.0157489 0.01053809 0.0066745803
0.0362153 -0.0024445243 -0.03846258 0.04918764 0.019141983 0.018077228 0.00027943403 -0.049815673
-0.011969224 0.016843785 0.039276358 -0.0440859 -0.035621233 -0.0021676756 0.03757016 0.027025785
-0.009749517 0.0457549 0.005535815 0.036711227 -0.026804885 -0.032188848 0.02119964 0.00051383674
0.008079786 -0.005934112 0.022413481 0.007802468 -0.008705702 -0.05107148 -0.014336903 -0.019051213
-0.047461987 0.016917583 -0.05082427 -0.003238149 -0.051130038 0.045156065 -0.028976388 0.037521172
-0.049671087 -0.03533171 -0.020014483 0.050443497 -0.027815793 -0.011436328 -0.0011339784 0.013341967
-0.020781498 -0.0065114163 -0.05095699 0.018146414 -0.017103381 -0.038174875 -0.020109449 -0.0542897
-0.0059140846 -0.021018308 0.054382358 0.0008925721 0.008568611 -0.024360439 -0.04308053 0.035413515
0.008105632 0.02859312 -0.04174965 0.017573666 -0.040240936 0.012187887 -0.046633992 0.019284729
-0.023032948 -0.049260132 -0.0055519417 0.05307061 -0.012185939 -0.054117568 -0.013286993 0.023926515
-0.05436398 -0.0010930225 -0.013005681 0.038588542 -0.0478482 -0.01877375 -0.034327917 0.047007035
0.018549826 -0.009651285 0.035017494 -0.040927052 0.016791936 0.039721426 0.01435877 0.0451593
-0.03697165 0.055100452 -0.033537142 -0.04655218 -0.0073653273 -0.04387278 0.028953645 0.012596991
-0.030673742 0.005784016 0.002507694 0.012644153 0.054824013 -0.05385897 -0.009065893 0.004039824
-0.0023041964 -0.052206814 0.028061401 -0.0061512515 0.012879986 -0.0075114034 0.013858777 -0.033157043
-0.008845907 0.009673934 -0.04796441 0.049588975 -0.0018583201 -0.048066385 0.048041288 0.029157404
-0.022989511 -0.03850615 0.043352474 -0.01433501 0.016509447 0.049607042 0.023345578 0.04447973
0.04265799 -0.030838119 0.02201252 0.0134495385 0.031337608 0.029785987 -0.04119305 -0.020781066
0.04090548 0.05031402 -0.039334714 0.0430387 -0.0066770166 0.030820157 -0.04335187 -0.012264226
00000000: d986 f3bc 2d05 2d3d b7d2 57bd 164e 1ebd
00000010: 5da0 d7bc 2406 2ebc a014 4ebd 7135 4e3d
00000020: 58f8 803b 16fb 83bc 1450 5f3c 94c5 453c
00000030: 0939 2e3d 150d 023d 5697 40bd 1f67 433d
00000040: 494f 593d b9b0 c7bc 2813 dd3b c8ed 55bc
00000050: e0b7 c7bc 1761 1d3d 00ad 01bd daae 06bd
00000060: a2c5 1bbd c752 3b3d cbf9 2abd a09f 8ebb
00000070: c0ee 70ba 9ac0 10bd f151 363d f222 1fbd
00000080: 2038 ecbb 266b 2cbd d4f1 31bc 12e7 ecbc
00000090: c42c fdbc 2c80 3bbd 140f 27bd 9c89 063c
000000a0: 5458 1dbc f6bc 963c f94a 1a3d 85a6 493d
000000b0: 0037 db3b 311a 583d 2ef2 d33c 4c60 213c
000000c0: e00b 41bb b9c7 cebc 083f fa3b a129 1d3d
000000d0: 359b 213d da2f cb3c adea 443d c46b 34bd
000000e0: 3089 4bbd c04e 01ba b77b 3bbd 5cee 0f3c
000000f0: 1002 46bc ad57 283d ffc5 143d 4e7f fdbc
00000100: 4743 1c3d 108e 49bd 9693 96bc a485 24bd
00000110: 8dfa 5ebd d027 3ebc de1a a23c 8fb0 083d
00000120: d92b 2bbd 7690 17bd f9e4 31bd 0058 e6b9
00000130: 561d 963c b672 aebc 1d0d dabc 26eb 0dbd
00000140: 01a0 343d 55e2 0e3d 7986 4a3d 6c10 183c
00000150: b4ba 403c eb56 56bd 51ef 4d3d d6dd 20bd
00000160: 464f aa3c 168e 963c 0ac3 9cbc 9e95 62bd
00000170: 333d 353d 4a02 ea3c 5b0d 323d 70c1 173b
00000180: 606d 06bd 6206 cc3c 694c 4b3d a475 28bd
00000190: 2f54 2b3d d603 813c f4a7 2c3c 70b6 da3b
000001a0: 7f56 143d 5034 20bb f08a 1dbd fb78 493d
000001b0: a6cf 9c3c b216 943c 0081 9239 850b 4cbd
000001c0: 901a 44bc fafb 893c 3fe0 203d 6b93 34bd
000001d0: 92e7 11bd 900f 0ebb 2be3 193d 2e65 dd3c
000001e0: 70bc 1fbc 7d69 3b3d c865 b53b 835e 163d
000001f0: eb95 dbbc 74d8 03bd deaa ad3c 00b3 063a
00000200: 1461 043c f072 c2bb 7a9c b73c d8ab ff3b
00000210: 5ca2 0ebc 5430 51bd 54e5 6abc 4a11 9cbc
00000220: 8067 42bd be96 8a3c 1c2d 50bd 2037 54bb
00000230: bb6d 51bd 91f5 383d e45f edbc cdaf 193d
00000240: e973 4bbd fcb7 10bd 6af5 a3bc d79d 4e3d
00000250: f2dd e3bc 705f 3bbc 00a2 94ba 4498 5a3c
00000260: f63d aabc b85d d5bb 47b8 50bd caa7 943c
00000270: 641c 8cbc 425d 1cbd 92bc a4bc e05e 5ebd
00000280: f0ca c1bb 962e acbc 09c0 5e3d 80fb 693a
00000290: 5c63 0c3c 8b8f c7bc 3675 30bd c30d 113d
000002a0: 7ccd 043c 1e3c ea3c ae01 2bbd a6f6 8f3c
000002b0: aed3 24bd b4af 473c 4903 3fbd 02fb 9d3c
000002c0: 98af bcbc fec4 49bd 10ed b5bb 9160 593d
000002d0: 88a7 47bc 62aa 5dbd b0b1 59bc 8a01 c43c
000002e0: c4ac 5ebd c043 8fba c815 55bc 050f 1e3d
000002f0: 79fc 43bd 68cb 99bc 6e9b 0cbd 738a 403d
00000300: cef5 973c 6c20 1ebc 816e 0f3d 20a3 27bd
00000310: 3e8f 893c efb2 223d 0c41 6b3c f5f8 383d
00000320: 966f 17bd 03b1 613d 3e5e 09bd 80ad 3ebd
00000330: d858 f1bb f2b3 33bd 3230 ed3c 9c63 4e3c
00000340: 8047 fbbc d887 bd3b 2058 243b 6c29 4f3c
00000350: 258f 603d 399b 5cbd 1c89 14bc 8060 843b
00000360: 0002 17bb d0d6 55bd 06e1 e53c 7090 c9bb
00000370: 9406 533c 3822 f6bb ec0f 633c aecf 07bd
00000380: 6cee 10bc 6c7f 1e3c 5476 44bd cf1d 4b3d
00000390: e092 f3ba 42e1 44bd f1c6 443d 82db ee3c
000003a0: 8054 bcbc a0b8 1dbd 5d92 313d 64dd 6abc
000003b0: d23e 873c c130 4b3d 3a3f bf3c 6130 363d
000003c0: 25ba 2e3d 39a0 fcbc 9a53 b43c 745b 5c3c
000003d0: dd5b 003d be01 f43c 0bba 28bd 0e3d aabc
000003e0: 818c 273d 1316 4e3d 701d 21bd 5949 303d
000003f0: e0ca dabb 8e7a fc3c bb91 31bd e4ef 48bc

rppg_feature_extractor.FeatureExtractor.4.conv_block_3d.0.weight f4 [12, 12, 3, 3, 3]
-0.035032883 0.011616025 0.047434997 -0.02556361 -0.0037500672 -0.023699071 0.048749868 -0.038214386
-0.030377144 -0.022639647 0.0050699785 -0.03565661 0.010636304 0.016855117 -0.03194139 -0.0077858046
0.03279047 0.010986749 -0.047910437 0.00021518022 0.054940004 -0.009393677 -0.024203002 0.054727975
-0.009332366 0.038286354 0.035557333 0.054983106 -0.048681214 0.0109994 0.054616783 0.020626005
0.023707096 -0.018779974 -0.04939854 -0.029926704 -0.011555057 -0.030152282 0.02927551 0.03748179
0.041154835 -0.016467672 0.02920271 0.00068853423 -0.02608327 -0.048493486 0.032591093 -0.014396336
0.043476526 0.01510391 -0.047143824 -0.020498428 -0.024583088 0.013520274 0.016056608 -0.04446765
0.04369046 -0.030610165 0.028965171 -0.01214163 0.0419855 -0.004456129 -0.018457964 -0.038218513
0.00035599992 -0.044411182 0.015959267 -0.021442447 -0.054249123 0.03961468 0.017180223 -0.022398021
0.03923348 0.039474074 -0.04578683 0.010791209 -0.016476922 -0.010873273 -0.026003791 0.03857537
0.05158812 0.0022779629 -0.010067012 0.027458701 0.010179091 -0.05083269 0.0040792823 -0.002914369
0.0007798746 0.030442674 -0.042184785 -0.02588692 0.042720143 -0.026713664 0.03526069 -0.020580903
0.01236273 0.051188935 -0.0069034435 0.043316964 -0.0024524927 -0.03310179 0.041022647 0.037787285
-0.04911348 0.047990534 0.01608381 0.0156040825 0.0077981465 0.009879876 -0.045025513 -0.032910928
-0.0016242191 -0.039195724 -0.029742487 0.025515597 0.04792935 0.05080307 -0.000116270036 0.001802437
-0.04645752 0.0064035244 -0.012192078 -0.01527863 0.030886907 -0.024703873 0.048515383 0.025986496
-0.019450758 -0.04991362 -0.02113584 0.028282236 -0.0029672906 0.004005134 -0.01839178 0.0020942353
-0.02940527 -0.01416368 -0.047969624 -0.003815394 0.023407426 -0.008547194 0.025999669 0.0063473396
-0.03206458 0.0439648 0.042241182 -0.014240012 -0.0007879548 0.001635652 0.021664966 -0.033841822
-0.040173445 0.035792325 0.029256258 -0.027028058 0.028171647 0.031379547 -0.011756614 -0.0027013347
0.019914027 0.050911304 0.0042448044 0.037154388 0.036868308 -0.02319885 0.052018832 -0.048266187
0.034015957 -0.034474626 -0.03295569 -0.0022086576 -0.042836633 -0.021515734 0.029536244 0.047651898
-0.045972448 0.014500584 0.02093267 0.00997949 0.023441155 0.02253275 -0.008498829 -0.035040043
0.0019156486 0.03140765 -0.050530724 0.032664698 0.00015203282 0.029504042 0.021198776 0.009735715
-0.037069157 -0.053501237 -0.054083083 -0.018381137 -0.034985743 0.050921086 0.046865966 -0.014916677
0.030184623 -0.021080527 -0.0056770965 -0.038125336 0.045137983 0.030619357 0.007352013 -0.015285492
-0.029169964 0.025564764 0.029828202 -0.04788758 -0.055018917 -0.019272354 0.050754305 0.009649534
-0.042770818 0.048960995 -0.021749351 -0.043953978 0.03244886 -0.040053897 -0.020981848 -0.05138019
-0.009196401 0.05044872 0.03157008 -0.002094891 0.0020896122 -0.003698144 0.008949798 0.045526307
-0.032477573 -0.029560136 0.02170841 -0.02274112 0.021502066 -0.0032580085 -0.0034395047 0.012455206
-0.03111493 -0.027690537 0.022372786 -0.033538375 -0.035960555 -0.047902696 0.025112022 -0.047870517
-0.010732848 -0.024752855 -0.045354865 0.044654254 0.052977476 0.024994265 0.0056019835 0.051234785
00000000: a47e 0fbd 2451 3e3c 334b 423d c76a d1bc
00000010: b0c3 75bb 8e24 c2bc f1ad 473d b086 1cbd
00000020: 7dd9 f8bc c876 b9bc 1022 a63b aa0c 12bd
00000030: e443 2e3c be13 8a3c fad4 02bd 1020 ffbb
00000040: 4d4f 063d c401 343c bc3d 44bd 00a2 6139
00000050: c508 613d f0e7 19bc 6045 c6bc 712a 603d
00000060: c8e6 18bc 27d2 1c3d 91a4 113d f735 613d
00000070: f465 47bd d436 343c d9b5 5f3d def7 a83c
00000080: 6235 c23c 76d8 99bc 2056 4abd d928 f5bc
00000090: 6c51 3dbc eb01 f7bc 32d3 ef3c 8186 193d
000000a0: f991 283d 36e7 86bc 863a ef3c c07e 343a
000000b0: 95ac d5bc 1ba1 46bd 3d7e 053d 9cde 6bbc
000000c0: 7114 323d 6476 773c e219 41bd 52ec a7bc
000000d0: 7962 c9bc 2484 5d3c 2689 833c b623 36bd
000000e0: c5f4 323d 2bc2 fabc 5e48 ed3c b0ed 46bc
000000f0: fdf8 2b3d b804 92bb 2835 97bc 048b 1cbd
00000100: 80a5 ba39 80e8 35bd 02bd 823c 12a8 afbc
00000110: 5434 5ebd 0143 223d 8abd 8c3c 0e7c b7bc
00000120: 49b3 203d 91af 213d f98a 3bbd 9ccd 303c
00000130: 9cfa 86bc d025 32bc e705 d5bc 3501 1e3d
00000140: 114e 533d e049 153b 1cf0 24bc 12f1 e03c
00000150: 34c6 263c f035 50bd 80ab 853b 00ff 3ebb
00000160: 8070 4c3a ea62 f93c f4c9 2cbd ce10 d4bc
00000170: 51fb 2e3d 9dd6 dabc 836d 103d 4899 a8bc
00000180: 0c8d 4a3c 7dab 513d 4836 e2bb 216d 313d
00000190: 00ba 20bb be95 07bd 5d07 283d d7c6 1a3d
000001a0: 372b 49bd b991 443d 32c2 833c 44a8 7f3c
000001b0: 9887 ff3b 34df 213c ac6c 38bd 9ccd 06bd
000001c0: c0e3 d4ba b28b 20bd 84a6 f3bc 1606 d13c
000001d0: 9151 443d e116 503d 00d6 f3b8 c03f ec3a
000001e0: 3e4a 3ebd a8d4 d13b 48c1 47bc 3853 7abc
000001f0: 8a06 fd3c c75f cabc 11b8 463d a2e1 d43c
00000200: 3257 9fbc 3972 4cbd 1225 adbc 26b0 e73c
00000210: e076 42bb 803d 833b 5caa 96bc 703f 093b
00000220: 52e3 f0bc c80e 68bc cc7b 44bd b00b 7abb
00000230: eec0 bf3c 8809 0cbc 42fd d43c 58fd cf3b
00000240: 2656 03bd 6f14 343d 1705 2d3d f04e 69bc
00000250: c08e 4eba 6063 d63a ba7a b13c b99d 0abd
00000260: e98c 24bd f99a 123d d2aa ef3c f269 ddbc
00000270: 3ac8 e63c d787 003d d09e 40bc e008 31bb
00000280: be22 a33c 5f88 503d 0018 8b3b 332f 183d
00000290: 3903 173d 840b bebc b311 553d c4b2 45bd
000002a0: 5154 0b3d 4435 0dbd 8cfc 06bd 20bf 10bb
000002b0: 7775 2fbd c441 b0bc fef5 f13c a32e 433d
000002c0: 9b4d 3cbd dc93 6d3c fe7a ab3c 0481 233c
000002d0: aa07 c03c 9a96 b83c ac3e 0bbc 2686 0fbd
000002e0: 8016 fb3a 4fa5 003d 4ef9 4ebd 6bcb 053d
000002f0: 006b 1f39 76b2 f13c 0ea9 ad3c 8c82 1f3c
00000300: d4d5 17bd 1d24 5bbd 3986 5dbd 0a94 96bc
00000310: 364d 0fbd a192 503d 87f6 3f3d 1465 74bc
00000320: be45 f73c 12b1 acbc f006 babb 5029 1cbd
00000330: 9be2 383d 72d5 fa3c 28e9 f03b 0070 7abc
00000340: d9f5 eebc 326d d13c 465a f43c c425 44bd
00000350: 845b 61bd 0ee1 9dbc bfe3 4f3d 1419 1e3c
00000360: 7430 2fbd 538b 483d b22b b2bc 1609 34bd
00000370: 19e9 043d 8e0f 24bd 20e2 abbc 0974 52bd
00000380: 80ac 16bc 51a3 4e3d a14f 013d 704a 09bb
00000390: e0f1 083b 905c 72bb 2ca2 123c cb79 3a3d
000003a0: 3407 05bd 1928 f2bc d6d5 b13c 964b babc
000003b0: 1a25 b03c 5084 55bb 5069 61bb ec10 4c3c
000003c0: bde4 febc 44d7 e2bc 2247 b73c 895f 09bd
000003d0: 604b 13bd 9e35 44bd bab7 cd3c e013 44bd
000003e0: d4d8 2fbc 80c6 cabc 06c6 39bd 61e7 363d
000003f0: e9fe 583d c6c0 cc3c d890 b73b 91db 513d

rppg_feature_extractor.FeatureExtractor.5.conv_block_3d.0.weight f4 [16, 12, 3, 3, 3]
0.0259897 -0.053085975 0.023222249 0.047006425 0.04710452 -0.04060836 0.02109572 -0.032277524
0.046745244 -0.037668254 0.018031236 -0.031551454 -0.032976985 -0.023289368 -0.017368954 0.031375397
-0.037151396 0.009511787 0.03268191 -0.0024730824 0.029876966 0.0007867813 -0.033813093 -0.05080239
0.0027434826 -0.05497684 0.035230454 -0.038253367 0.008637529 -0.031302623 0.055237416 -0.041222896
0.046483826 0.03653648 0.031213667 -0.023177914 -0.050441757 0.020841237 0.0049300604 -0.0032554343
0.0066752248 -0.032551803 -9.6116215e-05 0.026138011 -0.02089484 -0.0041688606 0.00412219 0.020121817
0.049267795 0.0028322786 0.030916106 -0.017743334 0.0012905151 -0.010776281 -0.03792111 -0.02493855
0.0349806 -0.04325728 0.020577531 0.016562637 0.025995862 -0.0073179863 -0.019228935 -0.01293169
0.034294438 0.03921483 0.023773644 0.012727182 -0.03218272 0.032737445 0.031474087 0.014549781
-0.020005412 -0.0083780475 -0.02475163 0.047560345 -0.044061325 -0.04121266 -0.054016206 0.034435462
0.0023129992 -0.0038330555 0.04996634 -0.04431414 -0.043681715 0.011735473 0.022926543 -0.034925
0.0049786493 0.02381033 -0.050705757 -0.048371866 0.01119687 -0.04571257 -0.04277542 -0.052848108
0.039262008 0.021292713 -0.029307319 -0.0064017847 -0.044215277 0.036606748 0.009747457 0.014356796
-0.032578025 -0.047322903 0.038844857 -0.014512215 0.03238597 -0.03742683 0.043613795 -0.013086457
-0.016914103 -0.05134391 -0.03591224 0.048428807 -0.018797822 -0.01105937 -0.04161875 -0.0018272251
0.044621315 0.0070190243 0.024719317 -0.016650803 0.046503324 -0.030712042 -0.05226342 0.054397326
0.039655406 0.053775486 -0.020301249 -0.027748764 0.022162262 0.04714271 -0.034859642 -0.044395898
0.03144006 0.01828808 -0.04037147 -0.026231024 -0.053064056 -0.0376475 -0.03410943 -0.029349651
0.01935127 -0.0481697 0.039381508 -0.03568869 0.040936302 0.033124086 -0.012973137 -0.05198988
-0.00084838644 -0.029875683 0.024296816 -0.043968022 0.026780691 -0.0109873265 -0.023557052 0.047780845
-0.052714076 -0.044135246 -0.0425288 -0.026045097 0.030619998 0.054754835 -0.021896608 -0.004545886
-0.03968456 -0.0055710413 0.0459284 0.0024348646 -0.028071696 0.029264476 0.05529887 -0.0014261007
0.042434808 2.5257468e-05 -0.03497743 0.039469887 -0.024985889 -0.030290028 -0.040462535 0.0026812106
0.04563271 0.019162346 -0.040104374 0.0039384216 0.043733995 0.03945378 -0.003176 0.025979463
-0.015117627 -0.0048647076 -0.013760626 0.016188297 0.053324077 0.050981943 0.03237534 -0.01057544
0.0012012646 -0.014032099 0.034572717 0.039427396 0.053325776 0.035539772 0.0041678995 -0.005931437
0.049550433 -0.0016927533 0.03422157 0.018964078 -0.018762931 0.03720781 -0.045568705 0.04047099
-0.008652732 0.051843625 0.009886261 -0.039374694 -0.054186482 -0.047193408 0.028831553 -0.0015949011
-0.011906404 0.039768178 -0.04154632 0.03256775 -0.0399936 0.030796517 0.048582565 0.042210918
-0.0071173497 -0.028960923 -0.025051912 -0.031969316 -0.031743385 -0.022626445 -0.00987168 -0.050339863
0.046670962 0.0029836036 -0.019492712 0.030058328 -0.02926035 -0.021040611 0.04990304 0.016879167
0.008268725 0.028989326 0.014272589 -0.037553992 0.042873982 -0.017874405 -0.009958141 -0.011783972
00000000: 5ae8 d43c ae70 59bd 963c be3c cf89 403d
00000010: abf0 403d f454 26bd eed0 ac3c 7035 04bd
00000020: f177 3f3d 074a 1abd 3eb6 933c 193c 01bd
00000030: e012 07bd 58c9 bebc 5649 8ebc 7d83 003d
00000040: 102c 18bd 54d7 1b3c 77dd 053d 7013 22bb
00000050: 8ac0 f43c 0040 4e3a 997f 0abd 2b16 50bd
00000060: 00cc 333b 652f 61bd cf4d 103d 90af 1cbd
00000070: 6c84 0d3c 2e37 00bd a140 623d 57d9 28bd
00000080: d365 3e3d 47a7 153d ceb3 ff3c 9cdf bdbc
00000090: 049c 4ebd 3ebb aa3c 588c a13b 2059 55bb
000000a0: d8bb da3b 0a55 05bd 0092 c9b8 621f d63c
000000b0: a82b abbc f09a 88bb 7013 873b 82d6 a43c
000000c0: 07cd 493d c09d 393b c643 fd3c 785a 91bc
000000d0: 8026 a93a 008f 30bc 2a53 1bbd ee4b ccbc
000000e0: d147 0f3d 8c2e 31bd 3692 a83c 5eae 873c
000000f0: 46f5 d43c b8cb efbb 0086 9dbc 70df 53bc
00000100: 5378 0c3d bb9f 203d f2c0 c23c ac85 503c
00000110: 07d2 03bd b317 063d f9ea 003d 3462 6e3c
00000120: 64e2 a3bc 1444 09bc eec3 cabc a3ce 423d
00000130: a679 34bd 9bce 28bd 1940 5dbd 330c 0d3d
00000140: b095 173b 0034 7bbb 81a9 4c3d be82 35bd
00000150: 99eb 32bd 2446 403c 72d0 bb3c 840d 0fbd
00000160: f023 a33b e20d c33c d7b0 4fbd 9421 46bd
00000170: 1473 373c 1b3d 3bbd 4735 2fbd 4277 58bd
00000180: 33d1 203d 0e6e ae3c e715 f0bc 10c6 d1bb
00000190: 141b 35bd f5f0 153d ccb3 1f3c c438 6b3c
000001a0: 8970 05bd a9d5 41bd c91b 1f3d a4c4 6dbc
000001b0: 27a7 043d e04c 19bd 61a4 323d 9468 56bc
000001c0: 728f 8abc fe4d 52bd b718 13bd 495d 463d
000001d0: e4fd 99bc 5c32 35bc 6c78 2abd 807f efba
000001e0: d7c4 363d d8ff e53b 2a80 ca3c 4467 88bc
000001f0: 457a 3e3d d297 fbbc 2b12 56bd bbcf 5e3d
00000200: b56d 223d af43 5c3d ce4e a6bc 6051 e3bc
00000210: a28d b53c b718 413d fcc8 0ebd 79d8 35bd
00000220: 4bc7 003d e2d0 953c 8e5c 25bd 72e2 d6bc
00000230: b259 59bd 4434 1abd 54b6 0bbd ae6e f0bc
00000240: 8e86 9e3c 974d 45bd 814e 213d 4e2e 12bd
00000250: d3ac 273d 1fad 073d 488d 54bc 57f3 54bd
00000260: 4066 5eba d9bd f4bc 1e0a c73c d017 34bd
00000270: 2e63 db3c 3004 34bc b8fa c0bc d9b5 433d
00000280: b7ea 57bd 29c7 34bd ae32 2ebd 875c d5bc
00000290: cad6 fa3c 9b46 603d 8460 b3bc a8f5 94bb
000002a0: 478c 22bd 488d b6bb 6b1f 3c3d 4092 1f3b
000002b0: 9df6 e5bc 0ebc ef3c 1181 623d 00ec baba
000002c0: 1fd0 2d3d 00e0 d337 7e44 0fbd 2dab 213d
000002d0: 35af ccbc cb22 f8bc 0bbc 25bd 40b7 2f3b
000002e0: 5de9 3a3d 5afa 9c3c 7c44 24bd e00d 813b
000002f0: 6b22 333d 499a 213d 7024 50bb e2d2 d43c
00000300: ecaf 77bc 2068 9fbb 4074 61bc 529d 843c
00000310: 596a 5a3d 71d2 503d 019c 043d 9c44 2dbc
00000320: c073 9d3a e4e6 65bc 1f9c 0d3d 9f7e 213d
00000330: 216c 5a3d 2792 113d e092 883b 805c c2bb
00000340: 65f5 4a3d 60df ddba eb2b 0c3d 8e5a 9b3c
00000350: b8b4 99bc 3767 183d 40a6 3abd e9c4 253d
00000360: 30c4 0dbc fb59 543d fcf9 213c 5c47 21bd
00000370: a5f2 5dbd e04d 41bd 2630 ec3c 000c d1ba
00000380: 1413 43bc f5e3 223d 792c 2abd c365 053d
00000390: 54d0 23bd fa48 fc3c 83fe 463d 5be5 2c3d
000003a0: a838 e9bb 753f edbc ab39 cdbc 42f2 02bd
000003b0: 5a05 02bd 185b b9bc d4bc 21bc 2c31 4ebd
000003c0: 0d2a 3f3d 9088 433b 2eaf 9fbc e23c f63c
000003d0: 67b3 efbc 5c5d acbc 2167 4c3d 2e46 8a3c
000003e0: 8c79 073c 067b ed3c 94d7 693c 37d2 19bd
000003f0: a19c 2f3d 586d 92bc 7827 23bc 9011 41bc

rppg_feature_extractor.FeatureExtractor.6.conv_block_3d.0.weight f4 [16, 16, 3, 3, 3]
0.008864354 0.019482251 -0.00568299 -0.016711794 -0.031581096 -0.043577254 0.015193481 0.0195526
0.003321346 -0.042817425 -0.00030242652 -0.037768375 0.0067088604 0.014186196 0.026226152 -0.02594621
0.0052626394 0.014753167 -0.03229449 -0.032392837 -0.005322356 0.040569197 0.044203904 0.024465408
-0.028084172 -0.020935971 -0.039910506 0.01752298 0.0052342266 0.025031809 0.012018461 -0.00987621
-0.032329295 -0.047607325 -0.03397185 -0.027769329 0.03497305 -0.018982736 -0.034022998 -0.040767074
0.0064559653 0.02194151 -0.010824189 -0.044575017 0.004499767 0.03722455 -0.03786792 0.0088229105
-0.014313143 -0.016629726 -0.0053823665 0.020677667 0.038060304 -0.03733545 -0.0138451755 -0.03968905
-0.027995307 0.02798197 -0.020118633 0.0023607053 0.008010875 -0.048088737 -0.01552419 0.043193284
0.02308381 0.0140348375 -0.013029709 -0.019347908 -0.030868467 0.036871415 -0.005537264 -0.039464764
0.047668952 -0.007982235 -0.01788002 -0.009803869 -0.02415182 0.0012932718 -0.040609866 -0.03635798
0.023570854 -0.0402987 -0.017236335 -0.03591331 -0.038372524 0.029516716 0.0371543 0.016497593
0.019596387 0.0155896135 -0.042282537 0.04570416 0.0024241135 0.02466314 -0.033078276 0.023425307
-0.007725641 -0.047084395 0.018490192 -0.046813052 -0.043948397 -0.008685254 0.034174617 -0.006687183
0.045779105 0.039596837 -0.035030253 0.04444694 -0.006067205 0.006712064 0.019705173 -0.039566368
-0.034695424 0.006329108 0.038835626 -0.01245001 -0.046393894 -0.011692882 -0.026666004 -0.020221012
-0.044522032 0.038861867 -0.025363356 -0.022126388 0.03074171 -0.04451718 0.025692973 0.045517076
0.03166149 -0.015503436 0.028863247 0.026578862 -0.01357463 -0.0019289032 0.02495027 0.03984352
0.025518019 -0.009959791 -0.037017442 0.012075823 0.028992157 -0.034088656 -0.010768205 0.029548343
-0.004559025 0.032058258 -0.03585798 -0.04591185 0.038206805 0.0015998036 0.04496667 -0.04044144
-0.0051394366 -0.0024588443 0.025197875 0.0024042763 -0.03835482 0.0107953325 -0.047612127 0.04227708
0.040896367 0.01221073 -0.018575191 -0.047773648 -0.0015877858 -0.04419486 -0.012680139 0.018595684
-0.037444897 0.031445745 -0.031251058 0.024892535 0.0043680333 0.0004922673 -0.040171463 0.017272059
-0.03554351 -0.033549894 0.03284252 0.01137745 -0.0009341128 -0.03365998 0.004139647 -0.007377073
-0.01932733 -0.045776423 -0.031005688 0.0065700486 -0.032385256 -0.036165502 0.015693557 0.018611107
-0.004413236 -0.046027344 0.037315603 -0.02900325 0.008458506 -0.03135229 -0.023298819 -0.04177553
-0.040573817 -0.024054501 0.022200134 0.004867792 0.036521975 -0.008755557 0.04151984 0.03979994
0.032342177 -0.029234929 -0.02295484 0.035079207 0.0122552775 -0.00048371032 0.04806577 0.025205243
0.031137083 -0.026465796 0.04387259 0.026902173 -0.028821884 0.01718944 -0.04647435 -0.026339956
-0.041438404 0.024430428 -0.041542444 -0.047864374 -0.03942083 -0.013352983 -0.0068175755 0.032352936
-0.044315808 -0.042344395 -0.046380408 0.00077731535 0.03237814 0.026482847 0.028721813 -0.022688504
-0.02398315 0.028302517 -0.030348811 -0.022018814 0.030450169 -0.045284748 0.017982814 0.002882786
0.02880669 -0.0023818277 -0.042392705 -0.005284399 0.024193872 -0.04592834 -0.036984235 -0.040871054
00000000: cc3b 113c 3e99 9f3c 6038 babb 2ce7 88bc
00000010: 2e5b 01bd 107e 32bd 14ee 783c c62c a03c
00000020: f0aa 593b 5361 2fbd 008f 9eb9 03b3 1abd
00000030: 00d6 db3b 386d 683c 3ad8 d63c 258d d4bc
00000040: 3872 ac3b 44b7 713c 3a47 04bd 5aae 04bd
00000050: 2867 aebb e32b 263d 270f 353d ae6b c83c
00000060: c710 e6bc ea81 abbc 3379 23bd 5a8c 8f3c
00000070: e083 ab3b 820f cd3c 14e9 443c d4cf 21bc
00000080: b96b 04bd e6ff 42bd 1126 0bbd 817c e3bc
00000090: e73f 0f3d af81 9bbc b35b 0bbd 60fb 26bd
000000a0: 908c d33b aebe b33c f057 31bc 4b94 36bd
000000b0: c872 933b c578 183d 641b 1bbd f88d 103c
000000c0: ac81 6abc 103b 88bc 905e b0bb 3664 a93c
000000d0: 1fe5 1b3d 0fed 18bd e0d6 62bc fc90 22bd
000000e0: 6a56 e5bc 723a e53c d5cf a4bc 10b6 1a3b
000000f0: 0c40 033c b2f8 44bd 2c59 7ebc 71eb 303d
00000100: 421a bd3c 60f2 653c 907a 55bc 817f 9ebc
00000110: dedf fcbc 7b06 173d f071 b5bb cea5 21bd
00000120: 8540 433d ecc7 02bc 1f79 92bc 68a0 20bc
00000130: 0ada c5bc 0083 a93a 8856 26bd 1bec 14bd
00000140: aa17 c13c 4010 25bd 3733 8dbc d619 13bd
00000150: 822c 1dbd 0acd f13c 1b2f 183d f625 873c
00000160: 9a88 a03c 946b 7f3c 7430 2dbd 4934 3b3d
00000170: e0dd 1e3b 5a0a ca3c 167d 07bd 6ee6 bf3c
00000180: 6027 fdbb 91db 40bd be78 973c 0bbf 3fbd
00000190: 3c03 34bd 984c 0ebc affa 0b3d 2820 dbbb
000001a0: df82 3b3d 4b30 223d e27b 0fbd ff0d 363d
000001b0: 68cf c6bb e0f0 db3b be6c a13c 5810 22bd
000001c0: ca1c 0ebd 6864 cf3b 1b12 1f3d 20fb 4bbc
000001d0: 8607 3ebd 8093 3fbc aa72 dabc 89a6 a5bc
000001e0: bc5c 36bd 9f2d 1f3d d0c6 cfbc 6642 b5bc
000001f0: 0ad6 fb3c a657 36bd 127a d23c 1d70 3a3d
00000200: 7baf 013d 2002 7ebc 9e72 ec3c eabb d93c
00000210: 2068 5ebc 40d3 fcba 8264 cc3c f532 233d
00000220: 2a0b d13c 642e 23bc 9a9f 17bd acd9 453c
00000230: f680 ed3c 8ca0 0bbd 206d 30bc 5e0f f23c
00000240: e063 95bb 854f 033d d1df 12bd 100e 3cbd
00000250: bd7e 1c3d 80b0 d13a f92e 383d eca5 25bd
00000260: b868 a8bb 9024 21bb c66b ce3c 1091 1d3b
00000270: f219 1dbd e8de 303c ef04 43bd bb2a 2d3d
00000280: f382 273d 840f 483c 002b 98bc 4dae 43bd
00000290: 401d d0ba ab05 35bd 5cc0 4fbc fa55 983c
000002a0: d25f 19bd 41cd 003d 1c01 00bd 6eeb cb3c
000002b0: b821 8f3b 800b 013a d58a 24bd 227e 8d3c
000002c0: 1296 11bd 9d6b 09bd e185 063d 7c68 3a3c
000002d0: 40df 74ba 0cdf 09bd e0a5 873b 60bb f1bb
000002e0: 5954 9ebc 0f80 3bbd a4ff fdbc 9049 d73b
000002f0: 67a6 04bd 4722 14bd c68f 803c 5276 983c
00000300: e89c 90bb 2b87 3cbd 3fd8 183d 3998 edbc
00000310: 8c95 0a3c 426b 00bd 2add bebc d11c 2bbd
00000320: bb30 26bd f20d c5bc 0edd b53c 0082 9f3b
00000330: 1198 153d 7873 0fbc b510 2a3d 4305 233d
00000340: 3b79 043d 177e efbc ca0b bcbc 37af 0f3d
00000350: 5cca 483c 809a fdb9 9de0 443d 3a7b ce3c
00000360: 3213 ff3c ccce d8bc bfb3 333d f261 dc3c
00000370: df1b ecbc ded0 8c3c e35b 3ebd e4c6 d7bc
00000380: 51bb 29bd 5222 c83c 6928 2abd 6f0d 44bd
00000390: bc77 21bd 78c6 5abc f865 dfbb 8384 043d
000003a0: 7e84 35bd 5171 2dbd 62f9 3dbd c0c4 4b3a
000003b0: f19e 043d 8ef2 d83c 024a eb3c 3edd b9bc
000003c0: 5078 c4bc aeda e73c 129e f8bc cd60 b4bc
000003d0: a272 f93c 807c 39bd b250 933c 20ed 3c3b
000003e0: 02fc eb3c 7018 1cbb f9a3 2dbd c028 adbb
000003f0: 3a32 c63c 5b1f 3cbd c87c 17bd 6868 27bd

rppg_head.conv_block.0.conv_block_3d.0.weight f4 [16, 16, 3, 3, 3]
0.00605591 0.03469241 -0.002470918 -0.012616344 0.004176367 -0.017233623 -0.013280269 0.020230394
0.026193183 0.026703399 0.001252789 0.032551583 -0.0034550987 -0.008662552 0.015846457 0.027360443
-0.02378287 0.0052930936 -0.02042622 0.030348506 0.004669931 -0.04043549 -0.010431647 0.00010005012
0.008324623 -0.006972622 -0.029691586 -0.014629684 0.04226243 0.046118084 -0.014996517 -0.019098582
-0.040862683 0.020654451 0.012833148 0.0035203919 -0.006752357 0.044973824 0.03142119 -0.035567943
-0.0029809251 0.020698484 0.030820187 0.035670657 0.009994544 0.0013270527 0.016647171 0.031845327
-0.0055552796 -0.022726897 -0.03523387 -0.008574121 0.035456832 0.007396236 0.013885882 -0.03995268
-0.008696105 0.012921669 0.0064021535 -0.01237528 0.021344218 -0.04722577 -0.03269807 -0.008984391
0.031574663 0.0069768466 0.03882287 -0.020860566 0.04069404 0.043920208 -0.047589585 0.036845718
0.013711166 -0.043995023 0.030592274 0.009205546 -0.008459151 0.026395816 -0.029416002 -0.020833679
-0.02915474 -0.00814433 -0.040309735 -0.0017698593 0.017354365 0.008272771 0.0019250885 0.033166256
-0.0080638155 0.03200927 -0.020665877 0.037542377 0.04745732 -0.008521099 0.033991676 -0.045142256
0.03063931 0.013523601 -0.003133718 0.004941441 0.04271197 -0.021147747 0.045913372 0.032296184
-0.027036149 0.0014517307 0.031475168 0.027595889 -0.014649138 0.027009044 0.009229805 -0.029717183
-0.010939416 -0.045448896 0.0014019422 -0.028126769 0.031513665 0.009538569 -0.028532833 -0.03351926
0.015129533 -0.041098613 -0.0011668615 0.010063998 -0.016728926 -0.029108977 -0.024788382 -0.033479422
-0.00039961934 -0.010931034 -0.0146439485 0.009482205 -0.038353708 -0.040669307 -0.015764456 0.01237189
0.008361928 -0.038110897 -0.008274443 -0.013815399 -0.01345212 -0.03123466 -0.031966154 -0.0066909343
-0.010367986 -0.028858889 -0.022193218 -0.030150784 -0.04708423 -0.00776875 0.02707358 -0.02008387
-0.021212466 0.02132525 -0.004041545 -0.047807083 0.020845372 0.015020389 -0.040754456 0.023943935
-0.006926492 -0.011579279 0.045891497 0.013819046 -0.020925675 -0.037199467 -0.022822851 -0.00084797665
-0.047513977 0.02495708 0.005043935 -0.012307584 -0.039524533 0.041342955 0.022711325 0.03553917
-0.035787404 0.0049243495 0.018156622 0.002930373 -0.004397664 0.038480792 0.011521794 -0.023336858
-0.039221197 -0.02037829 0.013429958 0.037556995 0.019712817 -0.036013644 -0.044287957 -0.017284771
-0.039050467 -0.042354472 0.024552416 -0.047486387 -0.013076227 -0.044988453 -0.03960558 0.025276568
-0.002156388 0.017590139 0.0020585954 0.031836268 0.020474058 -0.035728857 0.016984928 0.04663844
-0.008301947 -0.0049672574 0.035602156 -0.038673237 0.044301983 -0.047367863 -0.0038735159 0.029537145
0.006150592 -0.013129819 -0.009673189 -0.03269709 -0.01698518 0.021931741 -0.012854937 0.020417873
-0.041252676 0.00672042 -0.02960248 -0.04463792 0.0239656 -0.036749322 0.04275022 0.038524877
0.027548622 0.0067469142 0.019079637 -0.014909867 -0.0074308664 -0.04246876 -0.03471804 0.02465685
-0.038700588 -0.030111134 -0.03466703 0.03755695 0.041179087 0.047455627 -0.026149297 0.029020082
0.047452983 0.03742935 -0.039822064 -0.017348647 -0.0076932646 -0.026475644 -0.042440195 0.034034055
00000000: a870 c63b a119 0e3d 20ef 21bb c8b4 4ebc
00000010: e8d9 883b 872d 8dbc 7c95 59bc 36ba a53c
00000020: 1693 d63c 16c1 da3c a034 a43a cf54 053d
00000030: f06e 62bb 60ed 0dbc 6ed0 813c 0223 e03c
00000040: 4bd4 c2bc b071 ad3b e354 a7bc 6e9d f83c
00000050: 3806 993b af9f 25bd 80e9 2abc 00d2 d138
00000060: 0064 083c 987a e4bb c53b f3bc 58b1 6fbc
00000070: 5f1b 2d3d 51e6 3c3d f4b3 75bc a174 9cbc
00000080: a15f 27bd 8633 a93c 2042 523c 60b6 663b
00000090: e042 ddbb 7936 383d 81b3 003d b1af 11bd
000000a0: a05b 43bb de8f a93c 9e7a fc3c 651b 123d
000000b0: 28c0 233c 80f0 ad3a a65f 883c 3f70 023d
000000c0: 1009 b6bb c22d babc 6451 10bd 787a 0cbc
000000d0: 2f3b 113d 205c f23b 9c81 633c 6ca5 23bd
000000e0: 1c7a 0ebc 68b5 533c 28c9 d13b b0c1 4abc
000000f0: 12da ae3c cf6f 41bd 69ee 05bd 4433 13bc
00000100: 6f54 013d 089e e43b bb04 1f3d c7e3 aabc
00000110: cbae 263d ade5 333d 4ced 42bd 89eb 163d
00000120: cca4 603c 2034 34bd a69c fa3c dcd2 163c
00000130: 4098 0abc 0a3c d83c d4f9 f0bc 64ab aabc
00000140: ecd5 eebc cc6f 05bc d21b 25bd a0fa e7ba
00000150: be2a 8e3c 848a 073c 4053 fc3a 57d9 073d
00000160: 181e 04bc 271c 033d 7c4b a9bc 09c6 193d
00000170: 9b62 423d 149c 0bbc db3a 0b3d 16e7 38bd
00000180: 4aff fa3c 1892 5d3c 105f 4dbb d0eb a13b
00000190: bff2 2e3d 0a3e adbc a90f 3c3d 0149 043d
000001a0: ea7a ddbc 0048 be3a 1bec 003d c610 e23c
000001b0: f002 70bc 1242 dd3c 9c38 173c 7371 f3bc
000001c0: 3c3b 33bc 9f28 3abd 60c1 b73a 1c6a e6bc
000001d0: 7914 013d a847 1c3c b0bd e9bc 7e4b 09bd
000001e0: dce1 773c 0557 28bd 60f1 98ba 78e3 243c
000001f0: 1a0b 89bc f375 eebc 0111 cbbc b821 09bd
00000200: 0084 d1b9 1418 33bc 2ced 6fbc 405b 1b3c
00000210: c718 1dbd dc94 26bd 7624 81bc 78b3 4a3c
00000220: 7800 093c 2c1a 1cbd 8891 07bc fc59 62bc
00000230: 4866 5cbc d4df ffbc f1ee 02bd a03f dbbb
00000240: 7cde 29bc 7a69 ecbc 8dce b5bc c7fe f6bc
00000250: 65db 40bd 0091 febb 6ac9 dd3c ee86 a4bc
00000260: c4c5 adbc 4ab2 ae3c f06e 84bb 5cd1 43bd
00000270: eac3 aa3c 1418 763c 25ee 26bd 1226 c43c
00000280: a0f7 e2bb 04b7 3dbc b9f8 3b3d 4869 623c
00000290: 526c abbc 785e 18bd fdf6 babc c04a 5eba
000002a0: 049e 42bd ca72 cc3c 9847 a53b c0a5 49bc
000002b0: 7ae4 21bd 3b57 293d 1a0d ba3c 8591 113d
000002c0: d095 12bd 705c a13b 32bd 943c 800b 403b
000002d0: 481a 90bb 099e 1d3d e8c5 3c3c f02c bfbc
000002e0: 68a6 20bd 5ff0 a6bc 5409 5c3c 5dd5 193d
000002f0: c67c a13c 0b83 13bd 4a67 35bd cb98 8dbc
00000300: 62f3 1fbd e27b 2dbd 2622 c93c 1681 42bd
00000310: ac3d 56bc d045 38bd 7639 22bd ce10 cf3c
00000320: 3052 0dbb 3219 903c 80e9 063b bf66 023d
00000330: 36b9 a73c 6c58 12bd fa23 8b3c f307 3f3d
00000340: e404 08bc 60c4 a2bb 91d3 113d d467 1ebd
00000350: ff75 353d ce04 42bd d0da 7dbb e2f7 f13c
00000360: e88a c93b 741e 57bc 4c7c 1ebc 62ed 05bd
00000370: 8124 8bbc 32aa b33c 849d 52bc 6243 a73c
00000380: 91f8 28bd f836 dc3b e680 f2bc 40d6 36bd
00000390: 8253 c43c 7586 16bd db1a 2f3d 43cc 1d3d
000003a0: a6ad e13c 3815 dd3b e64c 9c3c 8448 74bc
000003b0: a07e f3bb b9f3 2dbd 8134 0ebd 2afd c93c
000003c0: 8284 1ebd a0ab f6bc 04ff 0dbd 51d5 193d
000003d0: 67ab 283d d560 423d 0d37 d6bc 86bb ed3c
000003e0: 0f5e 423d 854f 193d 761c 23bd c01e 8ebc
000003f0: c817 fcbb 73e3 d8bc c5d5 2dbd 4b67 0b3d
