model/FP_100.pth (torch, 218429 bytes, 16 tensors)

rppg_feature_extractor.FeatureExtractor.0.conv_block_3d.0.weight f4 [8, 3, 3, 3, 3]
0	0xbd3c2664	-0.04593505
1	0xbdc70977	-0.09718602
2	0x3d9a7669	0.07542116
3	0x3c95820c	0.018250488
4	0x3d5d6dc2	0.05405975
5	0xbd98f730	-0.07469022
6	0x3db65773	0.08903398
7	0xbdd898fe	-0.10576056
8	0xbc894e94	-0.016761102
9	0x3da4e0d7	0.08050697
10	0xbd621a64	-0.05520095
11	0xbda9b779	-0.08286948
12	0xbcf05ddc	-0.02934163
13	0x3d2841d6	0.04107841
14	0xbcaddcc0	-0.021223426
15	0xbcc743b0	-0.024324268
16	0xbc960f08	-0.018317714
17	0xbd3f4808	-0.046699554
18	0x3d24ab52	0.040202446
19	0xbd63d324	-0.05562128
20	0x3ddce8c9	0.10786588
21	0x3dab580b	0.08366402
22	0x3c6a7ac8	0.0143115
23	0xbd3e1dd2	-0.046415158
24	0x3db30fdf	0.087432615
25	0x3dd235bf	0.102641575
26	0x3cd81904	0.026379116
27	0x3dc7f787	0.09764009
28	0xbc97ddc0	-0.018538356
29	0x3ddab0b7	0.10678237
30	0x3c5d86b8	0.013520889
31	0x3d8c2f6b	0.06844982
32	0x3ca5c37c	0.020234816
33	0x3d094b0a	0.03351883
34	0x3d503bee	0.050838403
35	0x3db30803	0.087417625
36	0xbdacf9d2	-0.08446087
37	0x3d789a02	0.06069375
38	0x3da68ff5	0.081329264
39	0xbd20908e	-0.039200358
40	0x3d94a921	0.07258821
41	0xbcd91b54	-0.026502289
42	0xbc620d28	-0.013797082
43	0x3d369142	0.044572122
44	0xbd2567ca	-0.040382184
45	0x3c0a87a8	0.0084551945
46	0x3dd76ef3	0.10519209
47	0x3da746ad	0.08167777
48	0x3db83e6f	0.08996283
49	0xbd964800	-0.07337952
50	0xbd55b140	-0.052170992
51	0xbdc40102	-0.09570505
52	0x3dad391b	0.08458158
53	0x3d06840a	0.032840766
54	0x3dd5ea81	0.10445119
55	0x3dd5ce79	0.10439772
56	0xbac6f2c0	-0.0015178546
57	0xbcd47dc0	-0.025938869
58	0x3be71920	0.0070525557
59	0x3d73b9d2	0.059503384
60	0xbce6d4ec	-0.028177701
61	0xbd45f23c	-0.048326716
62	0xbd5f56f9	-0.054526303
63	0xbcf04940	-0.029331803
64	0xbd684580	-0.056706905
65	0xbc0260c8	-0.007957645
66	0x3d50a982	0.050942905
67	0xbc83d6c0	-0.016093612
68	0x3dc0c63d	0.09412811
69	0x3c50ac38	0.012736373
70	0x3c683a28	0.014174022
71	0x3d40904e	0.04701262
72	0x3b80c090	0.0039292052
73	0xbcff4d1c	-0.031164698
74	0xbdc5eee2	-0.09664704
75	0xbd552099	-0.05203304
76	0xbd2f296e	-0.04276412
77	0x3d6144b6	0.05499717
78	0x3d02d052	0.03193695
79	0xbd0107ae	-0.031501465
80	0x3d31dd2e	0.043423824
81	0x3dd39ca9	0.10332615
82	0xbc2eca38	-0.01066833
83	0xbdb52b87	-0.08846193
84	0x3d04609a	0.03231869
85	0xbd6400ab	-0.0556647
86	0x3c0c1660	0.0085502565
87	0xbdc8be85	-0.09801964
88	0x3da59753	0.080855034
89	0xbdba115e	-0.09085344
90	0x3c9a208c	0.018814348
91	0xbcc61a94	-0.024182595
92	0x3d9fdf45	0.07806257
93	0x3dbdfb4f	0.09276449
94	0xbd2ea57c	-0.042638287
95	0x3d51b15a	0.051194526
96	0x3c5eca28	0.0135980025
97	0x3dc580c9	0.096437044
98	0x3dd9d431	0.106361754
99	0x3dda0279	0.10645003
100	0xbdd37080	-0.10324192
101	0xbc94fa14	-0.018185653
102	0xbdddf3c5	-0.10837511
103	0xbcc99478	-0.024606928
104	0xbd8b1b17	-0.06792276
105	0xbd668259	-0.056276653
106	0xbcedd52c	-0.029032312
107	0x3ca96824	0.020679541
108	0xbc9a3d88	-0.018828169
109	0x3d999483	0.074990295
110	0x3dc4a8c1	0.096025
111	0x3d947d61	0.07250477
112	0x3dce503f	0.100738995
113	0x3de1ed5f	0.11031603
114	0xbdcdbb69	-0.10045511
115	0xbd6e1a87	-0.058130767
116	0x3d8184e1	0.06324173
117	0xbdc4c202	-0.096073166
118	0xbc8711c0	-0.016487956
119	0xbc696db8	-0.01424735
120	0xbd76189d	-0.060082067
121	0x3da10579	0.07862372
122	0x3d8982a1	0.067143686
123	0x3dcf9825	0.10136441
124	0x3ddc2f6f	0.10751235
125	0x3d8d0509	0.06885726
126	0x3d798b16	0.06092366
127	0xbddd181e	-0.107956156
128	0x3d8b4fc7	0.06802326
129	0xbc817f38	-0.015807733
130	0xbdd6617e	-0.10467814
131	0xbdbab0d2	-0.09115757
132	0xbd2dae4a	-0.042402543
133	0x3d360b76	0.044444524
134	0xbc9b2000	-0.018936157
135	0xbdbe7316	-0.09299295
136	0xbb631c00	-0.003465414
137	0x3d8fbcbb	0.07018419
138	0xbdd75f04	-0.1051617
139	0x3d79a2aa	0.060946144
140	0x3d31c056	0.043396316
141	0xbd894bd0	-0.06703913
142	0x3d85928d	0.06522093
143	0xbd3d4a76	-0.04621359
144	0xbd92e22e	-0.071720466
145	0xbce65a88	-0.02811934
146	0xbdd8e9b9	-0.10591454
147	0xbbea0f90	-0.0071429685
148	0x3cce7204	0.025200851
149	0xbd5f45dd	-0.054509986
150	0x3dc3c651	0.0955931
151	0xbd10bafc	-0.035334572
152	0x3dc25215	0.09488312
153	0x3dda1d11	0.10650075
154	0xbd1bdb68	-0.03805104
155	0xbca77fe4	-0.020446725
156	0xbd894e09	-0.06704337
157	0xbd130d04	-0.035901085
158	0xbda6cff6	-0.08145134
159	0xbdb1e67b	-0.08686539
160	0x3d099006	0.033584617
161	0xbd880412	-0.06641401
162	0xbce44fac	-0.027870022
163	0xbd09dee8	-0.033659846
164	0xbad1a5c0	-0.0015994832
165	0xbddff88e	-0.1093608
166	0xbd952b9a	-0.07283707
167	0x3d2cd682	0.042196758
168	0x3da4f3c5	0.08054308
169	0x3d28a69a	0.04117451
170	0x3d67cd06	0.05659201
171	0x3d9d204f	0.07672178
172	0x3d5505e2	0.052007563
173	0x3d7fdc5e	0.062466018
174	0xbc5d4cd8	-0.0135070905
175	0xbda9ef34	-0.082975775
176	0xbd36529c	-0.044512376
177	0x3dacf0d5	0.084443726
178	0xbc930130	-0.017944902
179	0x3cd33304	0.025781162
180	0xbdb0f610	-0.08640683
181	0xbdd01ee7	-0.10162144
182	0x3d4df02a	0.050277866
183	0x3d1eb432	0.038746066
184	0xbd20167c	-0.039083943
185	0xbdb7b4dc	-0.08970043
186	0x3c81b7d4	0.015834726
187	0xbdc21bb6	-0.09477942
188	0xbdca96de	-0.09892057
189	0x3c37e138	0.01122313
190	0x3dac5011	0.08413709
191	0xbd033aa4	-0.032038346
192	0x3d392ad6	0.045206867
193	0x3d9a5353	0.07535424
194	0x3ce95894	0.02848462
195	0x3dacf7cf	0.08445703
196	0xbdc07aab	-0.09398397
197	0xbdda3ff2	-0.10656728
198	0x3d62d49a	0.055378534
199	0xbc187d80	-0.009307265
200	0x3cee38dc	0.029079847
201	0xbbcacde0	-0.006189093
202	0xbdabb974	-0.08384982
203	0x3c657088	0.01400388
204	0xbda08c00	-0.07839203
205	0x3dd89d9d	0.10576937
206	0x3dbc4ee1	0.091947325
207	0x3c873e24	0.016509123
208	0x3cefe3d4	0.029283442
209	0x3d65f54e	0.056142144
210	0xbce08124	-0.027405329
211	0xbd96ca6c	-0.07362828
212	0xbd456978	-0.048196286
213	0xbd4eb372	-0.0504641
214	0xbcc8065c	-0.024417095
215	0xbca60608	-0.020266548
216	0x3d761bfe	0.06008529
217	0x3b890750	0.00418178
218	0xbdb4ab49	-0.088217326
219	0xbdd2d2d2	-0.10294117
220	0x3a711380	0.0009196326
221	0x3d883fa9	0.06652767
222	0xbd88b06c	-0.06674275
223	0x3d47255e	0.04861962
224	0xbd727972	-0.05919785
225	0xbd7c6ab2	-0.06162519
226	0xbd09aabc	-0.03361009
227	0xbc2fa8d8	-0.010721408
228	0x3d87f1b1	0.06637896
229	0xbdab88f0	-0.08375728
230	0x3db29d8f	0.08721458
231	0xbd328618	-0.043584913
232	0x3d46fe2a	0.048582233
233	0xbd1cb5ea	-0.038259424
234	0x3db04f2b	0.0860885
235	0xbd22426a	-0.03961412
236	0x3dcbc573	0.0994977
237	0xbdba0ebb	-0.09084841
238	0xbcbfc92c	-0.023411356
239	0xbdddff6b	-0.10839733
240	0x3d5be14a	0.05368165
241	0xbd7a15a4	-0.061055794
242	0x3da5acf1	0.080896266
243	0xbd944f52	-0.07241692
244	0xbd8c5f1a	-0.06854077
245	0xbb519ce0	-0.0031984374
246	0x3dcfa947	0.10139709
247	0x3d72cb62	0.059275992
248	0x3d0ede2e	0.034879856
249	0x3d5c990e	0.0538569
250	0xbd9b5854	-0.07585207
251	0xbced86b0	-0.028994888
252	0x3dc69f15	0.09698311
253	0x3cc01284	0.023446329
254	0x3d89193b	0.066942655
255	0x3d48015e	0.04882943

rppg_feature_extractor.FeatureExtractor.1.conv_block_3d.0.weight f4 [12, 8, 3, 3, 3]
0	0x3d3ec3a4	0.046573296
1	0xbd1573dc	-0.036487445
2	0xbd59f2ea	-0.053210177
3	0x3d234c4a	0.039867677
4	0xbd8014d1	-0.062539704
5	0x3c66adf8	0.014079563
6	0xbcf664e2	-0.030077402
7	0x3d3ce3ba	0.046115614
8	0x3d16b8fa	0.0367975
9	0x3d40ed2e	0.047101192
10	0x3c431450	0.011906698
11	0xbd6d6f67	-0.05796757
12	0x3cd1d468	0.025613979
13	0x3c37b108	0.011211641
14	0x3c2d7168	0.01058612
15	0x3d0bc768	0.034125715
16	0x3d1ef4e4	0.038807765
17	0x3c7fc368	0.015610553
18	0x3d4bdc7e	0.049770825
19	0xbcacbd7e	-0.02108645
20	0x3d799fec	0.06094353
21	0x3d26925c	0.040666923
22	0x3d53a394	0.051669672
23	0x3d808dc4	0.0627704
24	0x3ce023ac	0.02736076
25	0xbc927926	-0.017880034
26	0xbbae05c0	-0.005310744
27	0x3cb0052c	0.021486841
28	0xbcee93f4	-0.029123284
29	0xbd89b8a0	-0.067246675
30	0x3cf76204	0.030198105
31	0xbc7aad20	-0.015300065
32	0xbd2fcde2	-0.042920955
33	0x3d32117a	0.0434737
34	0xbd76df04	-0.060271278
35	0x3b7396c0	0.0037168711
36	0x3d8a2d54	0.06746927
37	0xbca4fe9c	-0.020140938
38	0xbd0309d7	-0.031991806
39	0x3c695838	0.014242224
40	0x3d370c04	0.044689193
41	0x3c090bb0	0.008364603
42	0x3c04fc90	0.008116856
43	0x3c8985bc	0.016787402
44	0x3c5e9bc8	0.013586946
45	0xbd221e3e	-0.039579622
46	0x3c59e498	0.01329913
47	0xbd247100	-0.040146828
48	0xbd1b3e01	-0.03790093
49	0x3c385108	0.011249788
50	0x3c85a940	0.016316056
51	0xbd492330	-0.049105823
52	0xbd4b021c	-0.04956256
53	0xbcfe0f80	-0.03101325
54	0xbd68ea3d	-0.056864012
55	0xbc8003fa	-0.015626896
56	0xbd352661	-0.044226054
57	0x3c655d68	0.013999321
58	0xbd5f9c9f	-0.054592725
59	0xbc8b8216	-0.017029803
60	0xbc88d2c4	-0.016702063
61	0xbccdcc46	-0.02512182
62	0xbd748b77	-0.059703317
63	0xbcfc3c6a	-0.030790526
64	0xbd64e755	-0.055884678
65	0x3b641dc0	0.0034807771
66	0x3d43e846	0.047828935
67	0x3d036770	0.032081068
68	0xbd7a7e9d	-0.061155904
69	0xbd184668	-0.03717652
70	0x3c98b0bc	0.018638961
71	0xbbc0a798	-0.0058793537
72	0x3c76dce0	0.015067309
73	0x3d6bee18	0.05760011
74	0x3d5e6cce	0.054302983
75	0x3d24d8b4	0.040245727
76	0x3d1d338e	0.038379245
77	0xbd4be3cc	-0.04977779
78	0xbd86c905	-0.0658131
79	0x3cba0f94	0.022712506
80	0x3d5a65b2	0.05331964
81	0xbd7976ba	-0.060904242
82	0xbd3b8f32	-0.04579086
83	0xbc4f16fc	-0.012639757
84	0xbc72fdb8	-0.014830999
85	0xbd3c299e	-0.045938127
86	0x3c8eb6ac	0.01742109
87	0x3c858e7c	0.016303293
88	0x3ba42eb0	0.0050104484
89	0x3d2a2780	0.041541576
90	0x3cc1f02c	0.023674093
91	0xbd3e37b6	-0.04643985
92	0xbc9d8b06	-0.01923133
93	0x3d5877b8	0.052848548
94	0x3af48700	0.0018655956
95	0xbd1e92f6	-0.03871437
96	0xbd895c48	-0.067070544
97	0x3b761f80	0.0037555397
98	0x3cea1c24	0.028577872
99	0xbd211071	-0.03932232
100	0xbc99e212	-0.018784557
101	0x3b86a130	0.0041085705
102	0x3d499ce0	0.049221873
103	0x3c8d2d78	0.017233595
104	0xbcb9be80	-0.022673845
105	0xbd705afb	-0.058680516
106	0x3b778cc0	0.0037773103
107	0x3d49741a	0.04918299
108	0x3cb6eb98	0.022329137
109	0x3d5860dc	0.052826747
110	0xbc7e7874	-0.015531648
111	0x3c0bc2f0	0.008530363
112	0xbd8a157a	-0.067423776
113	0xbce0c908	-0.02743961
114	0xbd3d043a	-0.04614661
115	0xbd456867	-0.04819527
116	0xbd143984	-0.036187664
117	0xbd5c0e66	-0.05372467
118	0xbd3d7616	-0.046255194
119	0xbce78d92	-0.028265748
120	0xbd42b754	-0.047538117
121	0xbd024a2b	-0.031809013
122	0x3d503ab8	0.05083725
123	0x3d614eda	0.05500684
124	0x3cb1257c	0.02162432
125	0x3d5bdbe2	0.053676493
126	0xbd3ec22e	-0.046571903
127	0x3d072d58	0.033002228
128	0x3cc0acdc	0.023519926
129	0x3cfb1978	0.030651793
130	0x3a421800	0.0007404089
131	0xbb9b6470	-0.0047421977
132	0x3d46327e	0.048387997
133	0x3d643616	0.055715643
134	0x3cef9610	0.02924636
135	0xbc4fa338	-0.012673192
136	0xbcfacb34	-0.030614473
137	0xbd1879d6	-0.037225567
138	0xbd5086e2	-0.050909884
139	0xbd7e64e7	-0.062107947
140	0x3d2deff2	0.042465158
141	0x3d6042a4	0.054751053
142	0x3d5af3be	0.053455107
143	0xbd340a30	-0.043955028
144	0x3ccc75c4	0.024958499
145	0xbce13832	-0.027492616
146	0xbc2e50d8	-0.010639392
147	0xbc3a7764	-0.011381004
148	0x3d686fe4	0.056747332
149	0xbcf6b83c	-0.030117147
150	0xbd5b6ea9	-0.05357233
151	0x3ccd7e38	0.0250846
152	0xbc7773f4	-0.015103329
153	0xbd8514b7	-0.06498092
154	0xbcc2c856	-0.023777168
155	0x3c537448	0.012906142
156	0x3d806e28	0.06271011
157	0x3cb9fe6c	0.022704326
158	0x3b84d820	0.0040540844
159	0x3ce55574	0.027994849
160	0xbd7b4463	-0.061344516
161	0x3d430bb8	0.047618598
162	0x3d10fd02	0.035397537
163	0x3bd1f0a0	0.0064068586
164	0x3d57aa30	0.052652538
165	0x3cb11ce8	0.021620229
166	0xbd3db609	-0.04631618
167	0x3d3e7d2e	0.0465061
168	0xbd8968e0	-0.067094564
169	0x3befe200	0.0073206425
170	0x3cdb2820	0.026752532
171	0x3d25159e	0.04030382
172	0x3d54d0e0	0.05195701
173	0xbd092483	-0.033482086
174	0xbcb0736e	-0.021539416
175	0x3cb33bb0	0.021879047
176	0xbd2d11ee	-0.042253427
177	0x3d7e2188	0.062043697
178	0xbc92b7a0	-0.017909825
179	0xbd67cfd3	-0.05659468
180	0xbd84ed67	-0.064905934
181	0xbcad38e2	-0.021145288
182	0xbd1e13f0	-0.038593233
183	0xbd5fbc03	-0.05462266
184	0xbd4996e2	-0.04921616
185	0x3a308900	0.0006734282
186	0x3b6a7660	0.0035776123
187	0xbcb2a1fc	-0.021805756
188	0x3cdd0370	0.026979178
189	0x3d50fd4e	0.05102282
190	0x3d2f196a	0.042748846
191	0xbc8f8c4e	-0.017522957
192	0xbd2937c2	-0.04131294
193	0xbd204359	-0.039126728
194	0xbd12bc75	-0.035824258
195	0xbcbcb93a	-0.023037542
196	0xbd2b9e08	-0.041898757
197	0x3c44d3c0	0.012013376
198	0x3cced89c	0.025249772
199	0x3d1aaece	0.037764363
200	0xbd6fec38	-0.058574885
201	0x3c7a1d58	0.015265785
202	0x3cd60898	0.026127145
203	0xbd3bc6c8	-0.04584387
204	0xbd073773	-0.033011865
205	0x3d6861ac	0.056733772
206	0xbd382174	-0.04495378
207	0xbd48bfd0	-0.04901105
208	0x3cf814f0	0.030283421
209	0xbd861181	-0.06546307
210	0x3bfac480	0.007652819
211	0xbb62c7a0	-0.003460385
212	0xbcd46716	-0.025928061
213	0xbd1d8552	-0.038457222
214	0xbad8ab40	-0.0016530529
215	0xbd3b946e	-0.04579585
216	0x3cda54c0	0.02665174
217	0xbd37f201	-0.044908527
218	0x3bbace30	0.005700849
219	0x3d25e7b2	0.040504165
220	0x3d32e8f0	0.043679178
221	0xbcca445c	-0.0246908
222	0x3c95c37c	0.01828169
223	0x3d432630	0.04764384
224	0x3bc05090	0.005868979
225	0xbb8b7f30	-0.0042571053
226	0xbc99c076	-0.01876853
227	0x3d309b78	0.043117017
228	0xbd0717b8	-0.032981604
229	0x3c10db58	0.008841358
230	0x3b88e090	0.0041771606
231	0xbd2754ed	-0.040852476
232	0x3c70dba0	0.0147008
233	0x3d554616	0.052068792
234	0xbcea9a0e	-0.028637912
235	0x3d1e700c	0.038681075
236	0xbbf0c0e8	-0.007347215
237	0xbd09fe9c	-0.03369008
238	0xbd4c0ccf	-0.049816903
239	0xbd724ba4	-0.059154168
240	0x3bdaf110	0.006681569
241	0xbd48168f	-0.04884964
242	0x3a5b4e00	0.000836581
243	0x3c814440	0.015779614
244	0x3c46f678	0.012143724
245	0xbd897a41	-0.06712771
246	0xbd63d919	-0.055626962
247	0xbd68f394	-0.05687292
248	0x3d1bb62c	0.03801553
249	0x3c3bc4b8	0.011460476
250	0x3b38c800	0.0028195381
251	0x3d41958e	0.047261767
252	0xbc5ceedc	-0.013484683
253	0x3cd21f1c	0.0256496
254	0x3cddd46c	0.02707883
255	0x3d6dbcc0	0.058041334

rppg_feature_extractor.FeatureExtractor.2.conv_block_3d.0.weight f4 [12, 12, 3, 3, 3]
0	0xbd542749	-0.051795278
1	0xbd18cbdc	-0.03730379
2	0x3b8a2920	0.0042163283
3	0xbd2ac109	-0.041688
4	0x3d3bd077	0.045853104
5	0x3cc3fc3e	0.02392399
6	0x3d3f0895	0.046639044
7	0x3cc17a2e	0.02361783
8	0x3c9df656	0.019282501
9	0x3d12c367	0.03583088
10	0x3d51cf71	0.051223222
11	0x3c338ae4	0.010958407
12	0x3cb7071e	0.02234226
13	0xbd5c7bbd	-0.053828944
14	0x3bb0fa20	0.005400911
15	0xbcc67078	-0.024223551
16	0x3d3510b1	0.04420537
17	0xbb2ddfe0	-0.0026531145
18	0x3b9a7a80	0.00471431
19	0xbd385bf7	-0.04500958
20	0x3c7bf354	0.015377838
21	0xbc34c6e4	-0.011033747
22	0xbb04dc70	-0.0020272993
23	0xbd338ff0	-0.04383844
24	0xbb186600	-0.0023254156
25	0xbd504b07	-0.0508528
26	0xbd3a853b	-0.045537215
27	0xbbd9bca0	-0.0066448003
28	0xbb6f6740	-0.0036530048
29	0xbc6b1bb8	-0.01434987
30	0x3cc885ee	0.024477925
31	0x3c160e4c	0.009158682
32	0x3d15060b	0.036382716
33	0xbd63415e	-0.05548226
34	0x3d455677	0.048178162
35	0x3d06c53d	0.032902945
36	0xbd0c1cba	-0.034207083
37	0xbce922c4	-0.02845896
38	0x3cf94f26	0.030433249
39	0xbd614472	-0.054996915
40	0xbb7898e0	-0.0037932917
41	0x3d550deb	0.052015226
42	0xbd267846	-0.040642045
43	0xbcbce312	-0.023057494
44	0xbd5b3060	-0.05351293
45	0xbc6e7ff8	-0.014556877
46	0xbd1998ca	-0.037499227
47	0x3cacaab2	0.021077488
48	0x3d240261	0.04004133
49	0xbafe8840	-0.0019419268
50	0xbcc0eb8a	-0.023549814
51	0xbd61e5c2	-0.055150755
52	0x3c68ddcc	0.014213037
53	0xbc482224	-0.012215171
54	0x3d1d4d4b	0.03840379
55	0x3d44c8d7	0.0480431
56	0xbd508979	-0.050912354
57	0x3d18270b	0.03714661
58	0x3d0d224f	0.034456547
59	0xbd41a7e7	-0.047279265
60	0xbc69df38	-0.014274411
61	0x3cccf816	0.02502064
62	0x3cd3d636	0.02585898
63	0x3d2bf931	0.041985694
64	0xbd16b35a	-0.036792137
65	0xbca9dc92	-0.020735059
66	0x3975e500	0.0002345033
67	0x3ba753f0	0.0051064417
68	0xbd24d64b	-0.04024343
69	0x3c4498f4	0.0119993575
70	0x3c7ed004	0.0155525245
71	0xbc56c09c	-0.013107445
72	0xbc767f38	-0.01504498
73	0xbc141a24	-0.009039436
74	0x3c031584	0.008000735
75	0x3d5c2a11	0.053751055
76	0xbbd87fe0	-0.0066070408
77	0x3c09ab1c	0.008402612
78	0x3d373c31	0.044735137
79	0xbcb4fc72	-0.022093032
80	0x3d55de39	0.05221388
81	0x3b8053d8	0.003916245
82	0x3d40f5c1	0.04710937
83	0x3d0edf37	0.034880843
84	0xbd24d63c	-0.040243372
85	0x3d52fe61	0.051512126
86	0xbd0a5946	-0.033776544
87	0x3d5f0ed1	0.05445749
88	0xbb1525b0	-0.002275806
89	0xbd16cc29	-0.036815796
90	0xbd325fc0	-0.043548346
91	0xbd28db2b	-0.04122464
92	0xbcc4430e	-0.023957755
93	0x398a9f00	0.00026439875
94	0xbc0261d4	-0.007957894
95	0x3c2f958c	0.010716807
96	0x3ca42836	0.020038705
97	0xbc31b478	-0.01084625
98	0x3cc20c12	0.023687396
99	0x3cc5d2c6	0.024148356
100	0x3c8a262e	0.016863909
101	0x3d4596e9	0.048239622
102	0xbcd1e2d5	-0.025620857
103	0x3d13fbdf	0.036128875
104	0x3c9935a2	0.018702332
105	0x3cafabce	0.021444228
106	0x3d1bf3bd	0.038074244
107	0x3d2fa267	0.04287949
108	0xbd194906	-0.037423156
109	0xbd27f059	-0.041000698
110	0xbc8c0720	-0.017093241
111	0x3c0b7ad4	0.008513171
112	0xbbc173b8	-0.0059036873
113	0x3d27c4b1	0.040959064
114	0xbd5d4ce7	-0.054028418
115	0x3c20bfb4	0.009811331
116	0x3b8178c8	0.003951166
117	0x3d175dc5	0.03695466
118	0xbc06d908	-0.008230455
119	0xbc8f2a6a	-0.01747628
120	0xbd51affc	-0.051193222
121	0xbca078d6	-0.019588869
122	0xbc01002c	-0.007873576
123	0x3d5ab0d3	0.05339129
124	0xbcc0769c	-0.023494057
125	0x3d19411f	0.03741562
126	0x3bd739d8	0.006568175
127	0xbbf01100	-0.0073262453
128	0xbd072909	-0.03299812
129	0xbd4afd5b	-0.049558025
130	0x3c09190c	0.008367788
131	0xbc5b7c38	-0.013396315
132	0xbc991cf8	-0.018690571
133	0x3ce2a406	0.027666103
134	0xbd311846	-0.04323604
135	0x3d1475d3	0.03624518
136	0x3d3f64a5	0.04672684
137	0x3cbb2e1a	0.022849131
138	0x3d0c5ab9	0.034266207
139	0x3c80072e	0.015628424
140	0xbbdc4970	-0.0067226216
141	0xbd314d92	-0.043286867
142	0x3cf16b5a	0.029470135
143	0xbcf7f29d	-0.030267054
144	0x3abff360	0.0014644675
145	0x3c155c9c	0.009116318
146	0x3d4deb57	0.050273266
147	0xba8c78e0	-0.0010717176
148	0xbc794ce4	-0.015216086
149	0xbd0a5dd0	-0.033780873
150	0xbca76e58	-0.020438358
151	0xbcc55136	-0.024086576
152	0x3c4c1a84	0.012457494
153	0x3cdbf62a	0.026850779
154	0xbc80b34a	-0.015710492
155	0xbd3b4002	-0.04571534
156	0xbc339954	-0.010961849
157	0x3c7f6ee4	0.015590403
158	0xbd4114eb	-0.04713909
159	0x3cdf6b2a	0.02727278
160	0x3d0bbd59	0.034116123
161	0x3d416531	0.047215644
162	0x3d3b4811	0.045723025
163	0xbd259eb2	-0.040434547
164	0x3cd6b06e	0.026207175
165	0x3d4695e7	0.0484828
166	0xbc85a62e	-0.016314592
167	0x3d44f7cf	0.04808789
168	0x3d45b213	0.048265528
169	0xbd2daf52	-0.042403527
170	0xbbc78e38	-0.006089952
171	0xbd4070a4	-0.046982422
172	0x3d199327	0.03749385
173	0x3ca6fd7e	0.020384546
174	0x3b927948	0.0044700243
175	0xbd46fd87	-0.048581626
176	0xbd29fa2e	-0.041498356
177	0x3d39bc5b	0.045345645
178	0xbd3ce974	-0.046121076
179	0xbd274320	-0.0408355
180	0x3cda0c62	0.026617233
181	0xbca4d948	-0.020123139
182	0x3d628b5f	0.055308696
183	0x3c7acafc	0.015307184
184	0xbc88986e	-0.016674247
185	0x3d17b9cf	0.037042435
186	0xbc3c0094	-0.011474747
187	0x3ce0c6aa	0.02743848
188	0x3cf1d0f6	0.029518586
189	0x3bfedec8	0.0077780224
190	0xbd4d2637	-0.050085273
191	0x3d4a71c9	0.04942492
192	0xbd1b2ff2	-0.03788752
193	0x3d5b2cd7	0.05350956
194	0xbd1cc962	-0.03827799
195	0xbd624517	-0.05524167
196	0x3ccaeec2	0.024772052
197	0xbc0996e4	-0.008397792
198	0x3d4e15a1	0.050313596
199	0x3ccceab6	0.025014263
200	0xbd4c8544	-0.04993178
201	0xbd27011c	-0.040772542
202	0x3cd8d792	0.02646998
203	0x3d2dd045	0.04243495
204	0x3d0e1791	0.034690443
205	0xbd010c70	-0.031506002
206	0x3d450fdf	0.04811084
207	0x3b35ae20	0.0027722195
208	0xbd0ec212	-0.03485305
209	0xbc7f3c00	-0.01557827
210	0xbc516bb0	-0.012782022
211	0xbc784900	-0.015154123
212	0xbd0093fa	-0.03139112
213	0x3c55121c	0.013004806
214	0x3cd4fc76	0.025999289
215	0x3d2f050d	0.042729426
216	0x3d5892b9	0.0528743
217	0x3cae9f8a	0.021316309
218	0xbb2ce9b0	-0.0026384406
219	0x3d36d441	0.044636015
220	0xbcda2224	-0.026627608
221	0x3d2e1383	0.042499077
222	0x3ba9e348	0.0051845647
223	0xbbba5c90	-0.005687304
224	0x3bbf5d00	0.005839944
225	0xbd162dfc	-0.036664948
226	0x3d0ecceb	0.034863394
227	0xbd5dc540	-0.05414319
228	0xbd2e254c	-0.042516038
229	0xbd312c17	-0.043254938
230	0xbcd3de24	-0.02586276
231	0x3d5e17c9	0.054221902
232	0x39c82b80	0.00038179383
233	0xbc9e8d4e	-0.019354489
234	0x3d01d261	0.031694774
235	0xbc171cdc	-0.009223189
236	0x3d0c2493	0.034214567
237	0x3d0a313d	0.033738364
238	0x3d4b2739	0.049597953
239	0x3d5318a1	0.05153716
240	0xbd173366	-0.03691425
241	0xbd406e5e	-0.046980254
242	0x3c86f95a	0.016476322
243	0x3cf8555e	0.030314144
244	0xbcb2a98e	-0.021809366
245	0x3d53215f	0.051545497
246	0xbd0a3a46	-0.03374698
247	0xbc0a7138	-0.008449845
248	0x3d569bd3	0.0523947
249	0xbc40daa4	-0.011770878
250	0x3b0352e0	0.002003841
251	0x3c49df5c	0.012321319
252	0x3c52ea1c	0.012873199
253	0x3b89d228	0.004205961
254	0xbc8ea08a	-0.017410535
255	0x3d6071f1	0.054796163

rppg_feature_extractor.FeatureExtractor.4.conv_block_3d.0.weight f4 [12, 12, 3, 3, 3]
0	0xbc0f9614	-0.008763809
1	0xbcdbb66e	-0.026820388
2	0x3bc2eef0	0.0059488937
3	0x3cd07c42	0.025449876
4	0x3d22a9a9	0.03971258
5	0xbd52adc4	-0.051435247
6	0x3d27ae11	0.040937487
7	0x3ccfa05a	0.025345016
8	0xbc58f9f8	-0.013243191
9	0x3c68f004	0.01421738
10	0x3cb29fa6	0.021804642
11	0x3d18c9b1	0.037301723
12	0xbd124856	-0.035713516
13	0x3d403c03	0.04693223
14	0xbc88bcca	-0.016691584
15	0x3b8c1858	0.004275363
16	0x3c9e11ee	0.019295659
17	0xbd4e9dc4	-0.050443426
18	0x3d5d73f5	0.054065663
19	0x3cf91aa2	0.030408207
20	0xbd438729	-0.04773632
21	0x3aeb8ca0	0.0017970987
22	0x3cdb494e	0.026768353
23	0xbc7cd690	-0.015432015
24	0xbacf38a0	-0.0015809722
25	0x3d35f79d	0.044425596
26	0xbd41d939	-0.0473263
27	0xbcf20d1d	-0.029547269
28	0xbd2117fa	-0.039329506
29	0xbc7c25dc	-0.015389886
30	0x3bf08718	0.007340323
31	0xbca8efd2	-0.020622168
32	0xbcf1ab15	-0.029500524
33	0x3a981920	0.0011604168
34	0xbd428446	-0.047489427
35	0xbd2c7b64	-0.042109862
36	0xbd3fcc36	-0.04682561
37	0x3d4a3ef3	0.04937644
38	0x3c3e157c	0.011601802
39	0x3d200911	0.039071146
40	0x399c4b80	0.0002981089
41	0xbd3c48be	-0.04596781
42	0xbb1f0340	-0.0024263412
43	0xbc130aec	-0.008974772
44	0xbd138272	-0.036013074
45	0x3d5890d5	0.052872498
46	0x3d11de9b	0.035612684
47	0x3d1736bb	0.03691743
48	0xbc713e1c	-0.014724281
49	0x3bcfd6f0	0.006342761
50	0x3c9826ca	0.018573184
51	0x3ca0a882	0.0196116
52	0xbce1601d	-0.02751165
53	0x3d49c781	0.049262527
54	0x3d2ae0e5	0.041718382
55	0xbd605b8e	-0.054774813
56	0x3c854112	0.01626638
57	0x3d422bed	0.047405172
58	0x3b000920	0.001953669
59	0x3c3e86c4	0.01162881
60	0xbce72847	-0.028217448
61	0x3d5e9f19	0.054350946
62	0xbc96ed38	-0.018423662
63	0x3d126751	0.03574306
64	0xbcaf88a8	-0.021427467
65	0xbcc5fd80	-0.02416873
66	0x3d3da1cd	0.046296883
67	0xbd224fc7	-0.039626863
68	0x3c9c6b82	0.019094232
69	0xbd607d2e	-0.05480688
70	0xbd1167f4	-0.035499528
71	0xbd336c99	-0.04380474
72	0xbc8502f2	-0.016236756
73	0x3aa146a0	0.0012304373
74	0xbce9777d	-0.02849936
75	0xbd0f8c6e	-0.035046034
76	0x3ca1af6e	0.019736972
77	0x3c5dac8c	0.013529908
78	0x3ceafb56	0.0286843
79	0xbd34228b	-0.043978255
80	0xbd181680	-0.037130833
81	0x3c70b21c	0.014690902
82	0xbcc5252e	-0.02406558
83	0xbd0dd080	-0.03462267
84	0x3cd7ecaa	0.026357967
85	0x3d6244c1	0.05524135
86	0xbd4e10db	-0.050309043
87	0x3d26c175	0.04071184
88	0x3cba8ed6	0.022773188
89	0xbd50bc79	-0.05096099
90	0x3d482a91	0.04886872
91	0xbd4c2074	-0.049835637
92	0xbd0f4786	-0.03498032
93	0xbc7c56f0	-0.015401587
94	0xbc5d0a70	-0.013491258
95	0xbd1cc6de	-0.038275592
96	0xbcab1628	-0.020884588
97	0xbd2c0feb	-0.042007368
98	0x3d39123d	0.04518341
99	0x3c2d40ac	0.010574501
100	0x3d22d91d	0.039757837
101	0x3d1819af	0.03713387
102	0xbd31060b	-0.043218654
103	0x3ccb5902	0.024822716
104	0xbc285808	-0.010274895
105	0xbd363d7c	-0.04449223
106	0x3d50f3e7	0.051013853
107	0xbd529a7c	-0.05141686
108	0xbcc183e8	-0.023622468
109	0xbd4f8b02	-0.050669678
110	0xba2e3c00	-0.0006646514
111	0xbc86bc16	-0.016447108
112	0x3d2ad6c5	0.041708726
113	0x3d186507	0.037205722
114	0xbd289154	-0.04115422
115	0x3d3f176d	0.0466532
116	0x3d4a0de3	0.04932965
117	0xbce5a567	-0.028032972
118	0x3b5f66b0	0.0034088306
119	0xbca64040	-0.020294309
120	0x3c8a491a	0.01688056
121	0x3d1cf261	0.038317088
122	0xbc058b40	-0.008150876
123	0x3d334835	0.043770034
124	0x3d53e24f	0.051729497
125	0xbd4fe345	-0.05075385
126	0x3a8f2d80	0.0010923594
127	0xbd5c0b7d	-0.053721894
128	0x3d59a279	0.05313346
129	0x3c963566	0.01833601
130	0x3cf9baa2	0.030484501
131	0xbd615c37	-0.055019584
132	0xbc0c8478	-0.008576505
133	0xbbde0b70	-0.006776266
134	0x3cedcbf6	0.02902792
135	0xbcffe05d	-0.031234914
136	0xbc2f4c9c	-0.010699417
137	0xbd4bd6b5	-0.049765307
138	0xbd13d080	-0.036087513
139	0x3cde5b06	0.027143013
140	0xbba14af0	-0.0049222633
141	0x3d3ee517	0.046605196
142	0xbc7dfa70	-0.0155016035
143	0xbd3270b7	-0.043564525
144	0xbcc9e66b	-0.024646005
145	0xbb948ae0	-0.0045331568
146	0xbd6000e4	-0.05468835
147	0xbcb72678	-0.02235721
148	0xbd57fc87	-0.052731063
149	0xbc300548	-0.010743447
150	0xbd042372	-0.032260366
151	0x3c35c7dc	0.0110950135
152	0xbd2c76de	-0.042105548
153	0x3cf73ed2	0.030181322
154	0x3d1fb315	0.038989145
155	0xbd4f8fa7	-0.050674107
156	0x3d50c1d5	0.050966103
157	0xbd11e402	-0.035617836
158	0x3cd1b682	0.025599722
159	0xbcd6828e	-0.0261853
160	0xbd30e11b	-0.043183427
161	0x3d25a6c5	0.040442247
162	0x3d1dac3b	0.03849433
163	0xbcc8688e	-0.024463918
164	0x3b3f0470	0.0029146932
165	0x3d4394a3	0.047749173
166	0xbbbee538	-0.005825665
167	0xbd4d10e2	-0.05006493
168	0xbd4b9705	-0.04970457
169	0xbd58ee75	-0.052961785
170	0x3b05fc00	0.0020444393
171	0xbd6375e2	-0.055532344
172	0x3c7f0834	0.015565921
173	0xbd4585fc	-0.04822348
174	0x3cb6655a	0.022265125
175	0xbbba9cf0	-0.005694978
176	0x3d361abf	0.0444591
177	0xbd19f71c	-0.037589177
178	0xbc2aa9f0	-0.010416493
179	0x3d11ef05	0.035628337
180	0xbc320064	-0.010864351
181	0xbd510ca9	-0.051037464
182	0xbcddb3fd	-0.027063364
183	0xbc46a148	-0.012123413
184	0x3b16e120	0.0023022369
185	0xbcdae792	-0.02672175
186	0xb9fae600	-0.0004785508
187	0xbc274908	-0.010210283
188	0x3d3e54e7	0.046467688
189	0xbd4ba525	-0.04971804
190	0xbc27c954	-0.010240871
191	0xbd040756	-0.03223356
192	0xbc27aa10	-0.010233417
193	0xbd0f9d30	-0.035062015
194	0xbcefd700	-0.029277325
195	0x3d405129	0.0469524
196	0x3c477674	0.0121742375
197	0x3cb98122	0.022644583
198	0xbc91070e	-0.01770356
199	0x3c7a589c	0.015279915
200	0xbd5b0b00	-0.053477287
201	0x3d25c073	0.040466737
202	0xbd18eb16	-0.03733357
203	0xbd4de9c4	-0.050271764
204	0xbd0af36e	-0.03392356
205	0xbcd51ae7	-0.026013805
206	0x3d1d7649	0.038442884
207	0xbd4035b7	-0.046926226
208	0x3ce4f6b6	0.027949672
209	0x3a4a5d00	0.00077195466
210	0xbcd8029d	-0.026368434
211	0x3d20ee2d	0.039289642
212	0x3c8207ba	0.015872825
213	0xbd4f06db	-0.050543647
214	0x3d1df3db	0.038562637
215	0x3bf51368	0.00747912
216	0xbcfd6dcb	-0.030936142
217	0xbd2305d0	-0.039800465
218	0xbb5ab840	-0.0033373982
219	0x3b1d34e0	0.0023987815
220	0xbc2b76e4	-0.010465357
221	0x3d52e6f5	0.05148979
222	0xbd2d8fe0	-0.042373538
223	0x3d395059	0.04524264
224	0x3cbe9d1e	0.023268279
225	0xbd254140	-0.04034543
226	0x3d5d0931	0.053963844
227	0x3d239361	0.039935473
228	0xbc5721d4	-0.013130624
229	0xbb00d090	-0.0019655563
230	0x3bcbeb60	0.0062231272
231	0xbb7fd0c0	-0.0039034337
232	0xbcde88b5	-0.027164796
233	0xbd5faae2	-0.054606326
234	0xbd2e6f6b	-0.042586725
235	0x3d40620b	0.0469685
236	0xbd2f392e	-0.04277914
237	0x3cc247d6	0.023715895
238	0xbd4383d7	-0.047733154
239	0x3c86f582	0.01647449
240	0xbba874b8	-0.005140867
241	0xbb2c9270	-0.00263324
242	0xbca2ef6e	-0.01988956
243	0x38e8b600	0.00011096522
244	0x3d0cb943	0.034356367
245	0x3d2b98b5	0.04189368
246	0x3c6f6484	0.014611367
247	0x3c6bf94c	0.014402699
248	0xbd12e28c	-0.035860583
249	0x3cbd1342	0.023080472
250	0x3d139d63	0.036038768
251	0xbc5c6c78	-0.013453595
252	0x3c037d34	0.008025456
253	0xbcce1d15	-0.025160352
254	0xbd57c275	-0.052675683
255	0x3d45791b	0.0482112

rppg_feature_extractor.FeatureExtractor.5.conv_block_3d.0.weight f4 [16, 12, 3, 3, 3]
0	0xbd56a142	-0.05239988
1	0xbc523108	-0.012829073
2	0x3d634b99	0.055492017
3	0x3d14a53f	0.036290403
4	0xbd567be2	-0.052364238
5	0xbd56db3b	-0.05245517
6	0x3d01281d	0.031532396
7	0xbd2db79e	-0.04241144
8	0x3d46cfb1	0.048537914
9	0x3d1455ab	0.03621451
10	0xbd22a274	-0.03970571
11	0xbd1a9319	-0.03773794
12	0xbcbb7756	-0.022884052
13	0xbce3c28b	-0.027802726
14	0x3d073be1	0.03301609
15	0xbcc39a6a	-0.023877341
16	0x3ce1e942	0.027577046
17	0x3b592320	0.0033132508
18	0x3cdea0ca	0.02717628
19	0x3d0245e9	0.031804953
20	0x3c4c9834	0.01248746
21	0x3bbec1f0	0.005821459
22	0x3bbceea8	0.0057657547
23	0xbc4d9300	-0.012547255
24	0xbcd2d255	-0.02573506
25	0xbd40ead0	-0.047098935
26	0xbd296ebb	-0.041365366
27	0xbd56d9d2	-0.052453823
28	0xbd4134e9	-0.0471696
29	0xbcb2578a	-0.021770258
30	0x3c2bbeec	0.010482531
31	0xb906c700	-0.00012853369
32	0xbd1aec4a	-0.037823
33	0xbd4096fb	-0.047018986
34	0xbd1976de	-0.037466876
35	0x3d38a339	0.045077536
36	0x3d3ed091	0.046585623
37	0x3d3c5c7b	0.045986634
38	0xbcac9b88	-0.021070257
39	0xbd00dcae	-0.031460457
40	0xbd5be7c2	-0.05368782
41	0xbc2ec39c	-0.010666754
42	0x3cf249a2	0.029576126
43	0xbd56b3e2	-0.052417643
44	0x3d11043d	0.035404433
45	0xbc2bf25c	-0.010494795
46	0x3d5b5385	0.053546447
47	0x3c88e13a	0.016708959
48	0x3d082249	0.033235822
49	0xbbb2b800	-0.0054540634
50	0xbd22d8a7	-0.039757397
51	0x3c96cbd2	0.018407736
52	0xbd481224	-0.048845425
53	0x3d2e51f1	0.042558614
54	0x3c854d6e	0.016272273
55	0xbd506137	-0.05087396
56	0xbcae84f6	-0.021303635
57	0x3d5e40c9	0.054261003
58	0x3d039de1	0.032132987
59	0xbc480650	-0.012208536
60	0xbcb54f38	-0.022132501
61	0x3d2f4bb5	0.04279681
62	0xbc6772e4	-0.014126513
63	0x3d25c4d9	0.04047093
64	0xbc988d2e	-0.018622007
65	0xbd16c939	-0.036812995
66	0xbd616e45	-0.0550368
67	0xbcec3492	-0.028833661
68	0x3d0f7f95	0.03503378
69	0xbd5f3fe4	-0.05450429
70	0xbcf527a4	-0.029926129
71	0xbce701a7	-0.02819903
72	0x3cedeaea	0.02904268
73	0x3c4fe744	0.012689415
74	0x3cb6b136	0.022301298
75	0xbd3619bb	-0.044458132
76	0xbbf6bba0	-0.007529691
77	0xbcef364b	-0.029200694
78	0xbd2fb72c	-0.042899296
79	0xbcc123a8	-0.023576573
80	0x3b1eadb0	0.0024212413
81	0x3d4a5769	0.049399767
82	0x3ca57066	0.020195197
83	0x3d3ec1b1	0.046571437
84	0xbd18957e	-0.03725194
85	0x3d4d3713	0.05010135
86	0xbd56105e	-0.052261703
87	0xbd0630c9	-0.03276137
88	0x3d4ccd91	0.05000073
89	0xbc1c0c08	-0.009524353
90	0x3d15c40f	0.03656393
91	0xbd031e52	-0.032011338
92	0x3d1f0295	0.03882082
93	0x3d270dbf	0.040784594
94	0x3d186471	0.037205163
95	0x3d34273f	0.04398274
96	0xbd10d342	-0.03535772
97	0x3b8f1380	0.0043663383
98	0x3b624290	0.0034524538
99	0xbc0d2b88	-0.008616336
100	0x3d4046d7	0.04694256
101	0xbc3ccb94	-0.011523146
102	0xbb280db0	-0.0025642924
103	0x3c4022c4	0.011727039
104	0xbbd12e58	-0.0063836984
105	0x3c5bb2a4	0.01340929
106	0x3bb573c8	0.005537484
107	0x3c91bffa	0.017791737
108	0x3cba2e8e	0.022727277
109	0xbc50c094	-0.012741227
110	0x3ccbf602	0.02489758
111	0x3d026eb1	0.031843845
112	0x39bf7c80	0.0003652312
113	0x3af67980	0.001880452
114	0xbbdaeb00	-0.006680846
115	0xbcc38092	-0.023865018
116	0x3d260965	0.040536303
117	0x3cdf7d9e	0.027281579
118	0x3d58e249	0.052950177
119	0xbc07d280	-0.008289933
120	0xbbe25d90	-0.006908126
121	0xbd248657	-0.04016718
122	0x3d1b1923	0.03786577
123	0x3d5ddef1	0.05416769
124	0xbd624d32	-0.0552494
125	0x3c4187c4	0.011812154
126	0xbd5d163d	-0.053976286
127	0xbc48d988	-0.012258895
128	0x3c879982	0.01655269
129	0xbaa9b200	-0.0012946725
130	0x3cdfb2ca	0.027306933
131	0x3cc53186	0.024071466
132	0xbc509e94	-0.0127331205
133	0x3c035ee4	0.008018229
134	0x3b8e57f0	0.004343979
135	0x3d1c7701	0.03819943
136	0xbd3d5f7b	-0.046233635
137	0xbd53acd0	-0.05167848
138	0xbd39ce8c	-0.045362994
139	0x3cf9ea32	0.03050718
140	0x3d0484ff	0.032353397
141	0x3d24078f	0.04004627
142	0x3d36726f	0.044542726
143	0xbcdab98b	-0.026699802
144	0xbd0b4297	-0.033999052
145	0x3cc24f92	0.023719583
146	0xbd16e444	-0.036838785
147	0xbcdc8e55	-0.026923338
148	0x3caf68ca	0.021412272
149	0x3d3b112b	0.04567067
150	0x3cd7d4ba	0.026346553
151	0xbb16f8c0	-0.002303645
152	0xbaa78480	-0.0012780577
153	0x3d14a75b	0.036292415
154	0xbd361c66	-0.044460677
155	0x3cf1bd0a	0.029509086
156	0x3cb610da	0.022224832
157	0xbd2df194	-0.042466715
158	0x3ab2a0e0	0.0013628267
159	0xbd0eff74	-0.034911588
160	0xbbab6080	-0.0052300096
161	0x3c1c693c	0.009546574
162	0xbccee3ae	-0.02525505
163	0xbd3d58d7	-0.046227302
164	0x3c82a1e6	0.01594634
165	0x3c9e739e	0.01934224
166	0x3d2fbb25	0.042903084
167	0x3c880572	0.016604159
168	0x3c7d2f04	0.015453104
169	0x3ceca6ce	0.028888132
170	0x3d03b2e5	0.03215303
171	0x3ce5c922	0.02805001
172	0xba974e80	-0.001154378
173	0xbd11f06c	-0.035629675
174	0x3ac2e040	0.0014867857
175	0xbd238b20	-0.0399276
176	0xbd534b40	-0.051585436
177	0xbd4e5487	-0.05037358
178	0x3d2532b9	0.040331576
179	0xbcf7b1ce	-0.030236151
180	0xbd3094e6	-0.04311075
181	0xbd0f7596	-0.035024248
182	0xbd42d840	-0.047569513
183	0xbd49ab07	-0.04923537
184	0x3d50460b	0.05084805
185	0x3d480b75	0.04883905
186	0x3cbddebe	0.0231775
187	0x3c675154	0.014118511
188	0xbbe28320	-0.006912604
189	0xbcd2d955	-0.025738398
190	0x3bea13e8	0.0071434863
191	0xbab731c0	-0.0013976619
192	0xbc7f2364	-0.015572403
193	0xbd563260	-0.052294135
194	0x3c5d521c	0.013508346
195	0xbca5871c	-0.020206027
196	0xbd0a8947	-0.033822324
197	0x3d3181c1	0.043336634
198	0x3b5f5440	0.0034077317
199	0xbc2001a4	-0.009766016
200	0x3cc7a526	0.024370741
201	0xbd20b069	-0.039230738
202	0xbbf1ee28	-0.0073831268
203	0xbcf62d1d	-0.030050809
204	0x3d4049e1	0.046945456
205	0xbd092dd6	-0.03349098
206	0xbbbf79b8	-0.0058433674
207	0x3d0b875f	0.034064647
208	0x3c9acba6	0.018895935
209	0x3d0a67db	0.03379045
210	0x39ff4480	0.00048688427
211	0x3ccf6b12	0.02531961
212	0x3c480d94	0.0122102685
213	0x3cc47a52	0.023984108
214	0x3b83e238	0.00402477
215	0x3cf03fd6	0.029327314
216	0x3c840772	0.016116831
217	0x3d5a4381	0.053287033
218	0xbcca2dd5	-0.024680058
219	0xbd5ba5ae	-0.0536248
220	0xbd4743d5	-0.048648674
221	0x3b09ec40	0.0021045357
222	0xbd451e59	-0.048124645
223	0xbd4b36b5	-0.04961272
224	0x3c6941fc	0.014236923
225	0xbc05e254	-0.008171637
226	0xbccd4eab	-0.025061926
227	0xbd208a06	-0.03919413
228	0xbd30edac	-0.04319541
229	0xbc701fd4	-0.014656026
230	0x3ca25702	0.01981688
231	0xbb7f61e0	-0.003896825
232	0xbbc9ace0	-0.0061546415
233	0x3c895266	0.016762923
234	0xbcd79af5	-0.026319006
235	0x3d06225f	0.032747623
236	0xbc3dc364	-0.011582229
237	0xbca0711c	-0.019585185
238	0x3d5eff4b	0.054442685
239	0xbcd503d5	-0.026002804
240	0xbb9a9890	-0.004717894
241	0xbcf28d12	-0.029608283
242	0xbcdcced9	-0.026954101
243	0x3d5ce095	0.053925116
244	0x3cc21fa2	0.023696724
245	0xbd13095c	-0.035897598
246	0x3c368824	0.011140857
247	0xbd4c1360	-0.049823165
248	0xbd2a072e	-0.041510753
249	0x3bf96d68	0.007611919
250	0xbd2035a9	-0.039113674
251	0xbc6268ac	-0.013818901
252	0xbb5e51c0	-0.0033923239
253	0xbd12c5e4	-0.035833254
254	0xbd34af39	-0.044112418
255	0x3d02de4d	0.031950284

rppg_feature_extractor.FeatureExtractor.6.conv_block_3d.0.weight f4 [16, 16, 3, 3, 3]
0	0xbcf8642e	-0.030321207
1	0xbd1a8a97	-0.037729826
2	0x3c09ae84	0.008403424
3	0x3d3b7311	0.045764033
4	0xbbba1388	-0.005678598
5	0x3b20fed0	0.0024565943
6	0xbd377e06	-0.04479792
7	0x3c9b9932	0.018993948
8	0x3d399e4d	0.045316983
9	0xbd2b32bd	-0.041796435
10	0x3c82894e	0.015934613
11	0x3c849cfe	0.016188141
12	0x3d24e3db	0.040256362
13	0x3c727784	0.014799003
14	0xbbdc5158	-0.006723564
15	0xbc9da0ce	-0.019241717
16	0x3cb24042	0.021759156
17	0x39148000	0.00014162064
18	0xbce90c1b	-0.028448155
19	0x3ce31d0a	0.027723808
20	0xbd0a7dbc	-0.033811316
21	0x3cd8d3fa	0.026468266
22	0x3cd2c9ba	0.025730956
23	0xbb6d0450	-0.00361659
24	0x3cd6a016	0.026199382
25	0xbd1e8d9a	-0.03870926
26	0xbcf6bf2c	-0.030120455
27	0xbb474460	-0.0030405745
28	0xbcc9ea16	-0.024647754
29	0x3ce86df6	0.028372746
30	0x3c970fa6	0.018440079
31	0xbc8fd026	-0.017555308
32	0x3bf72638	0.007542398
33	0xbccbee8d	-0.024894023
34	0xbc93a747	-0.0180241
35	0xbbc210b0	-0.0059223995
36	0xbc6239ac	-0.013807695
37	0x3ccbce96	0.024878781
38	0x3cead29e	0.028664883
39	0xbd09874c	-0.033576295
40	0x3c1e5f38	0.009666257
41	0x3c253820	0.010084182
42	0x3cfa3382	0.030542139
43	0x39f4e600	0.0004671067
44	0xbcff8408	-0.031190887
45	0xbd2ec838	-0.042671412
46	0xbb91dfb0	-0.0044517145
47	0xbd402674	-0.04691167
48	0x3ca40442	0.020021562
49	0xbcce417c	-0.02517771
50	0xbab37200	-0.0013690591
51	0xbb9435a0	-0.004522994
52	0xbca74b66	-0.020421695
53	0xbd0862d9	-0.033297393
54	0x3cfd79e6	0.030941915
55	0xbc473758	-0.012159191
56	0x3d1f0fc5	0.0388334
57	0xbcdabfbb	-0.026702752
58	0xbd204dd0	-0.039136708
59	0xbd0ced0a	-0.034405746
60	0x3a50df00	0.00079678
61	0xbcc81612	-0.024424586
62	0xbd2e40a5	-0.04254212
63	0xbd2873de	-0.041126125
64	0xbc1f8978	-0.009737365
65	0x3c2b6270	0.010460481
66	0x3ccf75c6	0.025324713
67	0xbbedf250	-0.007261552
68	0x3d32a407	0.04361346
69	0xbcbb26c9	-0.022845643
70	0x3d0bdd4b	0.03414659
71	0x3cf8777a	0.030330408
72	0xbd08b9b7	-0.033380236
73	0xbd103733	-0.035208892
74	0x3ba010b8	0.0048848055
75	0x3d2fbee1	0.042906646
76	0x3c2fdc74	0.010733712
77	0xbab2be80	-0.0013637096
78	0xbb9c5a80	-0.0047715306
79	0x3d326719	0.043555353
80	0x3d451055	0.04811128
81	0xbd33d26c	-0.043901846
82	0x3c279f28	0.010230817
83	0x3d1d362d	0.038381744
84	0x3d40b17d	0.047044266
85	0xbd26cc85	-0.04072239
86	0x3b4a2210	0.0030843057
87	0xbcfc0330	-0.030763239
88	0xbcf2e540	-0.02965033
89	0xbd2d6a24	-0.04233755
90	0x3d205d1f	0.039151307
91	0xbc9f6419	-0.01945691
92	0xbc303848	-0.010755606
93	0x3d24b149	0.040208135
94	0xbd2fbbea	-0.04290382
95	0x3caaa83e	0.020832177
96	0x3d36baf3	0.044611882
97	0x3d00699b	0.031350713
98	0x3d0e85cb	0.034795564
99	0xbcf4a91f	-0.0298658
100	0x3ce8bf1e	0.028411444
101	0xbc65332c	-0.013989251
102	0x3c14876c	0.00906549
103	0x3d12a313	0.03580005
104	0xbc0fa774	-0.008767951
105	0x3d325757	0.043540325
106	0xbd0a3ead	-0.03375118
107	0x3cc622ce	0.024186518
108	0x3d139149	0.036027227
109	0xbd1afbb1	-0.037837688
110	0xbd06e34f	-0.032931622
111	0x3c430138	0.011902146
112	0xbce545be	-0.027987357
113	0xbc346100	-0.011009455
114	0xbb8e7570	-0.0043474957
115	0xbd219ee2	-0.039458163
116	0x3c885b56	0.016645115
117	0x3c082ccc	0.008311462
118	0xbcdef51a	-0.027216483
119	0xbac84d80	-0.0015281886
120	0xbcd14cf5	-0.025549391
121	0xbc5fe038	-0.013664298
122	0xb9bbb600	-0.0003580302
123	0x3cffe5d6	0.031237524
124	0x3cc5b23e	0.024132844
125	0xbd26e79d	-0.040748227
126	0x3cea0072	0.028564665
127	0xbb36f010	-0.0027914084
128	0x3be0d210	0.006860979
129	0x3c3e8fdc	0.011630978
130	0x3d0a61d5	0.033784706
131	0x3c912952	0.017719898
132	0xbcc93952	-0.024563465
133	0x3d2cccdd	0.04218756
134	0x3c87ce0e	0.016577747
135	0x3bad5c48	0.005290542
136	0x3c9b3992	0.01894835
137	0xbd2910c5	-0.04127576
138	0xbb19ea20	-0.0023485497
139	0xbce0c018	-0.027435347
140	0xbc4f8b50	-0.012667492
141	0xbc0a0b2c	-0.008425515
142	0x3ca936ee	0.020656075
143	0x3d187b7b	0.037227135
144	0xbd373e79	-0.044737313
145	0xbcc237d8	-0.023708269
146	0xbc82ab66	-0.01595087
147	0x3cc236ce	0.023707774
148	0xbcf9f458	-0.03051202
149	0x3d2bb16f	0.04191726
150	0x39603600	0.00021382421
151	0xbc679ad0	-0.014136031
152	0x3cfb301a	0.030662585
153	0x3d36cf5f	0.04463136
154	0x3d3991e3	0.045305144
155	0x3d07743d	0.033069838
156	0xbce3726a	-0.027764518
157	0x3c9c23a6	0.019059967
158	0x3c754fe4	0.014972661
159	0xbc875852	-0.016521607
160	0xbd43650a	-0.04770378
161	0xbd25fd9e	-0.04052507
162	0x3d272db3	0.040815067
163	0xbd0381f3	-0.03210635
164	0x3ceed6b2	0.02915511
165	0x3d302559	0.043004368
166	0xbca10278	-0.019654498
167	0xbc784224	-0.015152488
168	0xbd0fda32	-0.035120197
169	0x3d0e502d	0.03474443
170	0xbd11de86	-0.035612606
171	0xbcb54014	-0.022125281
172	0xbc0ec414	-0.008713741
173	0xbc8d1a38	-0.017224416
174	0x3d19253d	0.03738903
175	0xbba5cb50	-0.005059637
176	0x3d048d61	0.032361392
177	0xb9077e00	-0.00012921542
178	0xbb59e4b0	-0.003324788
179	0xbc929f7a	-0.01789831
180	0xbd44713c	-0.04795955
181	0xba9fd500	-0.0012194216
182	0xbc8a3a70	-0.016873568
183	0x3d0b66a3	0.03403343
184	0xbb8e3e00	-0.004340887
185	0x3d2eebe1	0.04270542
186	0x3c1f25e8	0.009713627
187	0xbc2b6520	-0.010461122
188	0x3bccc758	0.0062493496
189	0x3c9a6e2e	0.018851366
190	0xbd210f56	-0.039321266
191	0xbd1dc7fc	-0.038520798
192	0x3d2360c9	0.039887223
193	0xbd274021	-0.040832642
194	0xbc9833f3	-0.018579459
195	0x3d07340d	0.033008624
196	0x3d235eb9	0.039885256
197	0x3d0b2549	0.033971105
198	0xbccc219f	-0.024918376
199	0xbc159194	-0.009128947
200	0x3c8b9b2e	0.017041769
201	0x3c9c89ce	0.01910868
202	0xbca983b1	-0.020692678
203	0x3b9828e0	0.0046435446
204	0xbcdd5f77	-0.02702306
205	0xbca82b66	-0.020528506
206	0xbd04effa	-0.032455422
207	0x3c21b64c	0.009870123
208	0x3cb88f72	0.022529338
209	0x3cf945da	0.030428816
210	0xbb403d80	-0.0029333532
211	0xbced6eb1	-0.028983446
212	0xbc204614	-0.009782333
213	0x3b6fd670	0.003659632
214	0x3baf9618	0.0053584687
215	0x3b7cdb40	0.0038582832
216	0xbba498d0	-0.0050230995
217	0xbd10b790	-0.03533131
218	0xbcd87da8	-0.026427105
219	0x3d1f6641	0.038915876
220	0xbcd9430d	-0.02652123
221	0xbaf0abe0	-0.001836177
222	0xbb0d0620	-0.0021518543
223	0xbc702288	-0.01465667
224	0x3c7a8084	0.01528943
225	0xbcd8eb3c	-0.026479356
226	0x3bed1060	0.007234618
227	0xbce159b1	-0.027508589
228	0xbd038a1c	-0.032114133
229	0x3c8e73b6	0.01738916
230	0xbbf615d0	-0.0075099245
231	0x3d13c633	0.03607769
232	0xbd2999ee	-0.041406564
233	0xbd2db268	-0.04240647
234	0x3c9e702a	0.019340593
235	0xba94cae0	-0.0011351965
236	0x3c115bb8	0.008871965
237	0xbd405c5f	-0.046963092
238	0xbd234170	-0.039857328
239	0x3c2fc5e4	0.010728333
240	0xbd2ff2dc	-0.042956218
241	0x3d314c15	0.043285448
242	0x3d38ff6d	0.045165468
243	0xbc81b1b2	-0.015831802
244	0xbcf9bd51	-0.03048578
245	0xbd16d2b4	-0.036822036
246	0xbd365b51	-0.04452068
247	0xbd1e2c6b	-0.03861658
248	0x3d1fcd45	0.03901412
249	0xbc464a14	-0.012102623
250	0x3ca60f92	0.020271096
251	0x3cfc8ad2	0.030827913
252	0x3cc6384a	0.024196763
253	0xbb832660	-0.0040023774
254	0x3c9f202a	0.019424517
255	0x3d3b20d7	0.045685615

rppg_head.conv_block.0.conv_block_3d.0.weight f4 [16, 16, 3, 3, 3]
0	0xbd1f1a59	-0.038843486
1	0xbd32d3d9	-0.043659065
2	0xbd11fca2	-0.03564132
3	0xbb0dd980	-0.0021644533
4	0xbd0140dc	-0.031555995
5	0x3d044a43	0.032297384
6	0xbbaab600	-0.0052096844
7	0xbc1819e4	-0.009283517
8	0x3ce5bc1e	0.028043803
9	0x3d2d4d6d	0.042310167
10	0xbd1bf258	-0.038072914
11	0x3cacf662	0.021113578
12	0x3c70afdc	0.014690366
13	0x3c350ccc	0.011050414
14	0xbcc7382a	-0.024318773
15	0x3ca43602	0.020045284
16	0x3d37d767	0.044883158
17	0x3d28d921	0.041222695
18	0xbbda96d0	-0.0066708103
19	0x3c6d35c4	0.014478151
20	0x39b66200	0.0003478676
21	0xbb8ea870	-0.0043535754
22	0xbcd1bf83	-0.025604015
23	0xbc8ec27a	-0.017426718
24	0xbd31624a	-0.043306626
25	0xbc06c71c	-0.008226182
26	0xbd1a4a66	-0.037668608
27	0xbc7ecb08	-0.015551336
28	0xbd41f8f1	-0.04735655
29	0x3cce7aca	0.025205035
30	0xbc8fd2cb	-0.017556569
31	0xbd403b98	-0.046931833
32	0xbcc5e37b	-0.024156323
33	0x3cbea826	0.023273539
34	0xbd3a711c	-0.045518026
35	0xbbe518f0	-0.006991498
36	0xbc4cf7a8	-0.012510218
37	0x3d196461	0.037449244
38	0xbcadf239	-0.021233665
39	0x3cb3b956	0.021938961
40	0x3b078cb0	0.0020683222
41	0x3a869160	0.0010266714
42	0x3bc8dd78	0.0061299168
43	0x3c2554f8	0.010091059
44	0xbcb84fb0	-0.022498935
45	0x3d2c15d3	0.042013
46	0x3cb5a3be	0.022172805
47	0xbb74be50	-0.003734488
48	0x3c72ede4	0.014827225
49	0x3cc7d3ee	0.024393048
50	0xbcbc9013	-0.023017919
51	0x3d32aed1	0.04362375
52	0x3c8e31e6	0.017357778
53	0xbc2a8e00	-0.010409832
54	0x3c863cc6	0.0163864
55	0x3c96ceb6	0.018409114
56	0xbab01440	-0.0013433769
57	0xbd2b9ab7	-0.041895594
58	0xbd1e3dab	-0.03863303
59	0xbc267504	-0.010159735
60	0x3cf72bde	0.030172285
61	0xbd3b98e3	-0.0458001
62	0x3d1a982b	0.037742775
63	0xbb32f910	-0.0027309097
64	0x3d220fa1	0.039565686
65	0x3d3fc579	0.046819184
66	0x3cf993d2	0.030465994
67	0x3aa7db00	0.0012806356
68	0xbd100f4c	-0.03517084
69	0xbcb2bb34	-0.021817781
70	0x3ccc7e7e	0.02496266
71	0xbd3d372a	-0.046195187
72	0xbd2ad200	-0.041704178
73	0x3d21e857	0.039528217
74	0xbd122350	-0.035678208
75	0xbbe0d428	-0.0068612285
76	0xbc8d01ec	-0.01721283
77	0xbc9d5217	-0.019204183
78	0x3d414391	0.047183577
79	0xbc7e6a50	-0.015528277
80	0xbcc84859	-0.02444856
81	0x3cbc001e	0.022949275
82	0xbd00ef3a	-0.031478144
83	0xbcb7a94d	-0.022419596
84	0xbd10d2be	-0.03535723
85	0xbd311751	-0.043235127
86	0x3d421185	0.04737999
87	0xbc6de828	-0.014520682
88	0x3c248dfc	0.010043617
89	0xbceed2e7	-0.0291533
90	0xbd29722c	-0.04136865
91	0x3c9a59ce	0.01884165
92	0x3bb23b48	0.005439196
93	0x3c076a8c	0.008265149
94	0x3d2d672d	0.042334724
95	0xbcb67a0f	-0.022274999
96	0xbcd53e7a	-0.026030768
97	0x3d043561	0.03227747
98	0x3cd500be	0.02600133
99	0x3cb465ce	0.0220212
100	0xbd2c490b	-0.042061847
101	0x3caf5e92	0.0214074
102	0xbc4ee4d0	-0.012627795
103	0x3d373711	0.04473025
104	0xbbfb38f0	-0.0076666996
105	0x3d284e53	0.04109032
106	0x3ccbb7aa	0.024867851
107	0x3d13612d	0.035981346
108	0x3d2816a1	0.041037206
109	0x3c88a64e	0.016680863
110	0x3d23f4dd	0.04002844
111	0xbc2efcbc	-0.010680374
112	0xbc1bf08c	-0.0095178
113	0xbd237bba	-0.039912917
114	0xbc385bf4	-0.011252392
115	0xbb1a7ae0	-0.0023571774
116	0xbc822542	-0.015886907
117	0xbd262a16	-0.04056748
118	0xbb1cd1b0	-0.0023928694
119	0x3b8285c0	0.0039832294
120	0xbd10c4c5	-0.035343904
121	0x3d192033	0.037384223
122	0xbce1c1c0	-0.027558208
123	0x3c5644d4	0.013077933
124	0xbb83b340	-0.004019171
125	0x3c9e852e	0.019350614
126	0x3b01ebe0	0.001982443
127	0x3cee8332	0.029115293
128	0x3c8a4c4e	0.016882088
129	0x3d185e15	0.0371991
130	0x3c5deed4	0.013545711
131	0x3d0545d5	0.0325373
132	0x3d1af20d	0.037828494
133	0xbc82d6a6	-0.015971493
134	0x3d0d44d1	0.034489457
135	0x3aa5ac00	0.0012639761
136	0xbd1e270b	-0.038611453
137	0xbc477810	-0.012174621
138	0xbc345184	-0.011005763
139	0xbd009cca	-0.031399526
140	0x3d1b109f	0.037857648
141	0x3c8ecb8a	0.01743104
142	0x3d251255	0.040300686
143	0xbca0c7e1	-0.01962656
144	0x3c97235a	0.018449474
145	0x3d044c7f	0.032299515
146	0xbd1235c5	-0.03569581
147	0xbce70ebd	-0.02820527
148	0xbd217842	-0.039421327
149	0x3bad12e0	0.005281791
150	0xbcdffde3	-0.027342742
151	0xbb8180d8	-0.003952127
152	0x3cd44c96	0.025915425
153	0xbc2f545c	-0.010701265
154	0xbbcf32e8	-0.006323207
155	0xbaad9a80	-0.0013244897
156	0xbc261694	-0.010137219
157	0xbd2cafc2	-0.042159803
158	0x3af07740	0.0018346086
159	0x3b7d6c10	0.0038669147
160	0xbc56b524	-0.013104711
161	0x3c00da8c	0.007864606
162	0xbcb956ff	-0.02262449
163	0xbc86a108	-0.016434208
164	0x3cf9589e	0.030437764
165	0xbd25d186	-0.04048302
166	0xba306240	-0.00067285076
167	0x3c763bc4	0.015028898
168	0xbd224aca	-0.039622106
169	0x3d12d547	0.03584793
170	0xbce688c8	-0.028141394
171	0xbd3b1048	-0.045669824
172	0x3cf20552	0.029543553
173	0x3c837a5a	0.016049553
174	0x3d3e85cb	0.046514314
175	0xbcc7a368	-0.02436991
176	0x3d2d1c2d	0.0422632
177	0x3d2d22a7	0.042269375
178	0xbbea0a60	-0.00714235
179	0x3d1f8e2d	0.03895395
180	0xbc9c014e	-0.01904359
181	0x3cfd32aa	0.030907948
182	0x3c037c2c	0.00802521
183	0xbd14b84a	-0.036308564
184	0x3b2cbb40	0.0026356727
185	0xbcc4e012	-0.024032626
186	0x3c44ec74	0.012019265
187	0xbca06cf2	-0.0195832
188	0x3d23e089	0.040009055
189	0x3d1f8621	0.038946275
190	0xbc631264	-0.013859365
191	0x3c4c8bb8	0.012484483
192	0x3b6f64e0	0.0036528632
193	0xbd1a1837	-0.03762075
194	0xbca22e7f	-0.019797562
195	0xbd286c80	-0.0411191
196	0x3bba1dd8	0.005679827
197	0x3d0002db	0.031252723
198	0xbc5dd360	-0.013539165
199	0x3ca75c4e	0.020429756
200	0xbcf6754c	-0.030085228
201	0xbc9dad3a	-0.01924764
202	0xbc8c0372	-0.017091487
203	0xbc6984d8	-0.014252864
204	0xbcfa8567	-0.03058119
205	0x3cb8f5de	0.022578176
206	0xbd04f8c0	-0.03246379
207	0x3cae0ec6	0.021247279
208	0x3d3399f5	0.043847997
209	0xbceb4737	-0.028720481
210	0xbd31c99b	-0.043405157
211	0xbd059bd2	-0.032619305
212	0x3cbb2012	0.02284244
213	0x3d030777	0.03198954
214	0xbc925c63	-0.017866319
215	0xbcc0d204	-0.023537643
216	0xbc8b1a32	-0.016980264
217	0xbd054f22	-0.03254617
218	0x3bafaf50	0.005361475
219	0x3cc6dcee	0.02427527
220	0x3cdd75f6	0.027033787
221	0xbc81533a	-0.015786756
222	0xbd07c186	-0.033143543
223	0x3c2f7604	0.010709289
224	0xbd12c33d	-0.035830725
225	0x3cd965a6	0.026537728
226	0x3cd26692	0.025683675
227	0x3ae175c0	0.001720123
228	0xbd1eaea9	-0.038740788
229	0x3c159fd4	0.009132344
230	0x3c7faa9c	0.015604641
231	0x3cc15eee	0.023604836
232	0xb9a57b80	-0.00031563267
233	0x3d039eaf	0.032133754
234	0xbc2539d0	-0.010084584
235	0x3c10a61c	0.008828666
236	0x3d2466f7	0.040137257
237	0x3c21f67c	0.009885427
238	0xbd12b670	-0.035818517
239	0x3cca1b2e	0.024671163
240	0xbbc74b48	-0.0060819723
241	0xbce60c72	-0.028082106
242	0x3d01073b	0.031501036
243	0xbd0022dc	-0.031283244
244	0x3d163733	0.036673736
245	0x3cf3ed76	0.029776316
246	0xbc9cc92d	-0.019138897
247	0xbbbfd730	-0.00585451
248	0x3d1d915d	0.038468707
249	0xbd201e5c	-0.039091453
250	0xbcb21876	-0.02174018
251	0xbd21245e	-0.039341323
252	0xbc8fe9f0	-0.017567605
253	0xbb04d510	-0.0020268597
254	0x3ca98a6a	0.020695884
255	0x3d26b995	0.04070433
