model/FP_50.pth (torch, 218106 bytes, 16 tensors)

rppg_feature_extractor.FeatureExtractor.0.conv_block_3d.0.weight f4 [8, 3, 3, 3, 3]
0	0x3cbd6416	0.023119014
1	0x3dabf51d	0.08396361
2	0xbd85815b	-0.06518813
3	0xbd586a3e	-0.052835695
4	0xbcb54831	-0.02212915
5	0x3d639eb2	0.055571266
6	0x3c3b1419	0.011418366
7	0x3dc933b1	0.098243125
8	0x3c2a5eb1	0.010398553
9	0x3ce292cb	0.027657887
10	0xbcaea9a2	-0.021321122
11	0xbb34be82	-0.0027579372
12	0xbdd03c5f	-0.10167765
13	0xbd86c6d0	-0.06580889
14	0xbd05873d	-0.032599676
15	0xbc4bef3f	-0.012447177
16	0x3d415276	0.04719778
17	0x3d89f1f6	0.067356035
18	0xbda128ef	-0.078691356
19	0xbd157958	-0.036492676
20	0x3d47ed9a	0.04881058
21	0x3da95f8f	0.082701795
22	0xbcac5337	-0.021035774
23	0x3dabc786	0.083876655
24	0xbcc90186	-0.02453686
25	0x3c47a277	0.012184731
26	0x3dcbefc0	0.09957838
27	0xbdda6966	-0.106646344
28	0xbda83a51	-0.08214248
29	0xbceee5c2	-0.029162291
30	0xbd5ca4de	-0.053868167
31	0x3d9749e4	0.073871404
32	0xbdaee90c	-0.08540544
33	0xbd8d13a8	-0.06888515
34	0xbddd7314	-0.10812965
35	0xbdf6881d	-0.1203768
36	0xbd8c49a1	-0.06849981
37	0x3daa7014	0.083221585
38	0x3d3b60b5	0.045746524
39	0x3d05f422	0.032703526
40	0xbc4fffee	-0.012695296
41	0xbd8fe7a4	-0.07026604
42	0xbb11e8ba	-0.002226396
43	0xbdfd7908	-0.123766005
44	0xbdc69898	-0.09697074
45	0xbd7f4735	-0.062323768
46	0x3d9bad13	0.07601371
47	0x3d846485	0.06464485
48	0xbd523c31	-0.051326934
49	0xbc16d025	-0.009204899
50	0x3d791a38	0.06081602
51	0x3dca181c	0.0986788
52	0x3d2d5aba	0.04232285
53	0x3c27b460	0.010235876
54	0x3dc66999	0.0968811
55	0xbd35bb76	-0.04436823
56	0x3d2533d0	0.040332615
57	0xbd6b712b	-0.057480972
58	0xbd395d0a	-0.045254745
59	0xbd042c13	-0.032268595
60	0x3d6bc784	0.05756332
61	0x3d396370	0.045260847
62	0xbd6c1c04	-0.057643905
63	0x3d227191	0.039659087
64	0x3d8ea25a	0.0696456
65	0xba5992ff	-0.0008299797
66	0x3c35120e	0.011051668
67	0x3d11c3dd	0.03558718
68	0x3da55c7f	0.08074283
69	0x3dbdcc16	0.09267442
70	0xbdb6a539	-0.089182325
71	0xbd28e23e	-0.041231386
72	0x3d3cfe6d	0.046141077
73	0x3dd97389	0.1061774
74	0x3dddbd15	0.1082708
75	0x3dceadf1	0.100917704
76	0x3cc34dc9	0.023840802
77	0xbda6d59a	-0.0814621
78	0x3c41b485	0.011822824
79	0xbd71c7ce	-0.05902844
80	0xbdc15dc6	-0.09441714
81	0x3dc2e63c	0.0951657
82	0x3dad15b3	0.084514044
83	0xbddc9728	-0.10771018
84	0x3c914bea	0.017736394
85	0xbc98fbdc	-0.018674783
86	0xbc95cd25	-0.018286297
87	0xbd4e4c46	-0.05036571
88	0x3d1ca8a0	0.03824675
89	0xbd9189e3	-0.07106378
90	0x3d105756	0.03523954
91	0x3d471c39	0.0486109
92	0x3da9c732	0.082899466
93	0x3d265761	0.040610675
94	0xbddf1c17	-0.108940296
95	0xbd9c19cb	-0.07622107
96	0x3d5ff72f	0.054679092
97	0x3cd7b2b3	0.026330328
98	0xbdb9987b	-0.090622865
99	0xbd8ba5e9	-0.06818754
100	0x3dc605ac	0.096690506
101	0x3d9f0929	0.07765419
102	0xbd7d30cd	-0.06181412
103	0xbd19f99b	-0.037591558
104	0xbde3aaf9	-0.11116595
105	0xbc354137	-0.011062912
106	0xbdb186c5	-0.086682834
107	0xbdbe845d	-0.0930259
108	0xbc3a704b	-0.011379312
109	0x3c0e5e90	0.008689538
110	0xbd351d9e	-0.0442177
111	0x3d72b5b6	0.059255324
112	0xbd905a04	-0.07048419
113	0x3dc80652	0.097668305
114	0x3d95ca35	0.073139586
115	0xbdcc8085	-0.09985451
116	0xbceaf664	-0.028681941
117	0xbc3ecbd8	-0.01164528
118	0x3b46e4ed	0.0030348853
119	0x3cbb941a	0.022897769
120	0x3d001831	0.03127307
121	0xbb0adf56	-0.0021190247
122	0xbd663deb	-0.056211393
123	0x3d2f30e0	0.04277122
124	0xbde7d8d1	-0.11320651
125	0xbd9fcaa8	-0.078023255
126	0xbd193b38	-0.03740999
127	0xbd8af3f2	-0.0678481
128	0xbd29b726	-0.04143443
129	0xbdd2a02b	-0.10284456
130	0xbd095d3d	-0.033536185
131	0x3c0835dd	0.008313623
132	0xbdaa440f	-0.083137624
133	0xbca1e7af	-0.019763796
134	0x3d84e6b5	0.064893164
135	0xbb44a865	-0.0030007598
136	0x3bcc75a5	0.0062396103
137	0xb9a730d5	-0.00031889105
138	0x3cd4d315	0.025979558
139	0x3d93d485	0.07218269
140	0x3dd9b079	0.106293626
141	0x3da98def	0.08279025
142	0x3dd5be78	0.1043672
143	0xbbafea0b	-0.0053684763
144	0xbdcdca99	-0.10048408
145	0xbd231876	-0.03981825
146	0x3d9abd1d	0.07555602
147	0x3aa13330	0.001229858
148	0xbd41c0dc	-0.047303066
149	0xbda46e2f	-0.08028828
150	0xbdbd3294	-0.09238163
151	0xbd946ea2	-0.07247664
152	0xbca9fe64	-0.020751186
153	0x3d731323	0.059344422
154	0x3d647b26	0.055781506
155	0xbdc887a5	-0.09791497
156	0x3d816bb4	0.06319371
157	0xbdafeffd	-0.08590696
158	0xbcd01776	-0.025401812
159	0xbd4ae1bb	-0.04953168
160	0xbc91684f	-0.017749934
161	0xbcc9f7aa	-0.024654228
162	0xbdafe9fd	-0.085895516
163	0xbdb24cf0	-0.08706081
164	0x3bc71d7f	0.0060765143
165	0x3bfb162a	0.0076625543
166	0xbd6084fc	-0.054814324
167	0x3d45fd92	0.048337527
168	0xbdc209f7	-0.09474557
169	0xbc24e5cc	-0.0100645535
170	0x3dccdbc1	0.10002852
171	0xbd1f9ba7	-0.0389668
172	0x3dd9ffdc	0.106445044
173	0x3d611719	0.05495367
174	0xbdc95aeb	-0.09831794
175	0x3d899c93	0.06719317
176	0xbc7a7dc8	-0.015288778
177	0xbd49bf11	-0.04925448
178	0x3db43a8c	0.088002294
179	0xbdbb1478	-0.091347635
180	0x3c408bce	0.011752082
181	0xbc9362e1	-0.017991485
182	0x3d9d777b	0.07688805
183	0x3c991905	0.018688688
184	0x3d23d403	0.039997112
185	0x3cdd97bd	0.027049894
186	0xbce0b610	-0.027430564
187	0xbce5b52c	-0.028040491
188	0xbdcabb9b	-0.09899064
189	0x3d2b0d35	0.041760642
190	0x3d9d00d4	0.076661736
191	0x3da22a47	0.0791822
192	0xbdb8c00c	-0.09021005
193	0xbc76e78a	-0.015069852
194	0xbdb475c9	-0.08811528
195	0xbd99b363	-0.075049184
196	0xbdb36a12	-0.08760466
197	0x3cdd3155	0.027001062
198	0xbd8c0488	-0.06836802
199	0xbbdc5b84	-0.0067247767
200	0x3c1e1a51	0.009649829
201	0x3d832048	0.064026415
202	0xbdd2d2cb	-0.10294112
203	0xbdbb0361	-0.09131504
204	0xbd90a5fb	-0.07062908
205	0x3d8f7e4b	0.0700651
206	0xbd3de6c8	-0.04636267
207	0x3da2126c	0.0791367
208	0x3ccb8ab8	0.02484642
209	0xbb31bb3f	-0.0027119664
210	0xbbc98e92	-0.006151029
211	0xbd0a940b	-0.03383259
212	0xbb880e7c	-0.0041521173
213	0xbd17409d	-0.036926854
214	0xbc5bb59c	-0.013409998
215	0xbb047ecb	-0.0020217176
216	0xbd998146	-0.0749536
217	0xbd1f7e00	-0.038938522
218	0x3dde143b	0.108437024
219	0xbd9f75f3	-0.07786169
220	0x3a60b587	0.00085719716
221	0x3dfd6943	0.12373593
222	0x3d50d7a3	0.050986897
223	0x3bf87e48	0.0075834133
224	0xbdac5080	-0.08413792
225	0x3d7044dc	0.05865942
226	0xbd843615	-0.06455628
227	0xbc806f17	-0.015677972
228	0xbd02433a	-0.031802393
229	0xbc2dcc8d	-0.010607851
230	0x3a7ada0b	0.0009569234
231	0x3dcbb23c	0.09946105
232	0x3cc4dc9b	0.024030974
233	0x3dd777f2	0.10520925
234	0x3da24038	0.07922405
235	0xbd6b4459	-0.05743823
236	0x3d5ce48e	0.053928904
237	0xbd8aab87	-0.067709975
238	0xbd27389f	-0.040825482
239	0x3d18a0a7	0.037262585
240	0x3d04454a	0.03229264
241	0x3db3014c	0.08740482
242	0xbcc9cfbe	-0.024635192
243	0x3bacaeaf	0.0052698473
244	0x3d67dbdb	0.056606155
245	0xbdcbf71a	-0.0995924
246	0x3db7408f	0.089478604
247	0xbda3076e	-0.079604015
248	0x3c9d8105	0.01922656
249	0xb9ced340	-0.00039448775
250	0xbd144a28	-0.036203533
251	0x3ceff6d2	0.029292498
252	0x3dc207f8	0.09474176
253	0xbbaa69ee	-0.005200616
254	0xbd45c35b	-0.04828201
255	0xbccc0a78	-0.024907336

rppg_feature_extractor.FeatureExtractor.1.conv_block_3d.0.weight f4 [12, 8, 3, 3, 3]
0	0xbd547ded	-0.051877905
1	0xbbbb3a07	-0.0057137045
2	0x3d329b0c	0.043604895
3	0xbccd707b	-0.025078049
4	0x3d8299ea	0.06377013
5	0xbd32725f	-0.043566104
6	0xbd76f691	-0.060293738
7	0xbcfca3de	-0.030839857
8	0x3a7d8ef4	0.0009672486
9	0x3d87872e	0.0661758
10	0xbcc6330a	-0.02419426
11	0x3d0a7bdb	0.033809524
12	0xbc596179	-0.013267868
13	0xbbb5cc57	-0.005548041
14	0x3d562ada	0.05228696
15	0xbd5281b3	-0.051393222
16	0x3c82db91	0.015973838
17	0x3d83f888	0.06443888
18	0xbcb010e2	-0.021492425
19	0x3d39a151	0.04531986
20	0xbcf40272	-0.029786322
21	0x3d60c783	0.05487777
22	0xbd8688a0	-0.06569028
23	0xbca8901d	-0.020576531
24	0xbcde8133	-0.027161216
25	0x3c58d4f2	0.013234364
26	0x3c32bc48	0.010909148
27	0x3d2e5862	0.042564757
28	0xbc8d2207	-0.01722814
29	0xbbcdc714	-0.0062798355
30	0x3d2a86ab	0.041632336
31	0xbce6c801	-0.028171541
32	0x3d597d3e	0.053097956
33	0xbd46afae	-0.048507385
34	0xbc12a23c	-0.0089498125
35	0xbc0654bf	-0.008198916
36	0x3cc71472	0.024301741
37	0x3d2683e8	0.04065314
38	0xbc837127	-0.016045166
39	0xbd6677ed	-0.056266714
40	0x3ce7374b	0.028224608
41	0x3c8f3da4	0.017485447
42	0x3cea133d	0.028573627
43	0xbd224f9e	-0.03962671
44	0x3d382f5d	0.044967044
45	0x3d837285	0.06418327
46	0x3c243f58	0.010024868
47	0xbd6d1a72	-0.05788655
48	0x3d70fed1	0.05883676
49	0xbd1e2641	-0.0386107
50	0x3cd21647	0.025645388
51	0x3cd43a17	0.025906606
52	0xbcafd2d9	-0.021462845
53	0x3ce71965	0.028210351
54	0xbd660cc9	-0.056164537
55	0x3ccd2ae5	0.025044868
56	0xbd1dde22	-0.03854192
57	0xbbbb3785	-0.0057134056
58	0x3c65f6e9	0.014035919
59	0x3d6421f5	0.055696446
60	0xbce72022	-0.028213564
61	0x3d3fe888	0.04685262
62	0xbc222c36	-0.009898236
63	0xbcd7c16b	-0.026337346
64	0xbd4f6272	-0.050630994
65	0xbd7b0fec	-0.06129448
66	0x3d92a7f6	0.07160942
67	0xbc8f7696	-0.0175126
68	0xbb7d3034	-0.0038633468
69	0x3cad49f4	0.021153428
70	0x3d56abec	0.05241005
71	0x3d6c9727	0.057761338
72	0x3d6c6055	0.057709057
73	0xbd31f48a	-0.0434461
74	0xbc505ac9	-0.012716957
75	0xbd3cf1d0	-0.046129048
76	0xbd2c5587	-0.042073753
77	0x3c3db90d	0.011579764
78	0x3d8319dc	0.06401417
79	0xbd561136	-0.052262507
80	0x3d20ec77	0.03928801
81	0xbd0fecde	-0.035138004
82	0xbc7034f4	-0.0146610625
83	0x3d7cf237	0.06175443
84	0xbc224abf	-0.009905516
85	0x3c2cad16	0.010539314
86	0xbd2d379e	-0.04228937
87	0x3d3c329c	0.045946702
88	0xbc62f35d	-0.013851968
89	0xbd594cd4	-0.053051785
90	0x3ca8f185	0.020622978
91	0xbd58d515	-0.052937586
92	0xbd6c6753	-0.057715725
93	0x3c5286f8	0.012849562
94	0x3d77b7bf	0.06047797
95	0xbc6f71ba	-0.014614517
96	0x3cc1c196	0.02365188
97	0x3d57903b	0.052627783
98	0x3d222fee	0.03959649
99	0xbd2faa51	-0.042887036
100	0xbc60beaf	-0.0137173375
101	0xbcde68c2	-0.027149562
102	0xbd67a02b	-0.056549232
103	0x39a53580	0.00031511113
104	0x3d379bc2	0.044826277
105	0x3d551145	0.052018423
106	0x3c132843	0.008981767
107	0x3c3ff988	0.011717208
108	0xbcf13da3	-0.029448336
109	0x3d3da18e	0.04629665
110	0xbcee073b	-0.029056182
111	0xbd43690a	-0.047707595
112	0x3c477585	0.012174015
113	0x3d39f0f3	0.045395803
114	0xbd635aeb	-0.055506628
115	0x3d705d7a	0.058682896
116	0x3d0d4d52	0.034497567
117	0xbd03a8e2	-0.03214348
118	0xbbb61543	-0.005556734
119	0x3d840b06	0.06447415
120	0xbd2653ee	-0.040607385
121	0xbc3f0b83	-0.011660459
122	0x3d1ec816	0.038765036
123	0xbd3ce78d	-0.04611926
124	0x3d3d7fbc	0.046264395
125	0x3d445ddb	0.04794107
126	0x3d476d3c	0.04868816
127	0xbd1dd966	-0.038537405
128	0x3d9f5545	0.07779936
129	0xbd061da0	-0.032743096
130	0x3d9fe9e0	0.0780828
131	0xbd5fd4a9	-0.054646168
132	0xbd526c52	-0.051372834
133	0x3d45149a	0.04811535
134	0x3c8163a0	0.015794575
135	0x3b04db15	0.0020272185
136	0xbd11e386	-0.035617374
137	0xbcfb9fba	-0.030715812
138	0xbccd5ac1	-0.025067689
139	0xbd8241ab	-0.063601814
140	0x3a6ac3a1	0.00089555426
141	0x3c45d765	0.01207528
142	0x3b8bf382	0.0042709718
143	0x3ca01328	0.019540384
144	0x3d6ea980	0.058267117
145	0x3c64a68c	0.0139557235
146	0xbcded622	-0.027201716
147	0xbd0339da	-0.032037593
148	0xbd345ebf	-0.04403567
149	0xbd5eb198	-0.054368585
150	0xbc48c9dc	-0.012255158
151	0xbc2d6206	-0.010582453
152	0x3cc5b849	0.024135726
153	0xbd1bc738	-0.038031787
154	0x3d44de14	0.048063353
155	0xbd6c8a6c	-0.057749197
156	0xbc11bd1f	-0.008895188
157	0x3d705c68	0.058681875
158	0x3d72f9a0	0.059320092
159	0xbd166411	-0.036716525
160	0x3c817836	0.015804391
161	0xbb54810a	-0.0032425546
162	0xbd1d3cd9	-0.038388107
163	0xbcff52b0	-0.031167358
164	0x3c0b965e	0.008519737
165	0xbd5c18eb	-0.0537347
166	0x3bdb2a49	0.0066883904
167	0x3cd22a10	0.025654823
168	0xbd07d08d	-0.033157874
169	0x3d519977	0.051171746
170	0xbbbd195b	-0.005770845
171	0x3d04d7b5	0.032432277
172	0x3d86a19a	0.06573792
173	0xbd0a8b45	-0.033824224
174	0x3d26cd14	0.04072292
175	0xbcaf4867	-0.021396829
176	0xbc2abc6a	-0.010420898
177	0xbc827761	-0.015926065
178	0xbbd2af04	-0.006429555
179	0xbcde7d45	-0.027159343
180	0x3cc89337	0.02448426
181	0x3b3f22b9	0.0029164983
182	0x3d1b9937	0.037987914
183	0xbc511aad	-0.012762708
184	0x3c7b3e9f	0.015334754
185	0xbcd88b16	-0.026433509
186	0xbd59638f	-0.053073462
187	0x3cf9ed6a	0.030508716
188	0x3c748954	0.01492532
189	0xbcf68c6f	-0.03009626
190	0xbd0f77fc	-0.035026535
191	0x3c16d268	0.009205438
192	0xbc84ae5e	-0.016196426
193	0x3ce5f890	0.028072625
194	0x3a79f12f	0.00095345353
195	0x3cd3ec39	0.025869476
196	0x3ca4e0dc	0.020126753
197	0xbcc3b91a	-0.023891974
198	0x3d1a49f0	0.03766817
199	0x3d52f8ed	0.051506925
200	0x3b99835f	0.00468485
201	0xb9e70404	-0.00044062745
202	0x39d1f4ad	0.00040045884
203	0x3d4876ff	0.04894161
204	0xbcd08eeb	-0.025458774
205	0xbd1f0e73	-0.03883214
206	0x3d041827	0.032249596
207	0xbd87c3d0	-0.06629145
208	0xbc452e92	-0.012035029
209	0xbd261b89	-0.040553603
210	0x3d0bf388	0.034167796
211	0xbd90340d	-0.07041178
212	0x3d056e4b	0.032575887
213	0x3d82d11c	0.06387541
214	0x3a16eeee	0.0005757649
215	0xbc61e7b3	-0.013788152
216	0x3d33a13d	0.04385494
217	0xbd3731b8	-0.04472515
218	0xbc9b397e	-0.018948313
219	0xbd4b391a	-0.049615003
220	0xbd01a1b3	-0.03164835
221	0xbc22b569	-0.009930947
222	0xbb059720	-0.0020384267
223	0xbcef69d3	-0.029225266
224	0xbda7b144	-0.081881076
225	0x3b9d31da	0.0047972025
226	0xbbc3dbae	-0.0059771156
227	0x3c468eea	0.012119034
228	0x3d00223b	0.031282645
229	0x3d31d4c4	0.0434158
230	0xbd49f770	-0.04930824
231	0xbae4df54	-0.0017461576
232	0xbcf234dd	-0.029566223
233	0xbd64b6e1	-0.05583847
234	0xbd5e657b	-0.054295998
235	0x3d7962c6	0.060885213
236	0x3d1daecc	0.038496777
237	0x3ca66a59	0.020314382
238	0x3cbdee4b	0.023184916
239	0xbd5b3750	-0.053519547
240	0xbaa9b096	-0.0012946303
241	0x3d58916e	0.052873068
242	0xbd563650	-0.05229789
243	0x3d5d6272	0.054048963
244	0x3c5b0e31	0.013370083
245	0x3d513f1e	0.051085584
246	0xbd0e47c5	-0.034736414
247	0x3cd4fcbe	0.025999423
248	0xbd78f1f6	-0.060777627
249	0xbc41cb27	-0.01182822
250	0x3c90923b	0.017647853
251	0x3c3119c8	0.010809369
252	0x3d3a5fe7	0.045501616
253	0x3d5ee502	0.054417618
254	0x3d70e78f	0.05881458
255	0x3d0d36ec	0.034476206

rppg_feature_extractor.FeatureExtractor.2.conv_block_3d.0.weight f4 [12, 12, 3, 3, 3]
0	0x3ba57dfa	0.005050418
1	0xbcd8636b	-0.026414594
2	0x3d05471a	0.03253851
3	0x3d1f672d	0.038916755
4	0x3cafaa9a	0.021443654
5	0xbd4f3e18	-0.050596327
6	0xbd185d83	-0.037198555
7	0x3d0afb8d	0.033931304
8	0xbbe7a8e2	-0.007069693
9	0x3d2baf7a	0.041915394
10	0x3d331c30	0.043728054
11	0xbc53079c	-0.012880232
12	0xbcc03fa1	-0.02346784
13	0xbd477603	-0.04869653
14	0x3cb842db	0.022492817
15	0x3ce9a56f	0.028521268
16	0xbbc1762b	-0.0059039793
17	0xbd48434f	-0.048892315
18	0xbd0bd009	-0.034133945
19	0xbb3af1dc	-0.0028525507
20	0x3cad25f4	0.021136262
21	0xbca11ff6	-0.01966856
22	0xbd120d64	-0.0356573
23	0xbd3aef6e	-0.045638494
24	0x3d2d9927	0.042382386
25	0x3c0f3bfb	0.008742328
26	0xbd4766ba	-0.048681952
27	0xbd30622a	-0.043062367
28	0xbd765fb5	-0.060149867
29	0x3a805f56	0.0009794037
30	0xbcd77958	-0.026302978
31	0xbb511dc4	-0.003190861
32	0xbc78ee9e	-0.0151936095
33	0xbd4add27	-0.049527314
34	0xbd6a0614	-0.057134703
35	0xbd4100ee	-0.047120027
36	0xbcf3df7c	-0.029769652
37	0x3b07c765	0.0020718214
38	0xbcc3c351	-0.023896845
39	0xbad1b497	-0.0015999255
40	0xbb9cfddd	-0.004791005
41	0x3d4515f2	0.04811663
42	0xbcf77b7c	-0.03021025
43	0x3d37a9cd	0.04483967
44	0xbd406e48	-0.046980172
45	0xbd41cb7a	-0.04731319
46	0x3ca806c8	0.020511046
47	0xbd01c0d5	-0.03167804
48	0x3d0174ce	0.031605534
49	0xbcef573b	-0.0292164
50	0x3d2e65be	0.042577498
51	0x3d4b65eb	0.049657743
52	0xbaa8b577	-0.0012871464
53	0x3bc0c18f	0.005882449
54	0x3d2e3a7e	0.04253625
55	0x3cc799f2	0.024365399
56	0xbd6bcf83	-0.057570945
57	0xbc3b13ec	-0.011418324
58	0xbd74ae4d	-0.05973654
59	0x3ce7bce6	0.028288316
60	0xbcc864e0	-0.024462163
61	0xbc3c1e92	-0.011481898
62	0xbd41b071	-0.04728741
63	0xbd09ce2c	-0.033643886
64	0xbaa6d1b6	-0.0012727294
65	0x3d0aedc1	0.033918146
66	0xbd071966	-0.032983206
67	0xbb443943	-0.0029941357
68	0x3d1c8698	0.038214296
69	0x3d4f77a0	0.050651193
70	0xbc8b22f2	-0.016984437
71	0x3d38bd4b	0.0451024
72	0x3ca0186e	0.019542899
73	0x3d4dadf6	0.05021473
74	0xbb72833d	-0.0037004494
75	0xbd2bcbde	-0.04194247
76	0xbc8eb3b0	-0.017419666
77	0x3c3827fb	0.011240001
78	0x3ce88d39	0.028387653
79	0xbd6450b8	-0.055741042
80	0x3d11dd5a	0.035611488
81	0xbd068b03	-0.032847416
82	0x3d27c525	0.040959496
83	0x3d84e369	0.064886875
84	0x3cecf708	0.028926387
85	0x39d27c1c	0.0004014679
86	0x3d1ea4a8	0.038731247
87	0xb9d0472d	-0.00039725882
88	0xbd0b548b	-0.034016173
89	0xbd0f1bc6	-0.034938596
90	0x3d08c703	0.033392917
91	0x3d34c211	0.04413039
92	0x3c18faab	0.009337108
93	0xbd52296a	-0.051309027
94	0xbd7bfb49	-0.06151894
95	0xbc35b551	-0.0110905925
96	0x3d0d4f2c	0.034499332
97	0xbd0cbcc9	-0.034359727
98	0x3c82b31e	0.01595455
99	0xbcd5812a	-0.026062567
100	0x3d29cc77	0.04145476
101	0xbc2d9f74	-0.010597099
102	0xbc2cf2f8	-0.010555975
103	0xbd5c7def	-0.053831037
104	0xbd55173e	-0.05202412
105	0xbb5f66b2	-0.003408831
106	0x3bb6785c	0.005568547
107	0x3ca87f6a	0.020568568
108	0xbd3d4549	-0.046208654
109	0x3c1bb92e	0.0095045995
110	0xbba06275	-0.0048945495
111	0x3d0bf867	0.03417244
112	0xbce6f37a	-0.02819227
113	0x3c99281c	0.018695883
114	0x3ce0501e	0.027381953
115	0x3d03215f	0.032014247
116	0xbc2e974b	-0.010656188
117	0x3cb6c893	0.022312438
118	0xbc5f4a30	-0.0136285275
119	0x3c8b7529	0.01702364
120	0xbd031cc2	-0.032009847
121	0xbd28d79b	-0.041221242
122	0xbd28f5f1	-0.041250173
123	0xbd0554d2	-0.032551594
124	0xbce06b79	-0.027394997
125	0x3c6c1887	0.014410145
126	0xbb55730f	-0.00325698
127	0xbd0050f0	-0.031327188
128	0x3bba696f	0.005688838
129	0xbc92cf03	-0.017920977
130	0x3d15f96f	0.03661483
131	0xbd1113b0	-0.035419166
132	0xbc9077bd	-0.01763522
133	0xbd09a0c8	-0.0336006
134	0x3c6df796	0.014524361
135	0x3c3a2044	0.011360232
136	0xbb4027b8	-0.002932055
137	0x3d4ed9ce	0.050500683
138	0xbc92a538	-0.017901048
139	0xbc1f0ebc	-0.009708103
140	0x3c6e8a57	0.01455935
141	0x3d329301	0.043597225
142	0x3d18499d	0.037179578
143	0x3aab6978	0.0013077697
144	0xbc793458	-0.015210234
145	0x3c993706	0.018702995
146	0x3cdc8458	0.026918575
147	0x3b2eb219	0.0026656447
148	0x3ce80e96	0.028327268
149	0x3d26d3b9	0.04072926
150	0xbcd5056f	-0.026003568
151	0xbc1926f4	-0.009347666
152	0xbd67a793	-0.056556296
153	0x3cbcc5d5	0.023043552
154	0x3d2f6ba3	0.04282726
155	0xbbd4b4c5	-0.006491276
156	0x3c234925	0.0099661695
157	0x3cb6d521	0.022318425
158	0x39e8697e	0.00044329086
159	0x3d40116b	0.04689161
160	0x3c85c99c	0.016331486
161	0xbd58727e	-0.052843563
162	0xbcf7266c	-0.030169688
163	0xbd32a2fe	-0.043612473
164	0x3c783147	0.015148467
165	0x3d206a34	0.039163783
166	0x3bb766d4	0.005596975
167	0x3d86c2a0	0.065800905
168	0xbc4bf1d8	-0.012447797
169	0x3c83a8cb	0.016071698
170	0x3d6c8b85	0.057750244
171	0x3cff30c8	0.03115119
172	0x3b640f26	0.0034799068
173	0x3d63b946	0.055596612
174	0xbcd1075b	-0.025516203
175	0x3cabf7bf	0.020992158
176	0x3d1c0aae	0.038096122
177	0xbd0f82ae	-0.035036735
178	0xbd35c1e3	-0.044374358
179	0x3ca1ddf7	0.019759161
180	0xbcbc0ed7	-0.022956295
181	0xbcc45c52	-0.023969803
182	0x3c2e4ea7	0.010638869
183	0xbd082940	-0.033242464
184	0x3d43ef0b	0.04783539
185	0x3abb0da5	0.0014271034
186	0xbcd40d03	-0.02588511
187	0x3d317dbb	0.043332797
188	0x3bae3f45	0.005317601
189	0x3bf98568	0.00761478
190	0xbceebc5c	-0.029142551
191	0x3d50f5fd	0.051015843
192	0xbc94d1e3	-0.018166488
193	0x3d25c6f0	0.040472925
194	0xbbeec8d5	-0.0072871246
195	0x3cf1063f	0.029421924
196	0x3d35355c	0.04424034
197	0xbd09c83d	-0.033638228
198	0xbd599f48	-0.053130418
199	0xbd720b91	-0.05909306
200	0x3d31e784	0.04343368
201	0x3d2412ac	0.04005687
202	0xbccc0267	-0.02490349
203	0xbce7f785	-0.028316269
204	0x3b0cefe0	0.0021505281
205	0x3cf5b676	0.02999423
206	0x3c7a1958	0.0152648315
207	0xbc675717	-0.014119885
208	0xbd12c5bc	-0.035833105
209	0x3d424ea2	0.04743827
210	0xbd2adafc	-0.041712746
211	0xbd636ad3	-0.055521797
212	0xbcbc1612	-0.022959743
213	0x3c049393	0.008091825
214	0x3c9341fd	0.017975802
215	0x3ccca2be	0.024979945
216	0xbd0f13fd	-0.03493117
217	0xbcd243af	-0.02566704
218	0xbce74cf0	-0.028234929
219	0xbd060e27	-0.03272834
220	0xbd404a2f	-0.046945747
221	0x3c22869c	0.009919789
222	0xbc67e27a	-0.014153117
223	0xbd78b317	-0.06071767
224	0xbd21641e	-0.03940212
225	0xbd1804ab	-0.037113827
226	0xbcffb85f	-0.031215845
227	0xbd25ccd3	-0.04047854
228	0xbbf1a2f9	-0.007374164
229	0x3c7f0713	0.0155656515
230	0xbd332ddb	-0.043744903
231	0x3b1ecf40	0.0024232417
232	0xbca2d851	-0.019878538
233	0xbd03cc57	-0.032177296
234	0xbc8a6298	-0.016892716
235	0xbce9eb2c	-0.028554522
236	0x38b31eb8	8.541107e-05
237	0xbd0b2c7d	-0.033977974
238	0x3c0067f6	0.007837286
239	0x3d611cd8	0.05495915
240	0x3d5669c6	0.052346967
241	0xbcd3cf65	-0.02585573
242	0x3c6c60c7	0.01442737
243	0xbd4df571	-0.0502829
244	0x3d142cf4	0.036175683
245	0xbd63a394	-0.055575922
246	0xbd43d253	-0.047808003
247	0xbd37a170	-0.044831693
248	0xbd5c6402	-0.053806312
249	0x3bb8de39	0.0056417254
250	0xbca89b55	-0.02058188
251	0x3c15d7e5	0.009145712
252	0xbb828e7e	-0.0039842715
253	0xbc11132a	-0.008854667
254	0xbcd21251	-0.0256435
255	0xbd0761f6	-0.033052407

rppg_feature_extractor.FeatureExtractor.4.conv_block_3d.0.weight f4 [12, 12, 3, 3, 3]
0	0xbc0b5c32	-0.008505868
1	0xbc3e7800	-0.01162529
2	0xbd11bc03	-0.035579693
3	0x3d869ad6	0.06572501
4	0x3c7c4ff9	0.015399926
5	0x3bf60e89	0.007509057
6	0xbce215ba	-0.02759825
7	0x3d154387	0.036441352
8	0xbd40a7cf	-0.047035035
9	0xbc73a3d2	-0.014870601
10	0xbad85bc1	-0.0016506837
11	0x3d0c0307	0.034182575
12	0x3b0ec645	0.0021785658
13	0x3c6a2798	0.014291666
14	0x3d1d423a	0.038393237
15	0x3caffd00	0.021482944
16	0x3d5c868f	0.053839263
17	0xbc79ec79	-0.015254133
18	0x3d21e2b8	0.039522856
19	0xbb748820	-0.0037312582
20	0xb9ac5776	-0.0003287156
21	0x3c95d766	0.018291187
22	0x3d885a13	0.06657805
23	0x3badcff1	0.0053043296
24	0xbc2377d5	-0.009977301
25	0xbc876607	-0.016528143
26	0xbcf33d35	-0.029692272
27	0x3d122fe5	0.035690207
28	0xbbaaf96f	-0.005217723
29	0xbc70a29c	-0.014687207
30	0x3ca0dec9	0.019637482
31	0x3c3d3ebc	0.011550602
32	0xbaf43f5e	-0.0018634608
33	0x3d58a691	0.052893225
34	0x3d1a427b	0.037661057
35	0x3c81ca9b	0.01584368
36	0xbd0547b8	-0.0325391
37	0xbccc7c44	-0.024961598
38	0x3d4cb5ca	0.049978055
39	0x3c9b302b	0.018943867
40	0xbd4b38fe	-0.0496149
41	0xbb9eac2a	-0.004842301
42	0x3c96e645	0.018420348
43	0x3c767380	0.015042186
44	0x3d384474	0.044987157
45	0xbbbb596f	-0.0057174484
46	0xbc0f2f85	-0.008739357
47	0x3d2d5b6a	0.042323507
48	0xbc120b91	-0.00891389
49	0x3c99a553	0.01875559
50	0xbd1f988d	-0.038963843
51	0xbc9c4584	-0.019076116
52	0xbd3562c5	-0.044283647
53	0x3bd32b92	0.006444403
54	0xbd25e2d0	-0.04049951
55	0x3d242300	0.04007244
56	0xbca24b48	-0.019811288
57	0xbd19bef4	-0.037535623
58	0x3b512ab6	0.0031916327
59	0xbccd7b32	-0.025083158
60	0xbce7ac86	-0.028280508
61	0x3d204503	0.039128315
62	0x3c77c7ff	0.015123366
63	0x3c1f21ff	0.009712695
64	0x3cb298bc	0.021801345
65	0xbc86490b	-0.016392251
66	0x3b97e960	0.0046359748
67	0x3d480d00	0.048840523
68	0xbca51987	-0.020153774
69	0x3cf79669	0.030223088
70	0x3d424b12	0.047434874
71	0xbb78feb0	-0.0037993602
72	0x3d2fd5ca	0.042928495
73	0xbc5f293e	-0.013620673
74	0xbc376dff	-0.011195659
75	0x3c49e251	0.012322024
76	0xbc0b25e6	-0.008492922
77	0xbc43be7b	-0.01194727
78	0xbc015a84	-0.007895116
79	0x3bdaf1e8	0.0066816695
80	0xbcfb1e2f	-0.030654041
81	0xbd3e630d	-0.04648118
82	0xbd25fd76	-0.040524922
83	0x3d6b5ed3	0.05746348
84	0xb69cc514	-4.672105e-06
85	0x3cd661f8	0.026169762
86	0xbd6c22da	-0.057650425
87	0xbc408d49	-0.011752435
88	0xbd2a9488	-0.041645557
89	0xbb99fbe1	-0.0046992158
90	0x3d27427b	0.040834885
91	0x3d134b83	0.035960685
92	0xbce0c7c1	-0.027439
93	0xbce9fe78	-0.028563723
94	0xbd492c4c	-0.04911451
95	0xbcf5da39	-0.030011283
96	0x3c88d7f4	0.016704537
97	0xbcf69122	-0.030098502
98	0x3cf1020e	0.029419925
99	0xbcc5177d	-0.024059052
100	0x3d3194b1	0.043354694
101	0xbc8ca519	-0.017168568
102	0xbc4b068e	-0.0123916995
103	0x3ce2674b	0.027637145
104	0x3d03f517	0.032216158
105	0x3d003645	0.031301755
106	0x3d1a5467	0.03767815
107	0xbd50f6a1	-0.051016454
108	0x3d1ee727	0.038794663
109	0xbcdabcaa	-0.02670129
110	0x3d48fde9	0.049070273
111	0x3d32eaf1	0.04368109
112	0xbb93b608	-0.004507784
113	0x3c7f7e5d	0.015594092
114	0x3c5e9d63	0.013587329
115	0x3cc1182e	0.0235711
116	0x3d0a444a	0.03375653
117	0x3c8f42ec	0.017487966
118	0xbcab6591	-0.020922454
119	0xbac42924	-0.0014965874
120	0x395cbf9c	0.00021052215
121	0xbd4a76cc	-0.0494297
122	0x3c65d10c	0.014026891
123	0xbd02f8ff	-0.031975742
124	0x3cf45570	0.029825896
125	0x3d3ae832	0.045631595
126	0x3bb56f5a	0.005536956
127	0x3d395344	0.045245424
128	0xbb93cbd6	-0.004510383
129	0x3ccc97ea	0.024974782
130	0x3ca79088	0.02045466
131	0xbd63f535	-0.05565377
132	0xbd432501	-0.04764271
133	0xbca1ca76	-0.019749861
134	0x3c76624b	0.015038083
135	0xbc207f8e	-0.009796036
136	0xbb993c4b	-0.004676377
137	0x3d1d4e5d	0.03840481
138	0x3d63011f	0.05542099
139	0x3cc06a85	0.023488292
140	0x3cb7f021	0.02245337
141	0x3d04e6dc	0.032446727
142	0x3c49e31a	0.012322212
143	0xbd2541b7	-0.040345874
144	0xbd707f32	-0.058715053
145	0xbd59055a	-0.05298362
146	0xbd26df3d	-0.04074024
147	0x3d346501	0.044041637
148	0xbbc93bbd	-0.0061411546
149	0xbd16c07b	-0.036804657
150	0x3c8076b1	0.015681596
151	0x3b66fd54	0.003524621
152	0xbcb35e93	-0.021895682
153	0xbd502c88	-0.05082372
154	0x3cabb9a7	0.02096255
155	0x3c22d433	0.009938288
156	0xbc970f11	-0.018439801
157	0xbcf5c441	-0.030000808
158	0xbbc1d512	-0.0059152925
159	0x3d4e47ab	0.050361317
160	0xbd3e39f1	-0.046441976
161	0xbc243a1c	-0.01002362
162	0xbc15e495	-0.0091487365
163	0x3d73b2b7	0.059496608
164	0x3c729d42	0.014808001
165	0x3d39cbd5	0.045360405
166	0xbb134020	-0.0022468641
167	0xbb8d2f30	-0.0043086037
168	0x3d2fce03	0.042921077
169	0xbc3af5d5	-0.01141115
170	0x3d202fa1	0.039107922
171	0x3d30cfb3	0.043166827
172	0x3c9bf63e	0.019038316
173	0x3d101430	0.035175502
174	0xbd3ecfa2	-0.046584733
175	0x3d314780	0.04328108
176	0xbd0974f4	-0.0335588
177	0x3d08b0e3	0.033371817
178	0x3c764fe4	0.015033696
179	0xb9ce56b4	-0.0003935598
180	0x39fe4cb9	0.00048503818
181	0xbd875207	-0.06607442
182	0x3d469d33	0.04848976
183	0xbc30fce6	-0.010802483
184	0x3d1f0045	0.038818616
185	0xba0c603f	-0.0005354918
186	0xbcea9d9c	-0.028639607
187	0x3d018d2d	0.031628776
188	0xbbe53346	-0.0069946377
189	0xbd2d5d87	-0.042325523
190	0xbbae351e	-0.0053163907
191	0xbd7cc962	-0.06171549
192	0xbd3ae41a	-0.04562769
193	0xbd50dd05	-0.05099203
194	0x3b4fb500	0.0031693578
195	0xbd2ce151	-0.042207066
196	0xbca573fd	-0.02019691
197	0xbd24dc4e	-0.04024916
198	0xbd41c2e1	-0.04730499
199	0xbb813d6b	-0.003944089
200	0x3c02089f	0.007936626
201	0x3d2562d7	0.040377464
202	0xbc8c9b92	-0.017164025
203	0x3d653bdf	0.0559653
204	0xbd267f31	-0.040648643
205	0x3c773c5f	0.015090077
206	0xbd2d27f3	-0.042274427
207	0x3d48e38f	0.04904514
208	0xbcabad5a	-0.020956684
209	0x3cf2f8cf	0.029659657
210	0x3abb9a7f	0.0014313011
211	0xbcc374e1	-0.023859443
212	0xbc5d53ca	-0.013508746
213	0xbcc8fa9e	-0.024533566
214	0x3ce1a925	0.027546475
215	0x3d3291c0	0.04359603
216	0x3d850877	0.06495755
217	0xbbb0ba94	-0.0053933356
218	0xbc6af395	-0.014340301
219	0xbca9a801	-0.020709993
220	0xbb9d654f	-0.0048033367
221	0x3cc91a2f	0.024548618
222	0x3a74ccb2	0.00093383633
223	0xbd0b0885	-0.03394367
224	0x3c0d114d	0.008610082
225	0x3b76c066	0.00376513
226	0xbd3f924c	-0.04677038
227	0xbca68db4	-0.020331241
228	0xbb81b03a	-0.0039577754
229	0xbd7911df	-0.06080806
230	0x3c237a09	0.009977826
231	0x3c79297f	0.015207647
232	0xbc252371	-0.010079251
233	0xbc0ea0c1	-0.008705319
234	0x3ba1e624	0.004940765
235	0x3c1b31d2	0.009472327
236	0xbce9daae	-0.028546657
237	0xbc2ed447	-0.010670728
238	0x3cc70452	0.024294052
239	0xbc93f911	-0.0180631
240	0x3b9ddbc2	0.004817457
241	0xbd5e80f3	-0.054322194
242	0xbd2a83d4	-0.041629627
243	0x3bb2ffba	0.005462614
244	0xbc2afbce	-0.0104360115
245	0x3d72d019	0.05928049
246	0xbb8a298b	-0.004216378
247	0xbd0606b2	-0.03272123
248	0x3d68e83b	0.056862097
249	0xbd117686	-0.035513423
250	0x3d40893b	0.047005873
251	0x3a9683b9	0.0011483348
252	0x3c370b3f	0.011172115
253	0xbd56d5a3	-0.052449834
254	0x3d2fd3eb	0.04292671
255	0xba90baf6	-0.0011042047

rppg_feature_extractor.FeatureExtractor.5.conv_block_3d.0.weight f4 [16, 12, 3, 3, 3]
0	0xbbad87c1	-0.005295724
1	0xbbce86be	-0.0063026836
2	0xbc81289f	-0.01576644
3	0x3d3f4025	0.046692032
4	0xbd330115	-0.043702204
5	0x3cc61bf0	0.024183244
6	0x3c918f20	0.017768443
7	0x3d3c680e	0.04599767
8	0xbc1ce1c8	-0.009575315
9	0xbcd1abe4	-0.02559466
10	0x3d4416d2	0.047873326
11	0xbd28c475	-0.04120298
12	0xba35772e	-0.0006922361
13	0xbd0ed03f	-0.034866568
14	0x3d25fd8e	0.04052501
15	0x3d100414	0.03516014
16	0xbd036270	-0.0320763
17	0xbaf2a426	-0.0018512055
18	0xba02e0da	-0.0004992612
19	0xbd56b9ef	-0.052423414
20	0x3d545b96	0.051845156
21	0x3cc6f418	0.024286315
22	0x398ced00	0.0002687946
23	0x3d404395	0.04693945
24	0x3cd669ac	0.026173435
25	0x3cb755ef	0.022379844
26	0x3cae33f0	0.021265
27	0xbc6c44b0	-0.014420673
28	0xbd36950a	-0.04457573
29	0x3ce709f7	0.028202994
30	0x3a760268	0.0009384514
31	0x3cf29c36	0.029615503
32	0xbd0c4237	-0.034242835
33	0x3bdc71c1	0.0067274277
34	0x3d24b90e	0.040215544
35	0x3c3da570	0.011575088
36	0xbd227c54	-0.03966935
37	0x3c5e9837	0.0135860955
38	0x3d6a73a0	0.057239175
39	0xbc367e44	-0.0111385025
40	0xbc1a2d7d	-0.009410259
41	0x3d12ec44	0.03586985
42	0x3d1cc2b2	0.038271613
43	0x3c96bb1e	0.018399771
44	0x3c342282	0.010994555
45	0x3d396cdf	0.045269843
46	0x3d647d29	0.055783425
47	0xbd4375a9	-0.04771963
48	0x3d24875b	0.040168148
49	0x3d3c7b64	0.046016112
50	0x3d115c2c	0.035488293
51	0x3cd758b4	0.026287414
52	0x3cbccd8f	0.023047237
53	0x3d3b46b7	0.045721736
54	0x3be6faa4	0.0070489217
55	0x3d62114c	0.055192277
56	0xbb2dc77b	-0.0026516605
57	0x3d007780	0.031363964
58	0x3d3dd347	0.046344068
59	0x3bbef452	0.005827465
60	0x3d219222	0.039446004
61	0x3d0fe72c	0.035132572
62	0x3ccceef5	0.025016287
63	0xbcca3879	-0.024685131
64	0xbd291c86	-0.041286968
65	0x3ca10cb3	0.019659376
66	0x3ceb7cb6	0.02874599
67	0xbd3a297d	-0.045449723
68	0xbb1ab75d	-0.0023607828
69	0xbb73889c	-0.0037160283
70	0xbc346a58	-0.011011682
71	0x3d005aa5	0.031336445
72	0x3d45f497	0.048328962
73	0xbc89da64	-0.01682777
74	0x3cbc0a33	0.022954082
75	0x3d36f85c	0.044670448
76	0x3b13c2bb	0.0022546488
77	0x3d0ba40e	0.034092
78	0x3d4d0c8b	0.05006079
79	0x3a7b4644	0.00095853605
80	0xbd43dcec	-0.04781811
81	0xbd1f8e51	-0.038954083
82	0x3d4777b6	0.04869815
83	0xbcf78c8e	-0.030218389
84	0x3d5a8387	0.05334809
85	0x3c8fa925	0.01753671
86	0xbd242003	-0.04006959
87	0x3d6e3d44	0.058163896
88	0x3d314c1b	0.04328547
89	0xbc2279eb	-0.009916763
90	0xbc3b40fc	-0.011429068
91	0xbd104cca	-0.03522948
92	0xbd0f6ecf	-0.035017785
93	0x3bef15e2	0.00729631
94	0xb94f23b9	-0.00019754366
95	0xbd2bf2b2	-0.0419795
96	0xbc47c764	-0.0121935345
97	0x3c8d22e7	0.017228557
98	0x3c36e1f8	0.011162274
99	0x3c5ea6aa	0.0135895405
100	0xbd0bda2e	-0.03414362
101	0xbccd7ce0	-0.02508396
102	0x3c69fced	0.014281494
103	0x3d201e53	0.03909142
104	0x3c38e2cd	0.011284542
105	0xbd1c8ac7	-0.038218286
106	0x3cc7f046	0.024406563
107	0xbd008703	-0.031378757
108	0xbd528cd0	-0.05140382
109	0x3d19a48e	0.037510447
110	0x3d173979	0.036920045
111	0xbbfb069f	-0.0076607014
112	0x3cf4740a	0.029840488
113	0xbcc399aa	-0.023876984
114	0x3c89dfd2	0.016830359
115	0xbd5faf33	-0.054610442
116	0xbcd32e1c	-0.025778823
117	0xbc807226	-0.01567943
118	0x3bbba646	0.0057266084
119	0x3cdbfaa0	0.026852906
120	0x3bab553f	0.005228668
121	0xbd037b6c	-0.032100126
122	0x3d143172	0.036179967
123	0x3ccffe2e	0.025389757
124	0xbd17beca	-0.037047185
125	0xbb49af3f	-0.003077462
126	0x3d526c5f	0.051372882
127	0xbc919633	-0.017771816
128	0xbd4c5404	-0.04988481
129	0x3d29b2d8	0.041430324
130	0x3c9cd910	0.019146472
131	0x3cf74976	0.030186396
132	0x3bfabfff	0.0076522822
133	0xbc0fa05e	-0.008766262
134	0xbc1c43d4	-0.009537656
135	0x3cbfc921	0.023411335
136	0xbc8a2b07	-0.01686622
137	0xbd05e549	-0.032689366
138	0x3b6ecec3	0.0036439158
139	0x3c7f217f	0.015571951
140	0xbd7797dd	-0.060447562
141	0x3aab0d4e	0.001305023
142	0x3cc3736f	0.023858754
143	0xbd1b9973	-0.037988137
144	0x3d0d078f	0.034431037
145	0x3bd3ac61	0.006459758
146	0x3cd40e71	0.025885792
147	0x3cc612c8	0.024178877
148	0x3b0030b6	0.0019560284
149	0x3cb92598	0.022600934
150	0xbd36ce92	-0.044630595
151	0x3d3bf7eb	0.04589073
152	0xbbee653b	-0.007275251
153	0x397c9a2b	0.00024090025
154	0xbcd8f891	-0.026485713
155	0xbd27a270	-0.040926397
156	0xbce6b096	-0.028160375
157	0x3ceeff23	0.029174393
158	0xbc7f9a7f	-0.0156008
159	0x3d46ac21	0.048504
160	0xbc149659	-0.009069049
161	0xbd6dd469	-0.0580639
162	0xbcfc896f	-0.030827252
163	0xbb50b040	-0.0031843334
164	0xbcf0a529	-0.02937563
165	0xbcf3dc51	-0.029768141
166	0x3cd24fcc	0.025672816
167	0x3cbfaaa7	0.023396803
168	0x3be39362	0.0069450596
169	0xbd1ab247	-0.037767675
170	0xbd3e7774	-0.046500638
171	0xbba74bce	-0.005105472
172	0xbd4ad690	-0.04952103
173	0x3c5ed90f	0.0136015555
174	0xbae91bce	-0.0017784776
175	0x3c1043dd	0.008805242
176	0xbc188c5f	-0.009310811
177	0x3d1cdc81	0.038296226
178	0xbcf207ca	-0.02954473
179	0xbd521ca1	-0.051296834
180	0xbc8165ae	-0.015795555
181	0x3cced777	0.025249226
182	0xbd3727ff	-0.044715878
183	0x3c244454	0.010026056
184	0x3d33f0f4	0.043930963
185	0x3d0fca9a	0.035105325
186	0x3ce2be1a	0.027678538
187	0xbc751a92	-0.014959948
188	0x3c5822d5	0.013191898
189	0xb82fa1cb	-4.1873933e-05
190	0x3d371621	0.04469884
191	0x3cfe086d	0.031009877
192	0x3c81c772	0.015842173
193	0x3c5446d8	0.012956344
194	0x3ca722a2	0.020402256
195	0x3c4fc7af	0.012681886
196	0xbc391cea	-0.011298398
197	0xbd1e901d	-0.038711656
198	0x3c8e07a4	0.017337628
199	0x3c100cef	0.008792146
200	0x3d297bef	0.041377958
201	0x3cfcb479	0.030847775
202	0xbd397ebd	-0.045286883
203	0xbb968ccf	-0.0045944224
204	0xbd224769	-0.039618883
205	0x3d486ec0	0.048933744
206	0x3c285125	0.010273253
207	0xbd0669c7	-0.03281572
208	0x3d5df8bd	0.054192293
209	0x3d349755	0.044089634
210	0xbbdd94af	-0.006762109
211	0x3d05da8e	0.032679133
212	0x3be7465b	0.0070579476
213	0x3ac61488	0.001511232
214	0x3ce6fa48	0.028195515
215	0x3b9ca44b	0.0047803274
216	0xbc9a289c	-0.018818192
217	0x3c8ac337	0.016938789
218	0xbc6ea11a	-0.014564777
219	0x3d1e6934	0.03867455
220	0x3d48d9ec	0.04903595
221	0xbccb64de	-0.02482837
222	0x3c8df7b1	0.017330023
223	0x3c5ff321	0.013668806
224	0x3cf0304f	0.02931991
225	0xbb590137	-0.0033112296
226	0xbbd2057f	-0.0064093466
227	0x3c55ed21	0.013057024
228	0xbd35ca86	-0.044382595
229	0x3bafba7f	0.0053628082
230	0xbd6a4e13	-0.057203364
231	0xbbe616e2	-0.007021771
232	0x3cd3a66a	0.025836188
233	0xbcdd868f	-0.027041702
234	0xbc0ed7a0	-0.008718401
235	0x3d332bb1	0.04374284
236	0x3cd0f94e	0.025509503
237	0x3b2fa163	0.0026799075
238	0x3b4c7ff3	0.0031204193
239	0xbcb88820	-0.022525847
240	0x3c3bd438	0.011464171
241	0x3d32540a	0.043537177
242	0x3ca94ab6	0.020665508
243	0x3d52e994	0.05149229
244	0x3cf24128	0.029572085
245	0xbc559f6c	-0.013038497
246	0xbc05dd6f	-0.00817047
247	0x3cec70fc	0.028862469
248	0x3b968d06	0.004594448
249	0x3c8fd6be	0.017558452
250	0xbd560ce4	-0.052258387
251	0x3c0aa214	0.008461494
252	0xba0f7ce1	-0.00054736255
253	0xbd5ef4c0	-0.05443263
254	0x3b8408cd	0.0040293694
255	0x3c52e01d	0.012870816

rppg_feature_extractor.FeatureExtractor.6.conv_block_3d.0.weight f4 [16, 16, 3, 3, 3]
0	0x3b9d0c32	0.0047927136
1	0x3cdede09	0.027205484
2	0xb9b8a46b	-0.00035217716
3	0xbd1bafe1	-0.038009528
4	0x3d11c469	0.035587702
5	0xbb2f78a1	-0.0026774781
6	0xbc800f7e	-0.015632387
7	0xbd03a3ca	-0.032138623
8	0x3baeb903	0.0053321137
9	0x3ca945e0	0.020663202
10	0xbd0f59be	-0.034997694
11	0xbd074483	-0.033024322
12	0x3cfcf420	0.030878127
13	0x3cb91acc	0.022595786
14	0xbbcf5daa	-0.0063283043
15	0xbb85263a	-0.004063395
16	0xbc3a42e6	-0.011368489
17	0x3c750be7	0.014956451
18	0x3c641bc6	0.013922637
19	0x3c71e4c0	0.014764011
20	0x3ca0eddf	0.019644676
21	0x3c86192e	0.016369428
22	0x3c880ff2	0.016609166
23	0xbcbdd711	-0.02317384
24	0x3d3e4cdc	0.046460018
25	0x3ca55169	0.020180421
26	0xbc09ef11	-0.008418814
27	0xb9e8c9b4	-0.0004440077
28	0xbd2cae61	-0.04215849
29	0xbca7f53c	-0.020502679
30	0xbc5ca255	-0.013466437
31	0x3cab1505	0.020884046
32	0x3d4c3ec1	0.049864534
33	0xbcab90af	-0.020943014
34	0x3d29c8dc	0.04145132
35	0x3c43d877	0.011953465
36	0xbcd8332f	-0.026391594
37	0xbcb13059	-0.0216295
38	0xbb70af77	-0.003672568
39	0x3bbf24dc	0.0058332514
40	0xbc489af5	-0.012243976
41	0x3cd82e87	0.026389373
42	0x3d2de37f	0.042453285
43	0x3c84ea18	0.016224906
44	0x3d15c4ed	0.036564756
45	0x3b2f358c	0.0026734797
46	0xbc85328f	-0.01625946
47	0x3d08191c	0.03322707
48	0x3d3a7c56	0.045528732
49	0xbce12a94	-0.027486123
50	0xbcaea3ca	-0.021318335
51	0x3d24d599	0.040242765
52	0x3cd9b06a	0.026573379
53	0x3d4220f5	0.04739471
54	0x3d0088d9	0.031380508
55	0x3d4e3ade	0.05034911
56	0xbb818f2e	-0.003953836
57	0x3b1258bd	0.0022330724
58	0xbd02a628	-0.03189674
59	0x3b7599f5	0.0037475799
60	0x3cdd8fa6	0.027046036
61	0xbc2934b0	-0.010327503
62	0xb9067d18	-0.00012825837
63	0xbcfda956	-0.030964535
64	0x3d27d25a	0.04097209
65	0xbd407f0a	-0.046996154
66	0xbb9cedae	-0.004789076
67	0x3d2d9d63	0.042386424
68	0xbc5f4977	-0.013628355
69	0xbcca6f2a	-0.02471121
70	0xbc193b34	-0.009352494
71	0xbcdd7cfe	-0.02703714
72	0xbcc5c804	-0.024143226
73	0x3d2b94f1	0.04189009
74	0x3c664436	0.014054349
75	0x3cbb29a5	0.022847006
76	0xbd1f88fc	-0.038948998
77	0x3c97ee1d	0.018546158
78	0xbcae8c94	-0.021307267
79	0xbcf2156e	-0.029551234
80	0xbca99b8a	-0.02070405
81	0x3d1498ad	0.036278415
82	0xbd1812f2	-0.037127443
83	0xbcc8eb52	-0.024526272
84	0xbd24de5f	-0.040251132
85	0x3cde05f7	0.027102454
86	0x3d0fcedd	0.03510939
87	0x3c87e87e	0.016590353
88	0x3d0de6b5	0.034643847
89	0xb95dcceb	-0.0002115254
90	0xbbb7490a	-0.0055934237
91	0x3d361a8e	0.04445892
92	0x3d28d2c5	0.04121663
93	0x3d240516	0.040043913
94	0x3d19aa40	0.03751588
95	0x3d1706aa	0.03687159
96	0x3ce5579d	0.027995879
97	0xbc95bf5c	-0.018279724
98	0xbcb42d55	-0.021994272
99	0x3a10678c	0.0005508594
100	0xbc96236a	-0.018327434
101	0xbcf993ca	-0.03046598
102	0x3cb1744a	0.021661896
103	0x3d2f9121	0.042863015
104	0xbd207fd5	-0.03918441
105	0xbd263124	-0.040574208
106	0x3cdcff62	0.026977245
107	0xbd36e39e	-0.044650666
108	0xbd3174a1	-0.043324117
109	0x3c53ea55	0.012934287
110	0xbd452c66	-0.048138045
111	0x3c98d348	0.018655434
112	0xbd19dd31	-0.03756446
113	0x3bea9bf1	0.007159703
114	0xbd3f8ca5	-0.04676499
115	0x3d36482e	0.04450243
116	0xbb9cee56	-0.004789154
117	0x3d3d330d	0.046191264
118	0xbb3e9b0b	-0.0029084112
119	0x3c891e1d	0.016737992
120	0x3cd36b5b	0.025808027
121	0xbceb023d	-0.02868759
122	0xbc2f81c1	-0.010712088
123	0xba47b40f	-0.00076180784
124	0x3d2c90ba	0.04213021
125	0x3ad87a11	0.0016515871
126	0x3d4c946c	0.049946234
127	0x3d30a604	0.043127075
128	0x3cc9675b	0.024585417
129	0xbd356e45	-0.044294614
130	0xbc9aebee	-0.018911328
131	0xbd20af25	-0.03922953
132	0xbd4e7706	-0.05040648
133	0xbb2e7db0	-0.0026625209
134	0x3d41b80c	0.04729466
135	0x3d05c87f	0.03266191
136	0x3c49202e	0.012275739
137	0xbcf5d328	-0.030007914
138	0xbd0f7efe	-0.03503322
139	0xbcb36cbd	-0.021902436
140	0x3c996d4b	0.018728873
141	0xbb997024	-0.0046825577
142	0xbd081033	-0.033218574
143	0x3c9dd814	0.019268073
144	0xbd2a89a8	-0.041635185
145	0x3c0df05e	0.008663265
146	0xbc5f1a99	-0.013617181
147	0x3d5117ef	0.051048215
148	0xbd259bd6	-0.04043182
149	0x3d373288	0.044725925
150	0xbbd98a42	-0.006638796
151	0xbd01083e	-0.031502
152	0xbc07dd86	-0.008292561
153	0xbc055417	-0.008137724
154	0x3aa935f1	0.0012909753
155	0x3c7fe6ca	0.015618989
156	0x3d3240f5	0.04351898
157	0x3c2e6e70	0.010646448
158	0x3cf51935	0.029919246
159	0xbd22efbd	-0.039779413
160	0xbcc78b9b	-0.024358561
161	0xbd291eb9	-0.041289065
162	0x3c3e69d8	0.011621915
163	0x3d26ec46	0.04075267
164	0xbd333c6c	-0.043758795
165	0xbbd03fcb	-0.006355261
166	0xbb463b43	-0.0030247725
167	0xbcf2385d	-0.029567892
168	0xbd05aa21	-0.03263295
169	0x3ccf3955	0.025295893
170	0xbc5b2357	-0.013375125
171	0xbccf61ea	-0.025315244
172	0xbbd2cacb	-0.006432866
173	0xbd28efe1	-0.04124439
174	0x3d39f9d1	0.04540426
175	0x3c7b3c4f	0.015334203
176	0xbc3c2e6b	-0.011485676
177	0x3ca7bb76	0.02047513
178	0x3cdf1b36	0.027234655
179	0xbb815da2	-0.0039479295
180	0x3cc521f9	0.024064051
181	0xbd400025	-0.046875138
182	0x3d1f109c	0.0388342
183	0x3d0cc6c9	0.034369264
184	0xbc754412	-0.0149698425
185	0x3c72301b	0.014781977
186	0x3c960e87	0.018317474
187	0xbc949da1	-0.01814157
188	0x3d3ce938	0.046120852
189	0x3c73b33c	0.014874276
190	0xbd1dc4d3	-0.038517784
191	0x3ba3797c	0.0049888473
192	0xbca7bcc6	-0.020475756
193	0xbd40aca2	-0.047039635
194	0x3cf9ff27	0.030517174
195	0x3c063f90	0.008193865
196	0xbd32a098	-0.043610185
197	0x3cd11266	0.025521468
198	0xbcc1df1e	-0.02366596
199	0x3ceeee8f	0.029166488
200	0xbc021e21	-0.007941754
201	0xbc3f8955	-0.011690457
202	0xbd1d433b	-0.038394194
203	0xbccfb30d	-0.025353933
204	0x3d07362a	0.03301064
205	0x3c9bdb00	0.019025326
206	0xbc6c0901	-0.014406444
207	0x3bd233c6	0.0064148633
208	0xbc47f596	-0.012204548
209	0xbd0e1dba	-0.03469632
210	0x3c611e1f	0.013740092
211	0xbc8c61eb	-0.017136535
212	0x3d148c21	0.03626645
213	0xbba132a6	-0.004919368
214	0x3c3c2128	0.011482514
215	0xbbb9cc4d	-0.0056701065
216	0x3aa21ed4	0.0012368807
217	0x3d11df67	0.035613444
218	0xbd41af86	-0.047286533
219	0x3d490dee	0.04908555
220	0x3c4ab26a	0.012371639
221	0xbd15a0c6	-0.03653028
222	0xbd43db87	-0.04781678
223	0xb9a9cea8	-0.00032388163
224	0xbcb3c27d	-0.021943325
225	0x3d492c6c	0.04911463
226	0xbcc1e7c7	-0.02367009
227	0x3d1ad96c	0.037805006
228	0x3cfa708d	0.030571247
229	0xbd01fee0	-0.03173721
230	0xbc6041d0	-0.013687566
231	0x3ce66d9f	0.028128443
232	0xbce73912	-0.028225455
233	0xbcda88e5	-0.026676605
234	0xbcd8faeb	-0.026486835
235	0xbc15caff	-0.009142636
236	0x3c9fd746	0.01951183
237	0xbc08f067	-0.008358098
238	0x3c32d8a3	0.010915908
239	0x3c48f5e9	0.012265661
240	0xbad5e276	-0.0016318101
241	0x3cd6b6da	0.026210237
242	0x3d1861d0	0.037202656
243	0xbcb7a0af	-0.022415487
244	0x3cd7b269	0.02633019
245	0xbc334313	-0.010941285
246	0xba6e847f	-0.0009098723
247	0xbd1b8751	-0.037970845
248	0x3d1a03d2	0.0376013
249	0x3cd09546	0.025461804
250	0x3cb74cd2	0.022375498
251	0xbcb53b1e	-0.022122916
252	0x3c242f1c	0.010020997
253	0x3d15a85a	0.036537506
254	0x3c029aaa	0.007971445
255	0xbd435ea1	-0.047697667

rppg_head.conv_block.0.conv_block_3d.0.weight f4 [16, 16, 3, 3, 3]
0	0x3d05a7e6	0.032630824
1	0x3c8459b8	0.016156062
2	0xbd212e51	-0.03935081
3	0x3c57daa4	0.013174687
4	0xbcd39cac	-0.025831543
5	0x3d332c9b	0.04374371
6	0xbc7bf233	-0.015377569
7	0xbd24e945	-0.040261526
8	0xbcbfac2f	-0.023397533
9	0x3d407fe9	0.046996985
10	0x3c70fb6f	0.014708384
11	0x3be18458	0.0068822317
12	0x3d22a486	0.039707683
13	0xbc2cb306	-0.010540729
14	0x3cf73894	0.030178346
15	0x3ce08059	0.027404951
16	0x3bc31e37	0.0059545296
17	0x3d4236bb	0.047415476
18	0x3c1cf993	0.0095809875
19	0xbc8b5027	-0.017005993
20	0xbd2bf6aa	-0.041983284
21	0xbc9bc29d	-0.019013697
22	0xbcaf11ac	-0.021370731
23	0x3ccc4048	0.024932995
24	0x3d003bb7	0.03130695
25	0xbbeaf7db	-0.00717066
26	0x3c45af83	0.012065771
27	0x3d16acc2	0.03678585
28	0xbb8460fe	-0.0040398827
29	0x3cdf5658	0.027262852
30	0x3cbd24eb	0.023088893
31	0x3d3a53fd	0.045490254
32	0x3d40cc66	0.04706993
33	0xbcd4c5bb	-0.025973191
34	0xbc878db4	-0.016547062
35	0xbcc4b40c	-0.024011634
36	0xbc773cb8	-0.01509016
37	0xbceb5344	-0.028726228
38	0xbd108b44	-0.035289064
39	0x3d1dcaed	0.038523603
40	0x3cd53166	0.026024532
41	0x3d1d4ee8	0.03840533
42	0xbc1ec8d0	-0.009691432
43	0x3ccbfa81	0.024899723
44	0xbd40dcf7	-0.04708573
45	0x3c3ea426	0.011635816
46	0xba80ca9c	-0.0009826007
47	0x3c6c303a	0.014415795
48	0xbb901593	-0.004397103
49	0x3cc97205	0.024590502
50	0xbbe0be3a	-0.0068586143
51	0xbc6adf3d	-0.014335451
52	0x3b0fe083	0.0021953888
53	0xbb73157a	-0.0037091658
54	0xbc99d7fd	-0.018779749
55	0x3d5e38ed	0.054253507
56	0x3d216391	0.039401595
57	0x3d11e8b4	0.035622314
58	0xbca047bc	-0.019565456
59	0x3d0baade	0.0340985
60	0xbd0168c1	-0.03159404
61	0x3d0d78c7	0.03453901
62	0xbbc84260	-0.006111428
63	0xba5ea4df	-0.00084931956
64	0xbca4e249	-0.020127432
65	0x3bc73cad	0.006080231
66	0x3b9f766c	0.004866412
67	0x3b653d89	0.0034979305
68	0x3cdfce34	0.027320005
69	0xbd1eada8	-0.03873983
70	0xbd038ad4	-0.03211482
71	0xbca9eeea	-0.020743806
72	0xbd126a31	-0.035745803
73	0xbc91c0a3	-0.017792052
74	0x3d1752bf	0.036944147
75	0x3c5f85de	0.013642756
76	0xbcdbb65e	-0.026820358
77	0xbd38fe05	-0.045164127
78	0x3d02e916	0.03196057
79	0xbd469260	-0.048479438
80	0x3cf3059a	0.029665757
81	0x3cd53d54	0.02603022
82	0xbd24a53e	-0.04019665
83	0x3c7c3e1a	0.015395666
84	0xbc725765	-0.014791344
85	0xbc61cada	-0.013781274
86	0x3c09e3ea	0.008416155
87	0xbd2a1f58	-0.041533798
88	0xbcf032ad	-0.02932104
89	0x3cabd012	0.02097324
90	0xbc25e771	-0.010125981
91	0xbd0cb823	-0.034355294
92	0x3b689476	0.003548888
93	0x3b08aa20	0.0020853356
94	0x3c934326	0.017976355
95	0x3ce0e57b	0.027453175
96	0xbd2282df	-0.03967559
97	0xbc8d11da	-0.017220426
98	0x3d3a9be6	0.045558833
99	0xbd17b5c3	-0.037038576
100	0x3d385d50	0.045010865
101	0xbd282807	-0.041053798
102	0x3d0cad34	0.034344867
103	0x3bc531fd	0.006017922
104	0xbcaceee9	-0.021110015
105	0xbc23f432	-0.010006951
106	0x3c8e9055	0.017402807
107	0xba839da9	-0.0010041493
108	0x3ccb1068	0.024788097
109	0x3d4bd672	0.049765058
110	0xbd030235	-0.031984527
111	0xbc1c11ed	-0.009525758
112	0xbcdccdd9	-0.026953625
113	0xbc969d78	-0.018385634
114	0x3bfcb5bd	0.0077120946
115	0xbc236592	-0.009972947
116	0x3bf8f101	0.0075970893
117	0xbc8afa8e	-0.016965177
118	0xbc28b0dd	-0.010296074
119	0x3c7af03f	0.015316068
120	0x3bb0887a	0.005387363
121	0x3c963a29	0.01833828
122	0xbd008b08	-0.03138259
123	0x3c2d4738	0.010576062
124	0xbd1fb136	-0.03898736
125	0x3be436c4	0.0069645364
126	0xbc5b5889	-0.013387808
127	0xbcb318dc	-0.02186244
128	0xbc53119c	-0.012882616
129	0x3c98f77d	0.0186727
130	0x3d38f992	0.045159884
131	0xbcc49048	-0.02399458
132	0xbd364069	-0.04449502
133	0xbcb93ea7	-0.022612883
134	0x3c8cffd6	0.017211836
135	0x3d07f1da	0.033189632
136	0x3cd7d803	0.02634812
137	0xbc307ed3	-0.010772425
138	0x3b377992	0.0027996046
139	0x3d045f05	0.03231718
140	0xbd06eb38	-0.032939166
141	0x3c257545	0.01009876
142	0xbce46d31	-0.027884098
143	0xbc3dc9d9	-0.011583769
144	0xba27df9a	-0.00064038637
145	0x3b83ff27	0.0040282193
146	0x3cc76ba2	0.024343316
147	0xbcc6b5bb	-0.024256578
148	0xbc4db5f9	-0.012555593
149	0xbcb7f990	-0.022457868
150	0xbc2f651b	-0.010705258
151	0x3d06b871	0.03289074
152	0x3d3c7987	0.046014335
153	0x3c0ba837	0.008523992
154	0xbcbdba69	-0.023160176
155	0x3c5faf3d	0.01365262
156	0xbd17df5b	-0.037078243
157	0xbd2572ba	-0.040392615
158	0x3cbc58d3	0.022991573
159	0xbc8e41ad	-0.017365301
160	0xbd6c0bb0	-0.057628334
161	0xbd10302d	-0.035202194
162	0xbce04e5d	-0.027381117
163	0x3d4a5f2c	0.04940717
164	0x3c4ef53a	0.012631709
165	0xbcb95b09	-0.022626417
166	0x3c718ada	0.014742577
167	0x3ce1f43d	0.027582282
168	0x3ba81c3c	0.005130319
169	0x3bd1abac	0.0063986387
170	0xbc53ca18	-0.012926601
171	0x3d14f019	0.036361787
172	0x3d1acd92	0.037793703
173	0xbd17c23f	-0.037050482
174	0x3c2ed4a4	0.010670815
175	0x3d13ea54	0.036112145
176	0xbd1aa7c8	-0.037757665
177	0xbcb3d73a	-0.021953214
178	0xbd01693e	-0.031594507
179	0x3d0a1134	0.033707812
180	0x3d383256	0.04496988
181	0xbc310da5	-0.010806476
182	0xbd1f8268	-0.038942724
183	0x3ccccf05	0.025001058
184	0x3b185a53	0.0023247197
185	0x3bb7d509	0.0056101126
186	0xbcc461ae	-0.023972359
187	0xbc5b59d4	-0.013388116
188	0x3d18b315	0.03728016
189	0x3cc0a0d2	0.023514185
190	0xbbf178c6	-0.0073691336
191	0x3b72552a	0.0036977031
192	0x3c65a3dc	0.014016118
193	0xbc3c8ecc	-0.011508655
194	0x3d1e457f	0.038640495
195	0x3cca03e5	0.02466006
196	0xbd1b2a3c	-0.037882075
197	0x3ca90fd0	0.020637423
198	0x3ce0bec0	0.027434707
199	0xbd07c333	-0.03314514
200	0x3b07ac1c	0.002070195
201	0x3c841ee5	0.016128013
202	0xbbbb472c	-0.0057152715
203	0x3c09e4d9	0.008416378
204	0x3c4a7c34	0.012358714
205	0xbd2bd67b	-0.04195259
206	0xbd23187e	-0.03981828
207	0x3cce8da5	0.025214026
208	0x3d0f4fcb	0.034988206
209	0xbce41063	-0.027839845
210	0x3d328bc4	0.043590322
211	0xbb0e1aa9	-0.002168337
212	0x3d25523d	0.04036163
213	0xbc1b4b1c	-0.009478357
214	0x3ca85ce2	0.020552102
215	0x3d1900ea	0.037354387
216	0x3cb2f4f4	0.021845318
217	0xbd38934b	-0.045062345
218	0xbc32d0af	-0.010914012
219	0xbd37ec33	-0.04490299
220	0x3c3de53c	0.011590298
221	0xbb0cc00f	-0.002147678
222	0x3ca00ccd	0.019537354
223	0xbc64d9e6	-0.013967967
224	0xbb75f2b4	-0.0037528696
225	0x3d12b708	0.035819083
226	0x3c926d66	0.01787443
227	0xbc384c90	-0.011248723
228	0xbc48b4c8	-0.012250133
229	0xbca57427	-0.020196987
230	0x3d1aa1bc	0.0377519
231	0xbbbcbc00	-0.005759716
232	0x3c1889c1	0.009310187
233	0xbd0d0c9a	-0.034435846
234	0x3cee3a55	0.02908055
235	0xbcce988b	-0.025219223
236	0x3ccdfb6d	0.025144303
237	0xbd43d961	-0.04781473
238	0xbd022ead	-0.031782795
239	0x3c21a224	0.0098653175
240	0xbd2c1481	-0.04201174
241	0x3d494c65	0.04914512
242	0x3d00bbd3	0.031429123
243	0x3d3cdd15	0.046109278
244	0x3c41e4c7	0.01183433
245	0xbd312167	-0.043244746
246	0x3b851b1c	0.0040620696
247	0xbcf932b5	-0.030419687
248	0x3d0e09ad	0.034677196
249	0xbd26b3e3	-0.040698897
250	0xbc2eb0e3	-0.01066229
251	0xbd0eb339	-0.03483889
252	0xbcf01b0d	-0.029309774
253	0x3c353ebf	0.011062323
254	0xbceab7e5	-0.02865214
255	0x3d0b5c55	0.0340236
