model/MFP_50.pth (torch, 216596 bytes, 16 tensors)

FeatureExtractor.layers.0.conv.weight f4 [8, 3, 3, 3, 3]
0.023540314 0.082787625 -0.065979056 -0.064432725 -0.037591193 0.042202186 0.015703471 0.099570334
0.008766553 0.039576665 -0.0065850983 0.0054579545 -0.10528279 -0.06330063 -0.02991778 -5.995401e-05
0.059571274 0.07142242 -0.080357194 -0.035577025 0.050913267 0.080677964 -0.028268011 0.08156682
-0.018636199 0.013519892 0.10180698 -0.119276755 -0.08197783 -0.038073927 -0.071760185 0.060670923
-0.097128935 -0.06883023 -0.09702333 -0.122579 -0.07215694 0.09589557 0.04553997 0.029842496
-0.0071155843 -0.07207765 -0.0042569647 -0.10450067 -0.08936481 -0.061670337 0.076927684 0.053520463
-0.045620576 7.4963005e-05 0.065975174 0.100952104 0.0395218 0.015752625 0.08721826 -0.044093575
0.038857054 -0.06746064 -0.054938417 -0.038911894 0.063438185 0.055436917 -0.057651002 0.037646588
0.079393655 0.0070498907 0.0018204398 0.034449887 0.07271588 0.09114779 -0.0772792 -0.044245973
0.048638824 0.10041582 0.09591699 0.09992404 0.02661999 -0.08389454 0.013808919 -0.059239905
-0.086290486 0.098366305 0.08211966 -0.112630986 0.022798983 -0.018742261 -0.021701489 -0.048085827
0.038535368 -0.0671275 0.045719985 0.057114758 0.09306905 0.042116214 -0.10739165 -0.0670511
0.052957807 0.023598153 -0.08211568 -0.06481751 0.097045824 0.075624995 -0.05425064 -0.03883473
-0.11038113 -0.009903555 -0.08768751 -0.09683878 0.0040440853 0.016063254 -0.04227608 0.06556788
-0.060252525 0.10183631 0.07354545 -0.088146724 -0.028211595 0.004245373 0.01736419 0.027048457
0.035429973 0.0017644663 -0.054298136 0.042477693 -0.11308178 -0.07635948 -0.03759051 -0.059791625
-0.032540295 -0.10238047 -0.032204315 0.023338644 -0.08519001 -0.013618684 0.06496649 0.0071262564
0.007823209 0.006132564 0.038854185 0.085964695 0.120172046 0.08747209 0.11666349 0.0091898125
-0.08141088 -0.026866758 0.10293982 0.0070087775 -0.036241792 -0.064684145 -0.09160894 -0.069952175
-0.016897341 0.06444229 0.07050741 -0.08745372 0.06954723 -0.07609228 -0.011676541 -0.04062709
-0.010122679 -0.01560757 -0.0784028 -0.08010243 -0.0026026617 0.006381065 -0.05387228 0.048271496
-0.08887162 -0.0002457586 0.10778326 -0.031684887 0.11015143 0.067679785 -0.09757353 0.07597731
-0.0028324195 -0.038944744 0.091431975 -0.067864 -0.0024039662 -0.028531153 0.07878057 0.025109233
0.039965857 0.032319862 -0.030889072 -0.030007157 -0.09941386 0.038530044 0.07066606 0.06607557
-0.09899874 -0.031319838 -0.094113484 -0.083788194 -0.088793755 0.026577845 -0.07171353 -0.019709853
-0.008558012 0.050796393 -0.1045035 -0.100395896 -0.082868524 0.05982506 -0.046644736 0.065695845
0.018009339 -0.0058270064 8.056998e-05 -0.028583068 -0.00020176491 -0.03922252 -0.009167266 0.002218256
-0.05926355 -0.028434595 0.120719954 -0.071202785 0.0015035025 0.124997415 0.06320982 0.017364228
-0.0735152 0.07087612 -0.06404606 -0.013669933 -0.035669267 -0.0022185151 0.0056281104 0.099281594
0.028863624 0.11360772 0.072642416 -0.06258413 0.056466553 -0.058193456 -0.034261137 0.049527336
0.035846587 0.093278 -0.018421633 0.015242856 0.06970972 -0.09650462 0.08600518 -0.08514368
0.0038642855 0.005748161 -0.039680846 0.016968535 0.09995465 0.005022722 -0.046351377 -0.025435638
00000000: 9ed7 c03c 8f8c a93d 0720 87bd 4ef5 83bd
00000010: 39f9 19bd 33dc 2c3d 91a4 803c 88eb cb3d
00000020: 97a1 0f3c 241b 223d cfc7 d7bb a4d8 b23b
00000030: 819e d7bd c3a3 81bd 2216 f5bc 2177 7bb8
00000040: 0201 743d eb45 923d 5092 a4bd 37b9 11bd
00000050: 6e8a 503d 7d3a a53d 5192 e7bc 810c a73d
00000060: f1aa 98bc 8982 5d3c 2e80 d03d 5f47 f4bd
00000070: fee3 a7bd 68f3 1bbd 01f7 92bd 1382 783d
00000080: 89eb c6bd ddf6 8cbd 2bb4 c6bd b30a fbbd
00000090: 05c7 93bd e664 c43d 1f88 3a3d 4078 f43c
000000a0: d929 e9bb 729d 93bd 027e 8bbb 7304 d6bd
000000b0: e604 b7bd 099a 7cbd 438c 9d3d 4638 5b3d
000000c0: a4dc 3abd 7535 9d38 fe1d 873d fabf ce3d
000000d0: 9ce1 213d a60b 813c 7d9f b23d 779b 34bd
000000e0: 9328 1f3d ce28 8abd 1b07 61bd 1462 1fbd
000000f0: e1eb 813d d211 633d 7523 6cbd 4f33 1a3d
00000100: 2499 a23d c502 e73b d39b ee3a 531b 0d3d
00000110: 10ec 943d b1ab ba3d 8f44 9ebd 443b 35bd
00000120: 8139 473d cfa6 cd3d 2070 c43d faa4 cc3d
00000130: 2a12 da3c e7d0 abbd ce3e 623c 8ba5 72bd
00000140: 11b9 b0bd 4674 c93d 5a2e a83d 13ab e6bd
00000150: efc4 ba3c 5f89 99bc 52c7 b1bc a5f5 44bd
00000160: 43d7 1d3d 257a 89bd e144 3b3d 2af1 693d
00000170: fc9a be3d 0d82 2c3d 27f0 dbbd 1652 89bd
00000180: 49ea 583d ea50 c13c 442c a8bd 0bbf 84bd
00000190: f6bf c63d 47e1 9a3d eb35 5ebd 2a11 1fbd
000001a0: 800f e2bd 8542 22bc 8295 b3bd 6953 c6bd
000001b0: 3f84 843b 1697 833c af29 2dbd 7448 863d
000001c0: 5acb 76bd 8e8f d03d ff9e 963d 4586 b4bd
000001d0: 011c e7bc c51c 8b3b 593f 8e3c ba94 dd3c
000001e0: 051f 113d aa45 e73a b967 5ebd 17fd 2d3d
000001f0: 6c97 e7bd 5c62 9cbd 82f8 19bd 10e8 74bd
00000200: f948 05bd daac d1bd ace8 03bd af30 bf3c
00000210: 1a78 aebd e720 5fbc 270d 853d 5f83 e93b
00000220: eb2c 003c adf3 c83b 9125 1f3d 420e b03d
00000230: c31c f63d 9124 b33d 45ed ee3d de90 163c
00000240: bfba a6bd ad17 dcbc 1dd2 d23d e3a9 e53b
00000250: 4672 14bd 1f79 84bd 789d bbbd 1643 8fbd
00000260: 4b6c 8abc 52fa 833d 3066 903d f01a b3bd
00000270: c76e 8e3d 45d6 9bbd f64e 3fbc 9768 26bd
00000280: 98d9 25bc e5b6 7fbc a691 a0bd be0c a4bd
00000290: 6b91 2abb 4118 d13b 2ea9 5cbd 55b8 453d
000002a0: 5302 b6bd 29d9 80b9 78bd dc3d 03c8 01bd
000002b0: 1397 e13d b39b 8a3d a2d4 c7bd fe99 9b3d
000002c0: 1da0 39bb 8684 1fbd b040 bb3d 48fc 8abd
000002d0: dc8b 1dbb 2aba e9bc b557 a13d e1b1 cd3c
000002e0: 3db3 233d d561 043d 140b fdbc 92d1 f5bc
000002f0: 7e99 cbbd aed1 1d3d 5eb9 903d a152 873d
00000300: dabf cabd 3b49 00bd 92be c0bd 2599 abbd
00000310: 80d9 b5bd c8b9 d93c 8bde 92bd 8f76 a1bc
00000320: e736 0cbc e10f 503d ee05 d6bd 5d9c cdbd
00000330: f9b6 a9bd 1f0b 753d 8d0e 3fbd 8b8b 863d
00000340: 5288 933c 79f0 bebb aef7 a838 0a27 eabc
00000350: db90 53b9 cba7 20bd 4d32 16bc 2960 113b
00000360: 56be 72bd abef e8bc 063c f73d c4d2 91bd
00000370: 2c11 c53a a5fe ff3d 2674 813d 6d3f 8e3c
00000380: 238f 96bd 8027 913d 952a 83bd dbf7 5fbc
00000390: f019 12bd 8264 11bb 036c b83b 2654 cb3d
000003a0: 6873 ec3c 2aab e83d 8cc5 943d 1c2c 80bd
000003b0: 7949 673d 435c 6ebd 6855 0cbd 2ddd 4a3d
000003c0: dfd3 123d 8908 bf3d f7e8 96bc 2cbd 793c
000003d0: f8c3 8e3d 37a4 c5bd 7c23 b03d cf5f aebd
000003e0: f43f 7d3b 125b bc3b 6288 22bd 9901 8b3c
000003f0: 06b5 cc3d a595 a43b f1da 3dbd 665e d0bc

FeatureExtractor.layers.1.conv.weight f4 [12, 8, 3, 3, 3]
-0.06186159 -0.01006922 0.034304406 -0.035493713 0.05543692 -0.052868426 -0.06741445 -0.036048163
-0.0028169905 0.06737731 -0.019161157 0.035867874 -0.015667012 -0.0033761165 0.04994446 -0.052972194
0.014638703 0.06785145 -0.015996495 0.051525705 -0.026981646 0.0496903 -0.059675053 -0.014000977
-0.012442726 0.026740259 0.017947314 0.04530498 -0.018282168 -0.0021517447 0.042896226 -0.02127816
0.052227747 -0.04603481 -0.006331941 0.00017055083 0.03156992 0.047342893 -0.0108499285 -0.05616993
0.03157719 0.018168554 0.026694212 -0.03829619 0.049831405 0.076020464 0.014528138 -0.050093032
0.049522027 -0.0437071 0.02040221 0.021268113 -0.018423917 0.031778235 -0.05496676 0.0254251
-0.036932837 -0.0033490069 0.011567386 0.06150239 -0.032255832 0.039733868 -0.01382243 -0.030937752
-0.060636494 -0.059185978 0.0703271 -0.01791879 0.004272938 0.016043188 0.042946026 0.052102108
0.060424358 -0.043995515 -0.013269528 -0.039328843 -0.04346698 0.014308457 0.06582034 -0.053979643
0.043143608 -0.047375463 -0.019959444 0.04623788 -0.021574657 0.007403674 -0.052136533 0.040751003
-0.018948989 -0.057022404 0.022141648 -0.03928923 -0.04436166 0.007062187 0.06825274 -0.0110036675
0.0267506 0.06644149 0.04975818 -0.043867342 -0.0073427153 -0.026544265 -0.055304058 0.010384204
0.050922237 0.051399402 0.01052191 0.012526392 -0.025027482 0.04299787 -0.023431337 -0.035265148
0.016761424 0.05435988 -0.044052687 0.060707472 0.034945406 -0.036594693 -0.011944069 0.06210252
-0.038134355 -0.011306979 0.040359672 -0.047179278 0.050191436 0.04814864 0.047126308 -0.040096186
0.07620763 -0.029400013 0.07880352 -0.050982933 -0.05235464 0.049132045 0.014582096 -0.0027039624
-0.037289977 -0.028649772 -0.035015598 -0.07087946 -0.0051680068 0.0019748288 -0.007040345 0.015622064
0.057555385 0.017878417 -0.03110116 -0.039797608 -0.046270587 -0.06064617 -0.017688822 -0.013633506
0.025315423 -0.034697928 0.055793084 -0.04600804 -0.010756656 0.056543335 0.05546755 -0.03415222
0.022026947 0.0056992047 -0.037684783 -0.032245148 0.008615083 -0.048403632 0.009626367 0.02497765
-0.025577083 0.053860374 -0.007281432 0.023345299 0.06235312 -0.03153325 0.047643304 -0.018404905
-0.013071334 -0.015875606 0.0035523297 -0.028306292 0.02100166 0.010184352 0.041170392 -0.0068121236
0.013921096 -0.026078627 -0.05682916 0.03433005 0.010516512 -0.029438114 -0.031772796 0.01639062
-0.023491716 0.03388969 0.0035724433 0.019860543 0.016480472 -0.021701148 0.033626895 0.04714925
-0.00013316993 0.006497275 0.0020577796 0.039112154 -0.029372312 -0.03908454 0.029345494 -0.06515807
-0.013027421 -0.035021123 0.03294539 -0.06921598 0.026099076 0.06377544 0.0059923357 -0.008374635
0.039762225 -0.056286313 -0.017243013 -0.045971118 -0.02981079 -0.006892021 -0.00636893 -0.028592533
-0.0865974 -0.0045851436 -0.009049911 0.013336045 0.04417879 0.0540888 -0.04411716 0.0014764393
-0.020118594 -0.06054189 -0.05351883 0.060146417 0.047988303 0.034052882 0.03360571 -0.046567805
0.0065565356 0.058267795 -0.044786714 0.058304884 0.012193394 0.040862966 -0.027238937 0.02788422
-0.059124555 -0.01473541 0.015495238 0.009758183 0.041891593 0.054599993 0.054185007 0.037620958
00000000: 9462 7dbd 5ff9 24bc c782 0c3d db61 11bd
00000010: d311 633d 908c 58bd 9610 8abd 3da7 13bd
00000020: 429d 38bb 1dfd 893d dcf7 9cbc 31ea 123d
00000030: 1b58 80bc d641 5dbb 9092 4c3d 5ff9 58bd
00000040: 2cd7 6f3c b3f5 8a3d 150b 83bc 9e0c 533d
00000050: 9d08 ddbc 0e88 4b3d d46d 74bd 5b64 65bc
00000060: 93dc 4bbc 630e db3c 3f06 933c b791 393d
00000070: 7cc4 95bc 4904 0dbb f4b3 2f3d 894f aebc
00000080: c3ec 553d ff8e 3cbd 2c7c cfbb e4d5 3239
00000090: 764f 013d 9fea 413d e6c3 31bc 7112 66bd
000000a0: 1557 013d 38d6 943c d2ad da3c 77dc 1cbd
000000b0: 041c 4c3d 9eb0 9b3d 6d07 6e3c 5a2e 4dbd
000000c0: 9cd7 4a3d 3706 33bd 8922 a73c 773a ae3c
000000d0: c1ed 96bc e529 023d d324 61bd 4d48 d03c
000000e0: e346 17bd 037b 5bbb 2285 3d3c eee9 7b3d
000000f0: b11e 04bd fbbf 223d 7977 62bc 2b71 fdbc
00000100: f95d 78bd ff6c 72bd a807 903d 6dca 92bc
00000110: 0004 8c3b 016d 833c 2ce8 2f3d 0569 553d
00000120: 887f 773d a434 34bd 6f68 59bc 4817 21bd
00000130: 6f0a 32bd 056e 6a3c d0cc 863d c219 5dbd
00000140: 5ab7 303d c60c 42bd fd81 a3bc ee63 3d3d
00000150: 56bd b0bc 859a f23b 1e8d 55bd 86ea 263d
00000160: e93a 9bbc 5390 69bd 6762 b53c beed 20bd
00000170: 92b4 35bd eb69 e73b 18c8 8b3d ba48 34bc
00000180: 1324 db3c 7a12 883d 3ccf 4b3d 3eae 33bd
00000190: 299b f0bb 5c73 d9bc 8286 62bd 8222 2a3c
000001a0: d693 503d 2e88 523d 1764 2c3c 7f3b 4d3c
000001b0: 6f06 cdbc 891e 303d 13f3 bfbc 3072 10bd
000001c0: 414f 893c 77a8 5e3d 9770 34bd 66a8 783d
000001d0: ea22 0f3d 51e4 15bd 0eb1 43bc 365f 7e3d
000001e0: c532 1cbd e840 39bc 2f50 253d 0f3f 41bd
000001f0: 8995 4d3d 8237 453d 8407 413d e63b 24bd
00000200: bf12 9c3d 4cd8 f0bc bd63 a13d 7bd3 50bd
00000210: d271 56bd af3e 493d bee9 6e3c f634 31bb
00000220: 60bd 18bd edb2 eabc 846c 0fbd 4029 91bd
00000230: 6258 a9bb 216c 013b b2b2 e6bb aff3 7f3c
00000240: 32bf 6b3d c275 923c dcc7 febc d102 23bd
00000250: 3a86 3dbd 1e68 78bd 26e8 90bc 125f 5fbc
00000260: 4a62 cf3c 6a1f 0ebd 4a87 643d ed72 3cbd
00000270: af3c 30bc fc99 673d f131 633d 33e3 0bbd
00000280: db71 b43c 65c0 ba3b 5c5b 1abd 7d13 04bd
00000290: 4726 0d3c e342 46bd e9b7 1d3c ee9d cc3c
000002a0: 0887 d1bc b29c 5c3d 1499 eebb a43e bf3c
000002b0: fc65 7f3d 0229 01bd a025 433d e2c5 96bc
000002c0: 2629 56bc 8f0d 82bc 34ce 683b 99e2 e7bc
000002d0: ac0b ac3c 45dc 263c 49a2 283d 3c38 dfbb
000002e0: 4f15 643c d8a2 d5bc b1c5 68bd ab9d 0c3d
000002f0: 734d 2c3c 3328 f1bc 3124 02bd 9f45 863c
00000300: b371 c0bc eacf 0a3d a71f 6a3b 94b2 a23c
00000310: 0e02 873c 9bc6 b1bc 5bbc 093d 921f 413d
00000320: 88a3 0bb9 18e7 d43b d0db 063b 1134 203d
00000330: 349e f0bc 1c17 20bd f665 f03c 9871 85bd
00000340: f770 55bc 4f72 0fbd bff1 063d 1cc1 8dbd
00000350: bbcd d53c b39c 823d 5b5b c43b c435 09bc
00000360: b7dd 223d 7a8c 66bd 3841 8dbc 364c 3cbd
00000370: c235 f4bc 76d6 e1bb 75b2 d0bb e33a eabc
00000380: fa59 b1bd f93e 96bb 1446 14bc 6d7f 5a3c
00000390: d2f4 343d 388c 5d3d 32b4 34bd 1585 c13a
000003a0: c0cf a4bc c6fa 77bd 9036 5bbd 175c 763d
000003b0: 628f 443d 097b 0b3d 24a6 093d e2bd 3ebd
000003c0: 35d8 d63b 36aa 6e3d 4672 37bd 1ad1 6e3d
000003d0: cdc6 473c ed5f 273d 3124 dfbc 736d e43c
000003e0: 972c 72bd ca6c 71bc bddf 7d3c c9e0 1f3c
000003f0: 8596 2b3d 3ea4 5f3d 19f1 5d3d 6f18 1a3d

FeatureExtractor.layers.2.conv.weight f4 [12, 12, 3, 3, 3]
0.0063536214 -0.027441164 0.029424282 0.03627772 0.014083754 -0.05208562 -0.04170846 0.034246046
-0.008710737 0.045965627 0.04423129 -0.010665004 -0.02724601 -0.051297355 0.02481582 0.03106898
-0.0067602624 -0.049754098 -0.035091553 -0.002156624 0.026981268 -0.021254724 -0.034483828 -0.040170804
0.044284597 0.015090194 -0.042526748 -0.041946918 -0.051145047 -0.0014853944 -0.029111696 -0.0068457536
-0.015332242 -0.05732736 -0.062235534 -0.061125543 -0.026044937 0.0055143675 -0.029178172 0.003764406
-0.010871673 0.042607423 -0.020697676 0.05092965 -0.05251997 -0.046652555 0.01650959 -0.037323568
0.03170396 -0.033264432 0.044267632 0.048057154 0.002249244 -0.0040922062 0.04275602 0.021339165
-0.05338531 -0.012011134 -0.058931503 0.025814129 -0.018771265 -0.013822621 -0.041934308 -0.032473736
0.0035853907 0.042502295 -0.034099963 -0.0039281533 0.03732016 0.04093588 -0.018710824 0.0473579
0.010664052 0.044729885 -0.0010411541 -0.050503887 -0.021723473 0.012498571 0.023701355 -0.05912676
0.03211085 -0.037181795 0.042984575 0.06579812 0.022193994 -0.0034090402 0.038837485 -0.009755159
-0.032976396 -0.032546937 0.021669708 0.041107398 0.0065030404 -0.058543224 -0.058020186 -0.011197315
0.029293993 -0.03727704 0.015450117 -0.035558045 0.042601135 -0.015805846 -0.014507003 -0.04810909
-0.05758133 -0.0036981835 0.0029743065 0.023635114 -0.047270782 0.011391829 -0.004439698 0.029750224
-0.021431457 0.017426021 0.026482597 0.030589165 -0.01879863 0.020649062 -0.008780836 0.02194481
-0.033267487 -0.044769034 -0.04384407 -0.036073785 -0.031896323 0.010594314 0.0011878809 -0.02405536
0.009960232 -0.015919918 0.035869416 -0.03564561 -0.014003569 -0.037699874 0.012154236 0.013237792
0.0005572046 0.061478514 -0.020475741 -0.0069610244 0.01767447 0.039053705 0.03917665 0.007714585
-0.013220677 0.023626987 0.04088137 0.0006700094 0.033615533 0.04933368 -0.021924619 -0.008311662
-0.043064736 0.021019828 0.04582638 -0.0025137656 0.00924116 0.01749259 0.0059926235 0.042597443
0.010306881 -0.047934778 -0.031759724 -0.037290115 0.022501437 0.037724417 0.00735928 0.05483817
-0.0056782365 0.017594023 0.052007172 0.04028292 0.00029643456 0.055050723 -0.02397887 0.026839916
0.039110832 -0.026776088 -0.041057725 0.018623214 -0.023298698 -0.023945764 0.022411732 -0.03779639
0.043315228 -0.009601163 -0.025475686 0.04496217 0.005382956 0.009125449 -0.017545994 0.057928782
-0.01719789 0.044307493 -0.002708818 0.02965055 0.039091315 -0.03908516 -0.03956403 -0.053459927
0.045288343 0.04552379 -0.023355251 -0.02977485 0.008896385 0.031144807 0.011867911 -0.007498324
-0.035455838 0.04884012 -0.037400205 -0.059524264 -0.018969748 0.009188948 0.017517244 0.022136465
-0.029039675 -0.024801435 -0.025958724 -0.026853032 -0.046811048 0.0080610495 -0.012081507 -0.05401525
-0.031128846 -0.036836933 -0.027613733 -0.032865018 -0.010974595 0.016606139 -0.04302253 -0.0062188944
-0.015272167 -0.027421791 -0.008846044 -0.015534116 0.00553346 -0.034525026 0.010358604 0.05536672
0.04951117 -0.016412247 0.02186113 -0.05170948 0.04263852 -0.052365262 -0.046079837 -0.049945816
-0.060525633 0.0053196256 -0.021728598 0.009321254 -0.0012894011 -0.005741644 -0.023473172 -0.032838803
00000000: 0a32 d03b 4bcc e0bc 310b f13c f297 143d
00000010: 8cbf 663c bb57 55bd 7dd6 2abd 9545 0c3d
00000020: 7bb7 0ebc 7446 3c3d df2b 353d 45bc 2ebc
00000030: 0633 dfbc 2d1d 52bd 8c4a cb3c 6084 fe3c
00000040: 3185 ddbb f4ca 4bbd 29bc 0fbd 2656 0dbb
00000050: d207 dd3c 631e aebc ea3e 0dbd 248a 24bd
00000060: c463 353d dc3c 773c 8730 2ebd 88d0 2bbd
00000070: 787d 51bd 91b1 c2ba a77b eebc 5852 e0bb
00000080: 1534 7bbc 18d0 6abd b0ea 7ebd c75e 7abd
00000090: 315c d5bc deb1 b43b 1007 efbc 41b4 763b
000000a0: 1a1f 32bc 1f85 2e3d 2c8e a9bc 9c9b 503d
000000b0: 2e1f 57bd c016 3fbd 1f3f 873c 99e0 18bd
000000c0: 03dc 013d 4940 08bd fa51 353d 94d7 443d
000000d0: 0d68 133b ea17 86bb f020 2f3d 79cf ae3c
000000e0: 8eaa 5abd 59ca 44bc 2962 71bd 2778 d33c
000000f0: 32c6 99bc 4678 62bc 4fc3 2bbd 2e03 05bd
00000100: e0f8 6a3b e316 2e3d 67ac 0bbd bdb7 80bb
00000110: 06dd 183d 62ac 273d 7147 99bc 5bfa 413d
00000120: 47b8 2e3c af36 373d 5677 88ba 2add 4ebd
00000130: 6df5 b1bc cec6 4c3c 5829 c23c e72e 72bd
00000140: ab86 033d f04b 18bd 9810 303d 2ac1 863d
00000150: 2ed0 b53c 346a 5fbb 0e14 1f3d 1ad4 1fbc
00000160: 4212 07bd f04f 05bd ac84 b13c 3b60 283d
00000170: 7517 d53b 05cb 6fbd 93a6 6dbd f174 37bc
00000180: f5f9 ef3c cfaf 18bd 7d22 7d3c 50a5 11bd
00000190: 877e 2e3d 437b 81bc c8ae 6dbc 0a0e 45bd
000001a0: 67da 6bbd 395d 72bb 95ec 423b 6d9e c13c
000001b0: 029f 41bd cba4 3a3c e37a 91bb beb6 f33c
000001c0: 0691 afbc 04c1 8e3c 08f2 d83c 2196 fa3c
000001d0: 96ff 99bc 3928 a93c 7fdd 0fbc 9ac5 b33c
000001e0: 7d43 08bd bc5f 37bd d795 33bd 1bc2 13bd
000001f0: b8a5 02bd c693 2d3c abb2 9b3a bf0f c5bc
00000200: 3e30 233c 7d6a 82bc cfeb 123d 2201 12bd
00000210: 3a6f 65bc 2f6b 1abd 9022 473c 53e3 583c
00000220: 5e11 123a e5d0 7b3d bebc a7bc 4e19 e4bb
00000230: 0dca 903c c7f6 1f3d b277 203d a1ca fc3b
00000240: 8a9b 58bc 628d c13c 3973 273d 92a3 2f3a
00000250: 71b0 093d 1d12 4a3d 429b b3bc a32d 08bc
00000260: a664 30bd c631 ac3c 71b4 3b3d fdbd 24bb
00000270: 3c68 173c 9f4c 8f3c c55d c43b a87a 2e3d
00000280: 31de 283c 4257 44bd 7c16 02bd 85bd 18bd
00000290: ef54 b83c eb84 1a3d 1d26 f13b fd9d 603d
000002a0: 8010 babb 5721 903c 7905 553d b4ff 243d
000002b0: c66a 9b39 de7c 613d 566f c4bc 62df db3c
000002c0: ae32 203d 8759 dbbc 252c 28bd b68f 983c
000002d0: e9dc bebc e829 c4bc cf98 b73c 63d0 1abd
000002e0: 4f6b 313d 324e 1dbc 63b2 d0bc 412a 383d
000002f0: 8263 b03b e882 153c 9ebc 8fbc bb46 6d3d
00000300: 97e2 8cbc c67b 353d 6d86 31bb b6e5 f23c
00000310: 371e 203d c317 20bd e40d 22bd ccf8 5abd
00000320: 4580 393d 2777 3a3d 8353 bfbc 63ea f3bc
00000330: 25c2 113c 6523 ff3c a071 423c 80b4 f5bb
00000340: 243a 11bd 940c 483d f530 19bd b7cf 73bd
00000350: 7266 9bbc 3e8d 163c 5380 8f3c 8857 b53c
00000360: 9de4 edbc 612c cbbc 64a7 d4bc e4fa dbbc
00000370: f1bc 3fbd 7e12 043c 83f1 45bc 183f 5dbd
00000380: ec01 ffbc 53e2 16bd 3236 e2bc 789d 06bd
00000390: cace 33bc 9909 883c 6438 30bd dec7 cbbb
000003a0: 1c38 7abc aaa3 e0bc ffee 10bc ce82 7ebc
000003b0: 0752 b53b 1d6a 0dbd 22b7 293c 37c8 623d
000003c0: 39cc 4a3d fa72 86bc 1d16 b33c 52cd 53bd
000003d0: bba5 2e3d f57c 56bd 36be 3cbd fc93 4cbd
000003e0: bae9 77bd 4150 ae3b 2c00 b2bc 2cb8 183c
000003f0: 1f01 a9ba 6724 bcbb cf4a c0bc fb81 06bd

FeatureExtractor.layers.4.conv.weight f4 [12, 12, 3, 3, 3]
-0.013577584 -0.021338541 -0.039398957 0.056878634 0.011350662 0.0070999525 -0.032515474 0.024649022
-0.046019997 -0.00957626 -0.00022134194 0.04010552 -0.0013516942 0.016397882 0.044610873 0.017770771
0.045803785 -0.011251912 0.032870308 -0.006190743 -0.0070449784 0.012210698 0.063874096 0.006246887
-0.011216797 -0.022912987 -0.025986144 0.040418006 0.0025720098 -0.0045362925 0.018482897 0.012695628
0.00054819795 0.056379333 0.042125974 0.019570597 -0.023666501 -0.018694403 0.05148227 0.019962668
-0.045537148 0.0031492796 0.019804351 0.021374792 0.054860856 -0.0018477688 -0.01180051 0.03676179
-0.0074656154 0.010295886 -0.036479037 -0.020545425 -0.04009665 0.0029252393 -0.039931603 0.03987181
-0.020221451 -0.037279375 0.0024936383 -0.030591737 -0.030757027 0.043115202 0.015604064 0.016029434
0.026526215 -0.020817589 0.004907614 0.05519526 -0.030805824 0.02276516 0.05107197 -0.0058155884
0.04704968 -0.019065548 -0.019582879 0.013094075 -0.0056692148 -0.01453777 -0.014766455 0.012570264
-0.027339347 -0.04152412 -0.039495338 0.063005656 0.004558862 0.029746525 -0.046889845 -0.0027825846
-0.035388984 0.0059071323 0.041318912 0.03495065 -0.01942566 -0.026789984 -0.04474914 -0.02912524
0.01966134 -0.028801788 0.03347805 -0.027161036 0.0402315 -0.020594018 -0.014194948 0.028137838
0.029310454 0.03319616 0.03351872 -0.056533895 0.033608638 -0.028758276 0.04835695 0.04922425
-0.00043359265 0.020961111 0.009861574 0.027722783 0.04140327 0.01720866 -0.023782449 0.0051002605
0.0077449162 -0.041840974 0.016946359 -0.03627987 0.034909315 0.053732716 0.004692924 0.037063867
-0.00264011 0.03376382 0.022615261 -0.053132053 -0.05241694 -0.014282754 0.024559354 -0.006246045
-0.0074372604 0.038740177 0.050261285 0.034654815 0.024827706 0.029012032 0.014832538 -0.034247532
-0.052286953 -0.047728103 -0.04184738 0.044162437 0.0038792905 -0.031062592 0.016743215 0.0036470357
-0.019023184 -0.048926853 0.017758753 0.009154499 -0.022914961 -0.031420898 -0.0122084515 0.04640863
-0.045174845 -0.014222817 -0.0021377378 0.06640132 0.020737486 0.051128503 0.0069936183 0.008053742
0.040686503 -0.008026131 0.04266057 0.045819104 0.01634734 0.03044017 -0.046483207 0.046144653
-0.029234353 0.023249501 0.018399553 0.008539651 0.0071130493 -0.06320322 0.043527134 -0.006549571
0.03738642 -0.002961776 -0.028779848 0.024404617 -0.010530929 -0.042688135 -0.008094604 -0.063771166
-0.040582035 -0.05431844 -0.0021700927 -0.036674105 -0.012093444 -0.043027658 -0.045231372 -0.009125722
0.008459042 0.040834058 -0.023485504 0.054493852 -0.034538485 0.016719675 -0.04856736 0.053807214
-0.01824459 0.036007546 0.007120456 -0.019447384 -0.0027646564 -0.018928021 0.03202577 0.0441494
0.054673124 0.0009721978 -0.008953777 -0.015292408 -0.0006990662 0.024157187 0.00018239157 -0.029611174
0.009686588 -0.000113777816 -0.035099935 -0.013575394 -0.0032176995 -0.060621113 0.0011591109 0.009487476
-0.012506336 -0.009423066 0.0040130904 0.016497599 -0.022456711 -0.0034793466 0.024010774 -0.016548336
0.0033619131 -0.054626457 -0.041860353 0.014947875 -0.0008145643 0.07266908 0.0016570083 -0.02828436
0.060251355 -0.030899325 0.04949547 0.0029934365 0.022647168 -0.042768553 0.059328087 0.005966325
00000000: 8474 5ebc 2ace aebc cd60 21bd 92f9 683d
00000010: 21f8 393c b8a6 e83b f22e 05bd bfec c93c
00000020: 777f 3cbd bfe5 1cbc 0618 68b9 b045 243d
00000030: 552b b1ba da54 863c e4b9 363d 0294 913c
00000040: c09c 3b3d f159 38bc 04a3 063d b7db cabb
00000050: 90d9 e6bb 610f 483c 6cd0 823d b0b2 cc3b
00000060: a8c6 37bc 04b4 bbbc e5e0 d4bc 5a8d 253d
00000070: 2a8f 283b 2ea5 94bb 7269 973c 5301 503c
00000080: f1b4 0f3a 04ee 663d 498c 2c3d 8452 a03c
00000090: 40e0 c1bc 0125 99bc 13df 523d c088 a33c
000000a0: 2985 3abd 2564 4e3b bc3c a23c 301a af3c
000000b0: c7b5 603d d530 f2ba ed56 41bc 8893 163d
000000c0: 1fa2 f4bb 13b0 283c 0b6b 15bd e14e a8bc
000000d0: 633c 24bd 5fb5 3f3b 528f 23bd 9f50 233d
000000e0: 75a7 a5bc 42b2 18bd 4f6c 233b 869b fabc
000000f0: 29f6 fbbc 9199 303d 30a8 7f3c 2950 833c
00000100: 814d d93c a689 aabc 0dd0 a03b 6d14 623d
00000110: 7f5c fcbc 007e ba3c d830 513d b190 bebb
00000120: 2ab7 403d 5a2f 9cbc 466c a0bc 8888 563c
00000130: d2c4 b9bb d42f 6ebc 00ef 71bc 82f3 4d3c
00000140: c4f6 dfbc 3215 2abd ddc5 21bd 1c09 813d
00000150: 8262 953b fcae f33c 910f 40bd 065c 36bb
00000160: 0af4 10bd 9e90 c13b 053e 293d 6a28 0f3d
00000170: 9022 9fbc ab76 dbbc e04a 37bd 0e98 eebc
00000180: d210 a13c baf1 ebbc 4820 093d d280 debc
00000190: c9c9 243d c9b4 a8bc ed91 68bc 5381 e63c
000001a0: 7a1c f03c b2f8 073d ed4a 093d 1690 67bd
000001b0: 36a9 093d 7a96 ebbc f011 463d 5e9f 493d
000001c0: d253 e3b9 a3b6 ab3c 7092 213c e41a e33c
000001d0: 7a96 293d 2df9 8c3c 69d3 c2bc 1620 a73b
000001e0: 11c9 fd3b 7161 2bbd 17d3 8a3c 339a 14bd
000001f0: 12fd 0e3d d616 5c3d 1ac7 993b 48d0 173d
00000200: b205 2dbb ee4b 0a3d a443 b93c ffa0 59bd
00000210: 25b3 56bd 3602 6abc b330 c93c a0ab ccbb
00000220: 43b4 f3bb 05ae 1e3d c7de 4d3d 35f2 0d3d
00000230: 7963 cb3c a4aa ed3c 2c04 733c 2447 0cbd
00000240: d82a 56bd 8b7e 43bd 2968 2bbd ace3 343d
00000250: b23b 7e3b fa76 febc 1129 893c 1b03 6f3b
00000260: 82d6 9bbc 8667 48bd ce7a 913c c0fc 153c
00000270: 28b8 bbbc 33b3 00bd f505 48bc fa16 3e3d
00000280: 4209 39bd d106 69bc 4a19 0cbb 6afd 873d
00000290: a9e1 a93c 1f6c 513d b92a e53b d8f3 033c
000002a0: e4a6 263d 0980 03bc dabc 2e3d d0ac 3b3d
000002b0: dbea 853c aa5d f93c 2d65 3ebd 2d02 3d3d
000002c0: e27c efbc bd75 be3c a9ba 963c e4e9 0b3c
000002d0: 9514 e93b b170 81bd 8249 323d c99d d6bb
000002e0: 8122 193d 5b1a 42bb b7c3 ebbc 31ec c73c
000002f0: eb89 2cbc c1d9 2ebd 3b9f 04bc 759a 82bd
00000300: 5939 26bd 037d 5ebd 1d38 0ebb 9637 16bd
00000310: 9523 46bc c53d 30bd 8844 39bd 0d84 15bc
00000320: cb97 0a3c 9d41 273d ac64 c0bc f234 5f3d
00000330: 3a78 0dbd b3f7 883c 91ee 46bd f464 5c3d
00000340: ae75 95bc a67c 133d b752 e93b 1f50 9fbc
00000350: 3d2f 35bb f00e 9bbc 742d 033d 00d6 343d
00000360: edf0 5f3d 17db 7e3a ddb2 12bc 028d 7abc
00000370: 8a41 37ba 4be5 c53c 5d40 3f39 2293 f2bc
00000380: 7fb4 1e3c 009c eeb8 f3c4 0fbd 546b 5ebc
00000390: 0ae0 52bb d84d 78bd 4fed 973a 5c71 1b3c
000003a0: 60e7 4cbc 3463 1abc 3e80 833b f925 873c
000003b0: 23f7 b7bc c005 64bb 3eb2 c43c 6090 87bc
000003c0: 8b53 5c3b febf 5fbd c375 2bbd efe7 743c
000003d0: 7c88 55ba 87d3 943d f92f d93a 9ab4 e7bc
000003e0: 20ca 763d 9520 fdbc c3bb 4a3d 882d 443b
000003f0: 8e86 b93c 142e 2fbd 0202 733d 2981 c33b

FeatureExtractor.layers.5.conv.weight f4 [16, 12, 3, 3, 3]
-0.0047205924 -0.0022011986 -0.013343429 0.046849348 -0.043989893 0.026559195 0.026715182 0.043882504
-0.008406267 -0.021870822 0.055588737 -0.036362443 0.0014995098 -0.034436624 0.044181604 0.044332795
-0.032415085 -0.0027017817 -0.0030037155 -0.05377685 0.047030285 0.017160514 -0.008722171 0.046160355
0.02652071 0.015877435 0.016582029 -0.019127198 -0.045580015 0.021439716 -0.003097568 0.026792435
-0.038960133 0.008109188 0.03704914 0.011031911 -0.039041784 0.013293064 0.054655965 -0.018231653
-0.00962773 0.028204188 0.039415546 0.017188726 0.013302681 0.0429162 0.052890874 -0.04831662
0.03494568 0.043186452 0.028579256 0.025782604 0.01771483 0.040416557 0.009660705 0.05406169
-0.003207531 0.036073275 0.04729989 0.006170884 0.043262877 0.044287488 0.028687613 -0.023838209
-0.03955766 0.019714726 0.03375888 -0.05520612 -0.0017673871 -0.004901072 -0.006594154 0.031164797
0.0438786 -0.01823831 0.020914631 0.042462617 -0.0074031707 0.031418324 0.0451131 -0.0048370194
-0.054508694 -0.044042952 0.050934315 -0.033015016 0.055360183 0.014472442 -0.038323797 0.056309287
0.039331023 -0.016505023 -0.008238283 -0.025948223 -0.02913515 0.016741069 -0.0014033593 -0.036453117
-0.010677284 0.019899623 0.013423063 0.013042998 -0.034460228 -0.022805223 0.019494066 0.037757643
0.015313867 -0.04157013 0.019596793 -0.035689708 -0.050746616 0.037174087 0.031988464 -0.0070053698
0.037584424 -0.020681916 0.017734326 -0.060172435 -0.028658723 -0.013368773 0.007908235 0.025955698
0.010640641 -0.028222853 0.04165157 0.032064322 -0.034645222 0.00018073969 0.0490733 -0.01735243
-0.051692646 0.046466604 0.025459036 0.032360148 0.009531349 -0.00951097 -0.012035349 0.025468584
-0.010183471 -0.02350738 -0.0030444197 0.019791394 -0.054612182 0.0033684676 0.027745161 -0.032277152
0.032828502 0.013489185 0.029581022 0.020256443 0.0043873265 0.02642445 -0.044873644 0.043552548
-0.0057588844 4.6054647e-05 -0.024824647 -0.03912075 -0.03849908 0.028876116 -0.020920137 0.044502154
-0.012802349 -0.056754313 -0.029530788 -0.0041103386 -0.02928378 -0.025441427 0.035890568 0.02862767
0.009213106 -0.036772188 -0.04013551 -0.0026836 -0.053490303 0.013793343 -0.0018094771 0.014477577
-0.003877204 0.038931742 -0.028229931 -0.0457993 -0.014439651 0.023672542 -0.04316272 0.011467041
0.046860117 0.03883508 0.025431918 -0.012869753 0.013942767 -0.0019422376 0.039516132 0.027039347
0.014060258 0.009443864 0.013632505 0.013727333 -0.010261043 -0.035422243 0.021236584 0.0075756907
0.038843807 0.034160834 -0.041486252 -0.0070203547 -0.04325609 0.049422894 0.0076810224 -0.031309854
0.05600762 0.04340365 -0.002794863 0.033517957 0.007634775 -0.0030473876 0.02516882 -0.005013164
-0.022212643 0.014376401 -0.018199136 0.031319354 0.0463546 -0.027667511 0.009927369 0.0034807855
0.02135028 0.003003693 0.0022704047 0.014302966 -0.04327192 0.007673581 -0.05240835 -0.0075712786
0.030955546 -0.027324747 -0.005997919 0.04885351 0.024527268 0.005329322 0.0056023444 -0.02094802
0.011353938 0.04705295 0.021822477 0.053445708 0.033972926 -0.011426282 -0.010614342 0.026755026
0.0039433925 0.01191913 -0.0506588 0.009772627 0.007102569 -0.050237365 0.007999981 0.016237853
00000000: 33af 9abb fc41 10bb 669e 5abc 1ae5 3f3d
00000010: bf2e 34bd ab92 d93c ccd9 da3c 24be 333d
00000020: 70ba 09bc 702a b3bc 04b1 633d c9f0 14bd
00000030: 338b c43a 6b0d 0dbd c5f7 343d 4e96 353d
00000040: aec5 04bd 6010 31bb fcd9 44bb 1d45 5cbd
00000050: d4a2 403d 3594 8c3c 70e7 0ebc a412 3d3d
00000060: f641 d93c 6511 823c 09d7 873c a4b0 9cbc
00000070: 1cb2 3abd 58a2 af3c 9100 4bbb cf7b db3c
00000080: a994 1fbd 66dc 043c d7c0 173d 30bf 343c
00000090: 47ea 1fbd 27cb 593c efde 5f3d 8c5a 95bc
000000a0: a0bd 1dbc 780c e73c 3272 213d 5fcf 8c3c
000000b0: 7df3 593c e6c8 2f3d 1aa4 583d a6e7 45bd
000000c0: 3423 0f3d 47e4 303d 0b1f ea3c 0a36 d33c
000000d0: b11e 913c d58b 253d ef47 1e3c ca6f 5d3d
000000e0: 7135 52bb 92c1 133d 88bd 413d 2035 ca3b
000000f0: 6a34 313d cc66 353d 4902 eb3c 5948 c3bc
00000100: 3707 22bd c780 a13c c046 0a3d d01f 62bd
00000110: aca7 e7ba 2c99 a0bb c613 d8bb 514d ff3c
00000120: 0cba 333d 8268 95bc 2955 ab3c 48ed 2d3d
00000130: 4c96 f2bb 80b0 003d 84c8 383d dc7f 9ebb
00000140: 8244 5fbd 6266 34bd 80a0 503d c13a 07bd
00000150: 5cc1 623d d21d 6d3c 6af9 1cbd 91a4 663d
00000160: 9119 213d 8b35 87bc ddf9 06bc 5e91 d4bc
00000170: d7ac eebc 9124 893c edf0 b7ba dd4f 15bd
00000180: c6ef 2ebc 8904 a33c 68ec 5b3c 4cb2 553c
00000190: 2b26 0dbd 05d2 babc 05b2 9f3c c2a7 1a3d
000001a0: 03e7 7a3c 7145 2abd 7489 a03c 5f2f 12bd
000001b0: afdb 4fbd db43 183d 5606 033d 4d8d e5bb
000001c0: 20f2 193d 1f6d a9bc 9447 913c 5f77 76bd
000001d0: b3c5 eabc b308 5bbc 8b91 013c 0ba1 d43c
000001e0: 1556 2e3c 9d33 e7bc d69a 2a3d e155 033d
000001f0: 26e8 0dbd f184 3d39 1601 493d af26 8ebc
00000200: abbb 53bd c453 3e3d 788f d03c 138c 043d
00000210: 6029 1c3c e6d3 1bbc ea2f 45bc 7ea3 d03c
00000220: 93d8 26bc 8d92 c0bc e384 47bb 9021 a23c
00000230: 06b1 5fbd 82c1 5c3b d249 e33c 0c35 04bd
00000240: 2e77 063d be01 5d3c e653 f23c d7f0 a53c
00000250: 90c3 8f3b 1778 d83c 6dcd 37bd 2864 323d
00000260: 06b5 bcbb cd2a 4138 0f5d cbbc 143d 20bd
00000270: 36b1 1dbd 9b8d ec3c b560 abbc e447 363d
00000280: f2c0 51bc 3677 68bd 8dea f1bc 05b0 86bb
00000290: 8ae4 efbc 8a6a d0bc fd01 133d 9384 ea3c
000002a0: 91f2 163c 6f9e 16bd 2265 24bd 56df 2fbb
000002b0: a618 5bbd 79fd 613c fa2b edba 5c33 6d3c
000002c0: b018 7ebb e476 1f3d 7542 e7bc 0c98 3bbd
000002d0: 4994 6cbc ebec c13c 64cb 30bd 42e0 3b3c
000002e0: 65f0 3f3d 8811 1f3d 9956 d03c a8db 52bc
000002f0: 3470 643c ae92 feba abdb 213d 9f81 dd3c
00000300: ff5c 663c 70ba 1a3c df5a 5f3c 9ce8 603c
00000310: ef1d 28bc ea16 11bd 58f8 ad3c 803d f83b
00000320: af1a 1f3d 3bec 0b3d 7ded 29bd 010b e6bb
00000330: 4c2d 31bd a96f 4a3d 16b1 fb3b c33e 00bd
00000340: 3f68 653d 07c8 313d 052a 37bb 204a 093d
00000350: 222d fa3b aeb6 47bb d72e ce3c 7845 a4bb
00000360: 4af7 b5bc ff8a 6b3c 5b16 95bc b948 003d
00000370: 52de 3d3d faa6 e2bc 67a6 223c e41d 643b
00000380: c8e6 ae3c 9bd9 443b 12cb 143b fd56 6a3c
00000390: e63d 31bd aa72 fb3b 23aa 56bd 7d18 f8bb
000003a0: 7c96 fd3c 26d8 dfbc 318a c4bb 9e1a 483d
000003b0: 69ed c83c 98a1 ae3b df93 b73b 2f9b abbc
000003c0: de05 3a3c 98ba 403d 0dc5 b23c e3e9 5a3d
000003d0: 3227 0b3d 4d35 3bbc c7e7 2dbc 5b2d db3c
000003e0: 9337 813b 7448 433c 9a7f 4fbd 5e1d 203c
000003f0: abbc e83b b2c5 4dbd 5a12 033c 3f05 853c

FeatureExtractor.layers.6.conv.weight f4 [16, 16, 3, 3, 3]
0.006256775 0.026992705 0.00037520035 -0.04106376 0.037879687 -0.00329471 -0.018934939 -0.04123341
0.0083753895 0.022336418 -0.038835578 -0.034409184 0.027273266 0.017651178 -0.005317774 -0.006213444
-0.019152174 0.015191478 0.011646651 0.016994506 0.014243823 0.010806725 0.015026572 -0.016907735
0.04419861 0.018448066 -0.014036938 0.0011960005 -0.045457233 -0.016967423 -0.01662901 0.014573141
0.044386998 -0.016220164 0.038011417 0.012690417 -0.023985596 -0.021446466 -0.0027452363 0.0041158823
-0.016836477 0.024446703 0.04918429 0.013793399 0.036047168 0.009482383 -0.0123208035 0.040656347
0.047335476 -0.029045118 -0.019094842 0.040501233 0.019307567 0.048140984 0.030083034 0.042654894
-0.0029023383 0.0023453028 -0.035233196 0.0072886935 0.025368273 -0.012739188 0.00385282 -0.025623197
0.037054963 -0.04519529 -0.0027993892 0.04050314 -0.01227298 -0.025086997 -0.01007545 -0.022741552
-0.018904772 0.040510267 0.02083358 0.026739545 -0.040528525 0.02052201 -0.019922564 -0.028092217
-0.018966768 0.040141925 -0.03284629 -0.021536166 -0.039702658 0.030716784 0.039607625 0.0076477914
0.036472104 0.004020513 -0.005852527 0.043564513 0.039778847 0.041021854 0.039793625 0.03800494
0.022605117 -0.021475658 -0.026221551 0.0015046721 -0.015316693 -0.028597804 0.023139164 0.047831867
-0.044141036 -0.03480252 0.024107093 -0.04426365 -0.044039406 0.013724601 -0.042500593 0.018248806
-0.03645967 0.006505846 -0.04698652 0.045768086 0.0020704072 0.049407683 -0.00048640597 0.020317419
0.022819722 -0.02726969 -0.0138687305 -0.0005043078 0.040629547 0.0063057304 0.051230613 0.042859398
0.027456935 -0.047287248 -0.013776456 -0.043361217 -0.048287492 -0.0003861528 0.05059719 0.029582731
0.011527509 -0.028562816 -0.03372775 -0.018150259 0.023748683 -0.0012830142 -0.033967536 0.021256646
-0.04459774 0.008468022 -0.012067626 0.04766718 -0.041485798 0.047615517 -0.0072099357 -0.032795254
-0.010957248 -0.010751034 -0.0017640315 0.017759634 0.039513774 0.009918083 0.03688301 -0.0412726
-0.02560318 -0.039180707 0.010940112 0.041958574 -0.042663753 -0.012908879 -0.009509737 -0.03270787
-0.035407834 0.026613124 -0.013383443 -0.025173413 -0.0068948334 -0.037079103 0.04398459 0.0064602336
-0.013641194 0.017159242 0.030545335 -0.0022845254 0.021309467 -0.04706297 0.038869668 0.03309565
-0.020234605 0.016836895 0.01606113 -0.0068767862 0.04788232 0.014941497 -0.03717281 0.007609244
-0.020562742 -0.05178369 0.02998525 0.005713561 -0.043296445 0.014851565 -0.023543404 0.03277808
-0.0048723295 -0.007608946 -0.036691464 -0.025299523 0.03721354 0.023754338 -0.023844993 0.004187122
-0.0133262 -0.03950178 0.014757764 -0.02178799 0.030305194 -0.0037286559 0.012673728 -0.0129841715
0.0020697424 0.036049362 -0.04300866 0.041993562 0.015263549 -0.0372846 -0.04507494 0.0029637648
-0.024451682 0.048345033 -0.022506868 0.034583148 0.026241757 -0.031189337 -0.01454184 0.032302413
-0.028904453 -0.029806761 -0.027993929 -0.0083495835 0.022957461 -0.0020970986 0.00981755 0.015628412
0.0013255887 0.030062094 0.03639553 -0.02136424 0.026819043 -0.0059416187 -0.0009478164 -0.038779907
0.040769782 0.026804784 0.0227748 -0.02681992 0.009465435 0.03689991 0.007373681 -0.042666353
00000000: a205 cd3b ce1f dd3c 8ab6 c439 7932 28bd
00000010: bb27 1b3d 10ec 57bb 721d 9bbc 5de4 28bd
00000020: ee38 093c ddfa b63c 0e12 1fbd a5f0 0cbd
00000030: 2f6c df3c 3499 903c b940 aebb 259a cbbb
00000040: 05e5 9cbc ade5 783c 98d1 3e3c 1038 8b3c
00000050: ec5e 693c b10e 313c 0332 763c 1782 8abc
00000060: 9a09 353d 6620 973c 2ffb 65bc 1ec3 9c3a
00000070: 5d31 3abd 44ff 8abc 9039 88bc 2fc4 6e3c
00000080: 24cf 353d 26e0 84bc dcb1 1b3d 77eb 4f3c
00000090: 717d c4bc 80b0 afbc 6ce9 33bb 86de 863b
000000a0: a7ec 89bc 7444 c83c 7775 493d b5fd 613c
000000b0: 32a6 133d ff5b 1b3c 32dd 49bc 4587 263d
000000c0: d8e2 413d 07f0 edbc c96c 9cbc 9fe4 253d
000000d0: e72a 9e3c 7b2f 453d b270 f63c e6b6 2e3d
000000e0: 2835 3ebb a7b3 193b af50 10bd fed5 ee3b
000000f0: 20d1 cf3c 07b8 50bc 987f 7c3b bde7 d1bc
00000100: f2c6 173d b21e 39bd f575 37bb 9fe6 253d
00000110: 9c14 49bc 3f83 cdbc 8013 25bc 7e4c babc
00000120: 2ede 9abc 18ee 253d 2fab aa3c e40c db3c
00000130: 3d01 26bd c61d a83c a534 a3bc a621 e6bc
00000140: 3260 9bbc dc6b 243d d589 06bd 9d6c b0bc
00000150: 419f 22bd c4a1 fb3c 9b3b 223d 539a fa3b
00000160: c663 153d 82be 833b 8ec6 bfbb b470 323d
00000170: 25ef 223d 8806 283d a4fe 223d 11ab 1b3d
00000180: 5e2e b93c b8ed afbc 94ce d6bc 6b38 c53a
00000190: def2 7abc f145 eabc 588e bd3c 59eb 433d
000001a0: 3bcd 34bd 168d 0ebd 3d7c c53c cd4d 35bd
000001b0: aa62 34bd 26dd 603c 1a15 2ebd 857e 953c
000001c0: bc56 15bd fe2e d53b f074 40bd 5177 3b3d
000001d0: abaf 073b b65f 4a3d 4e04 ffb9 b770 a63c
000001e0: 6df0 ba3c af64 dfbc ac39 63bc 8633 04ba
000001f0: 2b6b 263d 4da0 ce3b 31d7 513d 568d 2f3d
00000200: 5eed e03c 46b0 41bd a5b6 61bc 889b 31bd
00000210: 1bc9 45bd 8d74 cab9 003f 4f3d 7c57 f23c
00000220: e1dd 3c3c 91fc e9bc 1c26 0abd daaf 94bc
00000230: 998c c23c d02a a8ba 8b21 0bbd 6b22 ae3c
00000240: 1fac 36bd 75bd 0a3c 4bb7 45bc a93e 433d
00000250: 03ed 29bd 7d08 433d 5341 ecbb 5154 06bd
00000260: 0786 33bc 1b25 30bc 1337 e7ba a77c 913c
00000270: 32d9 213d 757f 223c a412 173d 750d 29bd
00000280: c3bd d1bc f37b 20bd 283e 333c c1dc 2b3d
00000290: 30c0 2ebd c37f 53bc bace 1bbc b0f8 05bd
000002a0: ce07 11bd c403 da3c 3a46 5bbc 7938 cebc
000002b0: 0eee e1bb 42e0 17bd 2f29 343d 5eb0 d33b
000002c0: 517f 5fbc 8a91 8c3c 363a fa3c fab7 15bb
000002d0: 3191 ae3c 1ac5 40bd cd35 1f3d 4e8f 073d
000002e0: 0bc3 a5bc 87ed 893c a292 833c aa56 e1bb
000002f0: 4020 443d 2ecd 743c 8442 18bd f756 f93b
00000300: 3273 a8bc 221b 54bd a1a3 f53c d338 bb3b
00000310: 9d57 31bd fa53 733c 19de c0bc 4f42 063d
00000320: 10a8 9fbb 7754 f9bb ca49 16bd f240 cfbc
00000330: 3a6d 183d 7598 c23c 9356 c3bc 2034 893b
00000340: 2256 5abc 9ecc 21bd 8cca 713c ba7c b2bc
00000350: 9942 f83c 775c 74bb 78a5 4f3c 90bb 54bc
00000360: 84a4 073b 7fa8 133d d929 30bd 7101 2c3d
00000370: f713 7a3c bdb7 18bd 80a0 38bd b93b 423b
00000380: e54e c8bc 7105 463d 5360 b8bc 0fa7 0d3d
00000390: f4f8 d63c c880 ffbc e640 6ebc 894f 043d
000003a0: 08c9 ecbc 4f2d f4bc 8653 e5bc b1cc 08bc
000003b0: 4911 bc3c 7a6f 09bb cad9 203c 2807 803c
000003c0: 60bf ad3a c844 f63c 7b13 153d 0f04 afbc
000003d0: 9cb3 db3c e9b1 c2bb e276 78ba aed7 1ebd
000003e0: 37fe 263d b595 db3c 3892 ba3c 73b5 dbbc
000003f0: e914 1b3c 5c24 173d eb9e f13b eac2 2ebd

NetworkHead.conv1.0.conv.weight f4 [16, 16, 3, 3, 3]
0.0419481 0.013656393 -0.036638487 0.019234717 -0.023906104 0.04540966 -0.0062041124 -0.03125105
-0.013235093 0.045556817 0.009065918 0.014088409 0.041445572 -0.012505298 0.03755151 0.031631026
0.006770054 0.048155416 0.0043526166 -0.026118124 -0.040120013 -0.022661874 -0.019207211 0.02747277
0.029003536 0.00017531136 0.011518821 0.034432642 -0.0077645443 0.021437436 0.015308161 0.04082675
0.043200985 -0.033031404 -0.023165964 -0.025921432 -0.019655816 -0.035025276 -0.038604006 0.033548906
0.021168938 0.035836756 -0.005203346 0.025905212 -0.04605945 0.014045229 -0.0031410863 0.0154751325
-0.010737835 0.022899246 -0.009488538 -0.013374502 0.0008472627 -0.004085312 -0.02942893 0.043995786
0.028304474 0.031966742 -0.022743303 0.031078005 -0.030048411 0.039912097 0.00022510624 -0.008235675
-0.02193573 -0.00064421823 0.005574719 0.0011438415 0.028473206 -0.03272819 -0.027502181 -0.015556576
-0.037631545 -0.023670254 0.03402346 0.0160428 -0.031975124 -0.0409014 0.03907107 -0.043470133
0.03989081 0.029696854 -0.03892045 0.012894884 -0.018160673 -0.014739743 0.0063867904 -0.041946042
-0.03740164 0.012424877 -0.007442061 -0.032975715 0.0028254618 0.0028470324 0.022337873 0.03140959
-0.032739867 -0.013440635 0.04683283 -0.036327854 0.05331353 -0.0346686 0.033510707 0.011613919
-0.014272464 -0.008661689 0.022161204 -0.0005493971 0.02439453 0.050584532 -0.032782048 -0.007262888
-0.031219093 -0.021633498 0.015929766 -0.0024168745 0.005803838 -0.015489208 -0.0017820096 0.023933008
0.009506695 0.02385895 -0.024960758 0.013094992 -0.025316212 0.013031757 -0.015205292 -0.018257715
-0.008630228 0.019253204 0.048787877 -0.02418893 -0.04671275 -0.02064381 0.015708629 0.033054903
0.030043513 -0.008497596 0.006896901 0.041933957 -0.026917964 0.014661827 -0.024028456 -0.008105757
-0.0035677436 0.0019841483 0.026726967 -0.02073969 -0.008925756 -0.01587721 -0.008230567 0.03761397
0.04901942 0.008165794 -0.021662803 0.017248355 -0.030628135 -0.030973103 0.028986216 -0.011535931
-0.04674267 -0.02927184 -0.025176795 0.050532836 0.012675513 -0.019391939 0.0121095935 0.022087775
0.0042939507 0.0038057663 -0.014355477 0.039500266 0.040543374 -0.02777273 0.01321715 0.034032106
-0.041660935 -0.028090607 -0.0420298 0.027206203 0.042774245 -0.012657356 -0.033936586 0.021244807
-0.0056442986 0.0021383385 -0.03158128 -0.02669821 0.025607716 0.018571328 -0.01108089 -0.0027412272
0.012208194 -0.011141916 0.037143476 0.030333191 -0.035314664 0.024715535 0.025581436 -0.0403476
-0.0048090415 0.011154816 -0.0040681288 0.0057150107 0.016796572 -0.03655297 -0.030930443 0.024688818
0.029774694 -0.030367604 0.040853433 -0.003614454 0.0396912 -0.0086566815 0.02425968 0.045678344
0.028266478 -0.045053758 -0.013754312 -0.037059862 0.011426888 0.0029813682 0.024259226 -0.019429743
-0.007635551 0.039610714 0.018112045 -0.01115327 -0.011366863 -0.020516658 0.040607706 -0.0073233065
-0.0011871561 -0.04219837 0.032900345 -0.020746162 0.02292983 -0.049257312 -0.03014612 0.0042467252
-0.043714557 0.04257398 0.025096882 0.040227596 0.008626905 -0.041553125 0.0026462732 -0.032297026
0.031316098 -0.037609454 -0.006064525 -0.032012247 -0.030328007 0.008822184 -0.027307916 0.03769376
00000000: c5d1 2b3d 10bf 5f3c 3d12 16bd 2092 9d3c
00000010: bcd6 c3bc 7bff 393d de4b cbbb 1a01 00bd
00000020: 01d8 58bc c999 3a3d 3789 143c 12d3 663c
00000030: d5c2 293d 05e3 4cbc 9dcf 193d 898f 013d
00000040: 54d7 dd3b 9d3e 453d 65a0 8e3b adf5 d5bc
00000050: e254 24bd 65a5 b9bc 7158 9dbc 930e e13c
00000060: d398 ed3c c9d3 3739 70b9 3c3c 3e09 0d3d
00000070: b86d febb 909d af3c 15cf 7a3c f339 273d
00000080: 84f3 303d f04b 07bd 8cc6 bdbc 2f59 d4bc
00000090: 3c05 a1bc aa76 0fbd 3c1f 1ebd 946a 093d
000000a0: 7b6a ad3c 90c9 123d d480 aabb 2b37 d43c
000000b0: d5a8 3cbd f61d 663c afda 4dbb 698b 7d3c
000000c0: bfed 2fbc 3397 bb3c d075 1bbc ba20 5bbc
000000d0: d61a 5e3a 15de 85bb f014 f1bc ed34 343d
000000e0: c9de e73c 8fef 023d 2a50 babc 4d97 fe3c
000000f0: 1628 f6bc de7a 233d 7f0a 6c39 edee 06bc
00000100: 8fb2 b3bc c1e0 28ba 22ac b63b f4ec 953a
00000110: a440 e93c ff0d 06bd 414c e1bc 02e1 7ebc
00000120: 8923 1abd 1fe8 c1bc 2f5c 0b3d 316c 833c
00000130: 59f8 02bd 3a88 27bd fc08 203d bd0d 32bd
00000140: 8c64 233d d146 f33c 0d6b 1fbd 1045 533c
00000150: b1c5 94bc f77e 71bc 4848 d13b 9dcf 2bbd
00000160: 7632 19bd b691 4b3c 88dc f3bb 8b11 07bd
00000170: 622b 393b 4795 3a3b eafd b63c 58a7 003d
00000180: 3d1a 06bd 1c36 5cbc c8d3 3f3d 84cc 14bd
00000190: 4a5f 5a3d a900 0ebd 8642 093d 4f48 3e3c
000001a0: 0ed7 69bc c2e9 0dbc 6a8b b53c 6a05 10ba
000001b0: 0ad7 c73c ba31 4f3d 7846 06bd 85fd edbb
000001c0: 2fbf ffbc bc38 b1bc 247f 823c 6d64 1ebb
000001d0: 1f2e be3b 72c6 7dbc 5292 e9ba 280f c43c
000001e0: f8c1 1b3c d873 c33c 817a ccbc 618c 563c
000001f0: f263 cfbc 2783 553c 9e1f 79bc 3491 95bc
00000200: cd65 0dbc e5b8 9d3c ccd5 473d dd27 c6bc
00000210: de55 3fbd 351d a9bc 62af 803c 9464 073d
00000220: d01d f63c 8039 0bbc 66ff e13b f1c2 2b3d
00000230: 1083 dcbc 2938 703c 53d7 c4bc 02ce 04bc
00000240: ced0 69bb 7c08 023b 83f2 da3c 48e6 a9bc
00000250: 563d 12bc ec10 82bc 80d9 06bc 1b11 1a3d
00000260: 96c8 483d d3c9 053c 3176 b1bc 6c4c 8d3c
00000270: dbe7 fabc 4ebb fdbc 8074 ed3c 3401 3dbc
00000280: 3e75 3fbd 7fcb efbc 913f cebc 85fb 4e3d
00000290: f4ac 4f3c d8db 9ebc 5167 463c 6cf1 b43c
000002a0: 45b4 8c3b 2a6a 793b 3c33 6bbc 08cb 213d
000002b0: cf10 263d a383 e3bc bf8c 583c 4065 0b3d
000002c0: a8a4 2abd 461e e6bc 7127 2cbd 8bdf de3c
000002d0: 0c34 2f3d cd60 4fbc 1701 0bbd 9709 ae3c
000002e0: cff3 b8bb 5e23 0c3b 5f5b 01bd 34b6 dabc
000002f0: 46c7 d13c e622 983c 9f8c 35bc 29a6 33bb
00000300: e004 483c 958c 36bc c223 183d 507d f83c
00000310: 1ca6 10bd 3c78 ca3c 2990 d13c 8643 25bd
00000320: 2a95 9dbb b0c2 363c f04d 85bb fc44 bb3b
00000330: f798 893c 91b8 15bd d761 fdbc 3440 ca3c
00000340: 0fea f33c 7bc5 f8bc ee55 273d 7ae0 6cbb
00000350: 3d93 223d c1d4 0dbc 3dbc c63c 3719 3b3d
00000360: 1a8f e73c 4a8a 38bd c459 61bc 15cc 17bd
00000370: d837 3b3c 0f63 433b 49bb c63c 202b 9fbc
00000380: a533 fabb d83e 223d b65f 943c 34bc 36bc
00000390: 143c 3abc 8d12 a8bc 4454 263d 59f8 efbb
000003a0: 599a 9bba 33d8 2cbd 83c2 063d dbf3 a9bc
000003b0: 57d7 bb3c 09c2 49bd fff4 f6bc 1d28 8b3b
000003c0: 090e 33bd 0e62 2e3d fa97 cd3c b1c5 243d
000003d0: dd57 0d3c 9c33 2abd 196d 2d3b e349 04bd
000003e0: 4f45 003d 5f0c 1abd ecb8 c6bb 461f 03bd
000003f0: 7172 f8bc ec8a 103c dab4 dfbc c664 1a3d
