model/UBFC-rPPG_FactorizePhys_FSAM_Res_T-KAB.pth (torch, 220257 bytes, 16 tensors)

module.rppg_feature_extractor.FeatureExtractor.0.conv_block_3d.0.weight f4 [8, 3, 3, 3, 3]
00000000: 704f 8fbd ac3d a23d 8724 0dbd c1b2 6d3c
00000010: baae 2e3d e6fd 8b3d 5092 d0bc 4f06 a8bd
00000020: 001a 4abd c77e 95bd 70ec 9abd 0f83 753d
00000030: 1e69 7f3d a93e 743d ebd1 c4bc ad51 ca3d
00000040: bff4 e43d 4325 6b3d 15f2 8abd fcc1 26bd
00000050: 0f02 80bd 3992 903d dc07 053c 8695 d93d
00000060: 1fe5 61bc 4d03 bb3d ae83 693d acad 9abc
00000070: eb42 91bd b692 003d 7c4b a9bc df66 b0bd
00000080: d6be 2c3d 1a55 b2bc 0539 fbbd 1584 94bd
00000090: 7520 b43d 706b 123d 0094 b4bd 87a6 993d
000000a0: 3925 c6bc bf40 fbbd 71cf cd3c 96d2 3dbd
000000b0: 9c88 7cbd 543d 1ebc c01d ebbd 6545 9bbb
000000c0: c4b1 983d 8fc4 1a3c b38c e8bc 32fd 263d
000000d0: 7469 c6bc 4d0a 3fbd 14b9 0a3d 9c0c 843c
000000e0: 6098 333d 0c0b 9cbc 50a4 bd3d 7269 ad3d
000000f0: 0e30 f3bb e3f7 873d 4dc7 1b3d 5acf c93d
00000100: 4634 d03d 04a3 983d 8053 9f3d 50ff c73c
00000110: 36cc cfbc 3294 0abd 0861 e93d aa0a 6e3d
00000120: 757e 9abd 0f42 1f3d 36ed 9dbc b878 b4bd
00000130: f9b2 f63d 666d 723c be0b 723d 4ebe 003c
00000140: 5ae1 a5bd 346f b33d 9615 48bd d772 f4bd
00000150: 010f c63d c086 3bbd facb 6fbd 6bee b73d
00000160: dd21 633d 1737 8dbd bc6e 293b 75d3 46bd
00000170: 2cd5 b93d 3445 babd 0e7e 7cbd 4c44 12bd
00000180: 07e4 81bd fb3a ca3d a2e9 63bd a376 45bd
00000190: c6a3 253b 941f 15bd b672 d1bc 712c 3ebd
000001a0: 534f fdbd 8dd1 913d e9d1 6cbd 71d0 0f3c
000001b0: 3740 f03d 8002 903d adb5 76bd 80fc 2e3d
000001c0: 91f8 7d3d e5ac a33d b4fa e63d 4ab3 f93d
000001d0: 22cd cb3c 0eb8 eb3d 5ddd 96bb fc48 37bd
000001e0: c801 dabc dcab e93d 4e31 933d ab86 343d
000001f0: 1d48 1ebd e722 31bd 029c 8c3c b7c5 173d
00000200: d29b 88bd 1efe ba3d e5ce fabc fe43 cbbc
00000210: 9cf6 70bd d980 e13c ebb4 21bd 7dc9 d33d
00000220: b4e7 cc3d deab 893c 55de 16bd 8686 be3d
00000230: 83e0 8f3d 05a8 d13d c8fc a6bd 21de 26bc
00000240: 4514 46bc 98bb bebc 4279 2fbc a636 f13a
00000250: ea12 d23d 813a eabd 6c67 d0bd 8221 eebb
00000260: d80a 93bd 6a9a 5fba 56b1 8dbd 82af b3bd
00000270: 75c4 cb3b f7d9 0ebd 26d3 ce3c 567f 653d
00000280: 9f9f 69bd b318 793d f06e 2d3d b0ba 0dbd
00000290: 230d 62bd cd9f f3bc 1998 cd3d f15d 55bd
000002a0: 4ddf 8dbd cbe9 9abd 9c01 bb3d a94b 603d
000002b0: aa7a 95bd ef68 d93d c80d acbd 2edb e8bd
000002c0: 2dc4 adbd 272e 7c3d 0ec8 40bd 7011 47bd
000002d0: d15e 59bc 3020 84bd ec4d d93d 1d15 ee3b
000002e0: 7013 f7bc 7b38 d43d b4dc b9bd 58d7 33bd
000002f0: 49df d13d 6068 bcbd eb56 b03c fa81 98bd
00000300: 93a4 d8bd f51a 84bd 1360 babd f89d 53bd
00000310: 8c5f a4bd 1b80 5fbd 46cb 45bd a73b abbd
00000320: d0f2 a9bd abce 1cbd 978b c5bc cd5b 86bd
00000330: 6433 cebd 82b9 7d3d bced f6bd ec22 a63d
00000340: b150 8e3a 4230 4bbd 9a49 fdbd e915 9dbb
00000350: 8351 ecbd 1787 643d 6c25 a9bc dea9 e5bd
00000360: a1fa ed3d 17f2 843c 4139 583d 5ace f13b
00000370: 9741 b83d 50b7 0abd 5592 82bd 27f5 8d3d
00000380: ac5c 793b e4a0 143d 54a5 bdbd db7f 3d3d
00000390: 1fa9 e3bd 3a5d 7dbc fedd 4bbd b43f b6bd
000003a0: 33c1 373d 05e4 09bd 4767 143d d080 c9bd
000003b0: 376b b93d 5a6a c7bd 5557 6ebd 7c81 81bd
000003c0: 8189 99bd 3c9f f93c c33e 0bbd 4535 123d
000003d0: e8a9 cf3c 70c8 b93d 0cbd 4bbd a749 2bbd
000003e0: c3a0 0bbe 36b0 0abd 229b c93d 50d4 cabd
000003f0: 4880 98bd a4cf ab3d fc9d 793d 2ed6 ae3d
-0.069975734 0.07921919 -0.034458663 0.01450795 0.0426471 0.06835537 -0.025460392 -0.08204328
-0.0493412 -0.072995715 -0.07564628 0.05993944 0.062356107 0.05963007 -0.024025878 0.0987886
0.11179494 0.057408582 -0.06784455 -0.04071234 -0.06250393 0.0705914 0.00811955 0.106242225
-0.013787537 0.09131489 0.057010345 -0.018881641 -0.07092842 0.031389914 -0.020665877 -0.08613371
0.042174183 -0.021769095 -0.12266735 -0.07251755 0.08795253 0.03574699 -0.08817291 0.07502466
-0.024187671 -0.12268209 0.02512333 -0.04634341 -0.06165372 -0.009658176 -0.11480284 -0.004738497
0.07455781 0.009446277 -0.028387403 0.04076881 -0.024220206 -0.046640683 0.03386791 0.016119294
0.043846488 -0.019048236 0.09259856 0.08467378 -0.0074215 0.066390775 0.038031865 0.09854002
0.1016622 0.07452968 0.07779598 0.024413735 -0.02536593 -0.033832736 0.1139546 0.05811564
-0.07543651 0.038881358 -0.01927815 -0.08812088 0.12045855 0.01479659 0.05909323 0.007857872
-0.08099623 0.08761445 -0.04884871 -0.119359665 0.096708305 -0.045782804 -0.058544137 0.089810215
0.055452216 -0.06895273 0.0025853356 -0.048541505 0.090738624 -0.09095231 -0.061643653 -0.035709664
-0.06342321 0.09874531 -0.05564273 -0.048208844 0.0025274619 -0.03640707 -0.025567394 -0.0464291
-0.123686455 0.07120047 -0.057817373 0.008777724 0.11730998 0.07031727 -0.060231853 0.04272127
0.06200463 0.079919614 0.112782866 0.121924 0.024878088 0.11509715 -0.0046040253 -0.044747338
-0.026612177 0.11409733 0.071871385 0.044073742 -0.03864299 -0.043246176 0.017164234 0.03705379
-0.06670345 0.091305 -0.030616233 -0.024812695 -0.058828935 0.02752726 -0.039479177 0.10341165
0.10005131 0.016805585 -0.036833126 0.09303002 0.07025244 0.10237125 -0.08153683 -0.010184796
-0.012089794 -0.023282811 -0.010710062 0.0018403127 0.10257514 -0.1143694 -0.10175976 -0.007267178
-0.07179803 -0.00085297844 -0.0691859 -0.0877371 0.006218488 -0.034875836 0.025247168 0.05602964
-0.057036992 0.06081457 0.042342126 -0.034601867 -0.05518831 -0.029739285 0.10038776 -0.052091543
-0.06927357 -0.07564124 0.09131166 0.054759655 -0.07298787 0.106157176 -0.08401066 -0.1136993
-0.08484683 0.06156745 -0.047065787 -0.048600614 -0.013267235 -0.06451452 0.106105655 0.0072657005
-0.030160636 0.10362335 -0.09075299 -0.04390654 0.102476664 -0.091995955 0.02152582 -0.07446666
-0.10578265 -0.06450454 -0.09100356 -0.051664323 -0.080260366 -0.05456553 -0.04828956 -0.08360987
-0.08298266 -0.03828303 -0.024114413 -0.06560478 -0.10068396 0.061944492 -0.12057063 0.081121296
0.0010857788 -0.04960657 -0.12367554 -0.0047938717 -0.115389846 0.055792894 -0.020647727 -0.1121404
0.11620069 0.016228719 0.052788977 0.0073793354 0.08996885 -0.033866227 -0.06375567 0.06931525
0.0038049622 0.03628625 -0.092600495 0.04626451 -0.11116242 -0.0154641215 -0.049772255 -0.08898869
0.044861984 -0.033664722 0.036231305 -0.09839022 0.09053653 -0.09737082 -0.058188755 -0.06323525
-0.0749693 0.030471437 -0.0339954 0.035695333 0.025349572 0.090714335 -0.049740836 -0.041818287
-0.13635544 -0.033859454 0.09844042 -0.09903777 -0.07446343 0.08389214 0.06094168 0.08536945

module.rppg_feature_extractor.FeatureExtractor.1.conv_block_3d.0.weight f4 [12, 8, 3, 3, 3]
00000000: ba78 56bd 6577 d83c 8103 783d a3a8 2bbd
00000010: 32ac 863c b849 9e3c d8bc 17bc fab5 273d
00000020: aafa 96bd c5fb bebb 6a91 39bd da9a 8dbd
00000030: bc39 723b e547 a7bd e693 843c 9170 193b
00000040: a792 7e3c a0ef 053c 7d81 633d 58b0 a5bc
00000050: cae1 463c 2605 3cbd 7339 7b3d fef7 67bd
00000060: 56e1 1bbd 6103 973d 9a7e b2bc 61b1 3a3d
00000070: bc7f 40bc e178 3c3d bb2d 7bbd 9312 a6bc
00000080: 1025 a03c 2a55 edb9 22ef 2bbd 9c9f 45bd
00000090: e9eb 9dbb e823 1c3d 17a1 1ebd f3c4 28bd
000000a0: 4c1b 823c 81b9 2d3d d9a8 6a3c e52c b73b
000000b0: 5996 293d d8fa 4d3d b6c8 f43a e625 d73c
000000c0: 7c5b d6bc 5ff3 f33b be70 ac39 36a6 ec3c
000000d0: 4b9b 903c d159 36bc f60d 6b3d 7f49 5c3c
000000e0: 4573 57bd 3cff 96bc 990b 15bd 4a28 97bd
000000f0: e7d8 04bc 02a3 01bc 5526 64bc cf60 55bd
00000100: aa8d 32bd e353 efbc 0913 87bd 007a 463d
00000110: f515 493d 9f49 1e3d 3c63 7dbd 0b22 87bd
00000120: bcf9 5fbb 4595 ecbc 079b 24bd 2530 763d
00000130: 62df 383d efa5 83ba 3953 83bc 8b17 5c3d
00000140: 303a bbbc 69c0 69bd 1bf9 c23c 115d 3a3d
00000150: 96dd 8e3d 8493 763d dd2b f93b 93e2 2f3d
00000160: d14b cf3b f09b c83c e040 3c3d 0cd3 31bd
00000170: 7936 313d 9011 fa3c e9b9 093c e725 5bbb
00000180: 6aa0 6bbd cf48 463c 798e 15bd f7a9 173a
00000190: 15ec 783d 392b 58bb d37f 9e3c 992e 633d
000001a0: 5115 44bb 7518 39bd 6f02 303c 8512 463d
000001b0: 5b7d 93bd f157 b03c b481 cf3c 29fd 56bd
000001c0: 3f6b 71bc 2931 54bd 7d38 ed3c 7c0e 153d
000001d0: 6d23 aabd c702 99bc be8b 1c3d aeee bdbb
000001e0: 9f6a 9ebc c88f 5bbd ad73 62bc a3e0 153d
000001f0: 57ca 86bb 513b 02bd 0fdd ccbc cf19 f0bc
00000200: 8219 29bd 8b6c 1bbd 9a51 a03c b7ec 0e3c
00000210: 6fda c5bc 2aa2 653d ef97 cdbc 9a6a 58bc
00000220: 3f15 6abd 0e87 17bd 035b f33c 4aa0 29bb
00000230: 17eb 063a 18cf 4d3d 3a6b 4e3d f12f 50bd
00000240: 8b69 f8bc 7ca6 2d3d 4f1e 7ebd 642c 4cbd
00000250: e323 d9bb c441 03bb 3300 61bc e767 243d
00000260: 03c6 8ebb 3682 73bc 6036 28bd 34f7 01bc
00000270: d0be 113d 9946 c1bc 1b32 9dbd d4f7 8d3c
00000280: 5e16 483a 05b9 f13c 938f 99bc 2c6e 7b3d
00000290: dfac 25bc 3622 733c d8be 833d c1d8 973d
000002a0: 0e54 6639 3c76 9e3d deb1 a3bc 36b4 c3bc
000002b0: 6bb0 953d 7c01 d7bc 9c7f 653d 2ae8 3c3d
000002c0: b485 a73c 5660 37bd 6c0a 69bd bf18 b23b
000002d0: 6790 853d c71e 253d d508 85bc d75d 0abd
000002e0: fb93 f13c 391f 023d f8e2 143d 29c3 03bd
000002f0: 5502 503d a242 c2bb 2ee5 b73c 4b03 753d
00000300: 8f56 9e3c 2e40 3fbd 50c0 8dba d23a 5b3c
00000310: 03dc 30bb 5779 83bb d90b bebc 6fa9 6abd
00000320: 79d3 cabc 4efb 86bb 00f5 703d 7a8b 1f3d
00000330: 46ec 71bc da2f 14bd d9b1 63bc c603 0fbd
00000340: f13d 6ebc 30d8 483c a583 7dbd c8cf 9ebc
00000350: b3d5 753c 0927 c33c 7802 783d c77f 4d3d
00000360: 62e3 4aba e0a8 78bd f173 c03c 9fbf 1dbc
00000370: 8f92 2f3d 5f21 c43c b0c5 d3bc 7969 a63d
00000380: 56c6 51ba e7c3 b7bc ed26 1e3d a056 2a3c
00000390: 1c2b 53bd 20dd 8a3c 0b90 5f3d 20ac 9c3c
000003a0: 0c7d 2a3c 3558 fdbb a011 583d bab6 56bd
000003b0: 9bf4 0f3d 80d0 7fbb db84 75bd a760 943c
000003c0: d82e ba3b a5b6 1e3c 8ab7 5fbd 3a7f 49bd
000003d0: 6a1e acbc c9d2 9abc 821b 723d 3db7 d8bc
000003e0: 14fb f13c 2a7d fdbc 1ea0 04bd 3a50 04bd
000003f0: 050a b3bc b9ab 2fbd 6f2a 7b3d 4a8b 933d
-0.052361228 0.02642412 0.060550217 -0.04190887 0.016439531 0.019322261 -0.009261332 0.04094503
-0.07372029 -0.005828353 -0.045304693 -0.06914301 0.0036960682 -0.0816801 0.016183805 0.0023413042
0.015537894 0.008174807 0.05554341 -0.020225689 0.012138793 -0.045903347 0.061334085 -0.05663299
-0.038056694 0.07373691 -0.021788884 0.045579318 -0.011749204 0.046013717 -0.06132291 -0.020272529
0.019548923 -0.00045267615 -0.0419761 -0.04824792 -0.0048193824 0.03812018 -0.038727846 -0.04120345
0.015882157 0.04241324 0.014322483 0.0055900686 0.04140315 0.05028805 0.0018675539 0.026263189
-0.02616667 0.0074447836 0.00032890396 0.02888785 0.017652174 -0.011129812 0.05738636 0.013445257
-0.052600164 -0.018432252 -0.036388014 -0.073807314 -0.008108354 -0.007912399 -0.013925155 -0.052094277
-0.043592133 -0.029214805 -0.065954275 0.048456192 0.049093205 0.03864443 -0.061862215 -0.0659829
-0.0034175953 -0.028879771 -0.040186908 0.060104508 0.04513491 -0.0010043959 -0.016030895 0.05373339
-0.022854894 -0.057068262 0.023800423 0.04549891 0.06975858 0.060199276 0.007604106 0.042940687
0.0063261767 0.02448842 0.045960307 -0.04341416 0.04326484 0.030525953 0.008406141 -0.003343934
-0.05752603 0.01210232 -0.036512826 0.00057855196 0.06077202 -0.0032984747 0.01934806 0.05546436
-0.0029919932 -0.04518934 0.010742768 0.048357505 -0.07201644 0.021526309 0.025330402 -0.052487526
-0.014735042 -0.051804695 0.0289576 0.036390767 -0.08307538 -0.018678082 0.038219206 -0.005796275
-0.01933795 -0.053603917 -0.013821525 0.036591183 -0.0041134763 -0.03179485 -0.025007753 -0.029309181
-0.04128409 -0.03794531 0.01957016 0.008723429 -0.024152009 0.056062855 -0.025096862 -0.01320901
-0.057149168 -0.036994033 0.029706484 -0.0025882893 0.00051467255 0.050246328 0.050395228 -0.05082697
-0.030323764 0.0423951 -0.062040623 -0.04984702 -0.0066265925 -0.0020028213 -0.013732958 0.04013815
-0.004357101 -0.014862588 -0.04106748 -0.007932473 0.035582364 -0.023593234 -0.076755725 0.017330088
0.00076327275 0.02950717 -0.01874522 0.061384365 -0.010112016 0.0148396995 0.06432885 0.074143894
0.00021965822 0.07737395 -0.019982275 -0.023889642 0.0730904 -0.026245825 0.0560299 0.046119846
0.020449497 -0.044769607 -0.056894705 0.005435079 0.06521683 0.040312555 -0.016239563 -0.0337809
0.029489508 0.031768057 0.036349267 -0.03216854 0.050783474 -0.0059283534 0.022448149 0.059817594
0.019328384 -0.046692066 -0.001081476 0.013380723 -0.0026986606 -0.0040122676 -0.023199009 -0.05729049
-0.024759041 -0.0041193133 0.0588274 0.038951375 -0.014765805 -0.036178447 -0.013897383 -0.034915708
-0.014541135 0.012258574 -0.061893124 -0.019386187 0.015004563 0.023822324 0.06054923 0.050170686
-0.0007739571 -0.060707927 0.023492785 -0.009628206 0.04286438 0.023941694 -0.0258511 0.08125586
-0.00080022716 -0.02243228 0.03861134 0.01039663 -0.051554784 0.016951144 0.05458073 0.019125044
0.01040579 -0.0077314624 0.052751184 -0.052420355 0.035145383 -0.0039034188 -0.059941154 0.018112494
0.0056818537 0.009687101 -0.054618396 -0.0491936 -0.021010596 -0.018899338 0.059108265 -0.026454562
0.029538669 -0.030943472 -0.032379262 -0.032303073 -0.021855364 -0.042888377 0.061319765 0.07204302

module.rppg_feature_extractor.FeatureExtractor.2.conv_block_3d.0.weight f4 [12, 12, 3, 3, 3]
00000000: f787 a7bc ff61 703c cc9d 933c c2f5 483d
00000010: 4808 b53c 15f7 3e3d 1165 6a3c 3c92 373d
00000020: 198d f53b 6430 293d 416d 7b3c f145 c53b
00000030: ad55 e53c a22e 643d 5bc5 f23c c7b4 a3bc
00000040: 0f56 123d 26f4 563d 9e18 273c dfc5 7b3c
00000050: 39a3 b9bb f8ad 3f3d f371 74bc d322 b73c
00000060: b30b 8dbc 5177 ccbc 385f 333b 61db 483d
00000070: 9644 03bc 9cec 46bd c99a 0a3d 9b66 413c
00000080: 2332 743d 66f1 e13c 45c1 60bd 3219 1ebd
00000090: 687b dd3b 6632 c5bb 29ef 013c 9b53 883c
000000a0: 62c6 60bc 1172 923c 065d c8bc 8912 1abc
000000b0: 5781 09bd 74da 7dbd 0da5 24bd 85c9 ff3c
000000c0: 0bfb 3f3d a838 fc3c 568b 483d baf0 1ebd
000000d0: 1659 5aba 5a0a d93c 8371 fd3c 79fb 823c
000000e0: 1094 2f3c 9fb0 22bd 11b6 9bbc d811 2fbc
000000f0: ba7b 033d 986a 4bbd 0ee5 8cbc 9acf 4dbd
00000100: 049f 4e3d 16ec 673d d47d 693b 2dba d6bc
00000110: cd32 fb3c 60ae f6bc 3c52 8d3c ff68 eabc
00000120: cfef dcbc d7b0 f9ba 0b54 1abd 64b3 8c3c
00000130: e93f 103c d364 17bd 85c2 efbc c54a 62bd
00000140: 2bbd 873c 9991 053b 490d 2cbd b833 453c
00000150: 91a9 20bc 2314 0ebc e439 32bd eed9 173b
00000160: 0781 013b 0fe9 37bc 7e8c 583d d7eb 7e3d
00000170: a926 6a3c 65a6 59bd 6bfb 023d 07ea d6bc
00000180: db93 0cbd 9f98 25bd 753d 6c3d 8213 583d
00000190: b512 853c d485 123d dab1 60bd 6cbc 463d
000001a0: 8f21 19bd 9229 2ebd 9568 b73c 3706 4cbd
000001b0: 449c e7bc 9b16 5bbd 16b4 cf3b 5db3 153c
000001c0: ed66 0cbd 8d68 e3bc 1c3f 53bc 3b7b 9c3c
000001d0: 97d3 813c efbb 9a3c 8217 32bd 2446 073d
000001e0: fa37 e6bc 94fa 77bc 0903 82bd 21aa 21bd
000001f0: e327 e33c efeb 71bc 86c2 b0bc 6a33 2c3c
00000200: 1f4d 6fbd b5bb 0bbb 9ff7 323c 0242 193d
00000210: f0e4 e7bb edd2 063d 06c9 eebc 0df8 55bc
00000220: f518 173d bacf a93b 85c7 513c 78bb 853d
00000230: fb28 29bd 8b5f 3fbd ba1c 82bc c17f f33c
00000240: 42e6 98bc 3a13 d0bc a7fa 203c 0f35 543d
00000250: abd7 2c3d a8c1 af3c 236e b03c 6fa2 25bd
00000260: 8194 a43c 28a5 f13b d16d b73c 17ed 8dbc
00000270: fb03 39bc 4782 3abc 0a6c 72bc 9c33 9cbc
00000280: 9482 1e3d 718f 423d d327 07bb ddb2 0fbb
00000290: 385e 2bbd 71f4 ec3c 5621 173d 245e d6bc
000002a0: 74b5 ebbb f516 4abd ab16 b83c f48d 313d
000002b0: 4ebf f8bc cc25 a8bc cdad 873c 44d5 1cbd
000002c0: f59f abbb c525 7abc ad8b 14ba abd7 f0bc
000002d0: 242f 37b9 98a0 15bd f1d5 203d ee9e c53c
000002e0: 5ec7 173d 9d53 4bbd defb fabc 37a6 aa3b
000002f0: 7e43 5ebd 51f3 6cbd 3664 033d 527f 273d
00000300: 615e 053d 89fd 3b3d 80a8 eabc 7fb9 133d
00000310: e464 da3c 3459 883c 1227 723c e852 3abd
00000320: 387e 033c 27cb 293c 6b10 533d 97b4 373d
00000330: b9ea 883d 4b38 2abd 363a 073d c904 5b3a
00000340: db03 04bc 034b bf3c b164 75bb 5aaa 743d
00000350: 9604 4a3d 3725 873d 4f08 203c e050 3e3d
00000360: 37d2 083d 5c48 cd3c fff5 8ebc 8e9a 44bd
00000370: c66b fe3c 0d56 30bd a8d1 42bd 985f 3e3d
00000380: 0d86 e83c 1e49 363d ec9f 973c 4ea4 003d
00000390: 429d 08bd f99c 3b3d 2c9c 36bd 531a 573d
000003a0: 92e9 473c 5c64 05bd 17c2 a03c de81 07bb
000003b0: d4f4 653d d6c0 7bbb 8433 e33c 7772 a63c
000003c0: fcc0 bcbc 9e0f 16ba 70ee 1e3d b21d 5ebc
000003d0: 7828 143a 2170 27bd dc30 363c e1b5 fdbc
000003e0: d93f 7cbc 552a 30bd ee01 dabb 409f 10bd
000003f0: 6554 f93c f09e 143d 8479 403d c246 0b3d
-0.020450575 0.014671802 0.01801958 0.049062498 0.022098675 0.046622355 0.014306323 0.044817194
0.007493627 0.041305915 0.015345872 0.0060203006 0.027994955 0.055708535 0.029635122 -0.019983662
0.035726603 0.05247893 0.01019874 0.015367 -0.0056652096 0.04679677 -0.014919746 0.022355473
-0.017217493 -0.024959238 0.0027369987 0.04903734 -0.008011958 -0.048565492 0.03383902 0.011804248
0.059618127 0.027580928 -0.054871816 -0.038598247 0.006759096 -0.006017971 0.007930555 0.016641429
-0.013719173 0.017876657 -0.02445842 -0.009403833 -0.033570614 -0.06197591 -0.040196467 0.031224022
0.046870273 0.030788735 0.048961006 -0.038803793 -0.0008329315 0.026494194 0.030937916 0.015989052
0.010716453 -0.03971922 -0.019007714 -0.010685407 0.032100417 -0.049662203 -0.017199066 -0.050246812
0.050444618 0.056621633 0.0035627978 -0.026211822 0.030663872 -0.030112445 0.017251126 -0.02861452
-0.026969818 -0.0019049895 -0.037677806 0.017175384 0.0088043 -0.036961388 -0.029267559 -0.055247087
0.016569695 0.0020380972 -0.042004857 0.0120362565 -0.009806053 -0.008671793 -0.04351224 0.0023170668
0.0019760744 -0.011224999 0.05286836 0.062236633 0.014291444 -0.0531372 0.031978052 -0.02623464
-0.034320693 -0.040428754 0.057675797 0.05275298 0.016244272 0.03577216 -0.054857112 0.048519537
-0.03738552 -0.042520113 0.022388736 -0.049810614 -0.028272755 -0.053488355 0.0063386066 0.009137002
-0.034277845 -0.027759815 -0.012893464 0.01910173 0.015847964 0.018888442 -0.04347945 0.033025876
-0.028102864 -0.015135426 -0.06348235 -0.03946889 0.02772898 -0.014765724 -0.021577131 0.010510305
-0.058423158 -0.00213216 0.010923295 0.037416466 -0.007076852 0.032916 -0.02914859 -0.013059628
0.036889035 0.0051822336 0.012803917 0.065298975 -0.041298848 -0.046721976 -0.015882839 0.029724004
-0.018664483 -0.025399793 0.009825385 0.051808413 0.042197865 0.021454647 0.021536892 -0.040438112
0.020090343 0.0073744245 0.022391232 -0.017324967 -0.011292453 -0.0113836 -0.014796266 -0.019067578
0.038698748 0.047500078 -0.0020623102 -0.002192668 -0.0418379 0.028925152 0.036897026 -0.026167937
-0.0071932618 -0.0493383 0.022471746 0.043348268 -0.030364659 -0.020525835 0.016562367 -0.038289323
-0.005237574 -0.015267794 -0.0005666565 -0.029399714 -0.00017469801 -0.036530107 0.03926653 0.024123635
0.037055366 -0.049640287 -0.030637678 0.0052078026 -0.054263584 -0.057849232 0.03207799 0.040892906
0.03256071 0.045896087 -0.0286448 0.036065575 0.026659437 0.016644098 0.014779823 -0.04548922
0.008025698 0.010363377 0.05152933 0.04484996 0.06685395 -0.04155759 0.0330145 0.00083549
-0.00805756 0.023351198 -0.003744405 0.059732772 0.04932078 0.06598895 0.009767606 0.046463847
0.0334036 0.025058918 -0.017451284 -0.047998957 0.03105725 -0.043050814 -0.047563225 0.046477884
0.028384233 0.044503324 0.018508874 0.031406693 -0.033353098 0.045803998 -0.04458253 0.05251534
0.012201684 -0.032566413 0.0196238 -0.0020676772 0.05614169 -0.00384145 0.027734526 0.020318253
-0.02304124 -0.0005724373 0.03880161 -0.013556885 0.0005651782 -0.04087842 0.011120047 -0.030970516
-0.015396082 -0.04300912 -0.006653062 -0.035308123 0.03043575 0.036284387 0.046990886 0.034003027

module.rppg_feature_extractor.FeatureExtractor.4.conv_block_3d.0.weight f4 [12, 12, 3, 3, 3]
00000000: 610a 8c3b 6bdc 32bd c684 433d 8840 543c
00000010: ff8e c8bc d22b 533c 8844 283d 4b8d d9bc
00000020: 058d 0e3d 2a2d 4cbd 61d7 2a3d d03f 073d
00000030: 82bc 56bd a289 bf3c 897c 293d d2c9 21bd
00000040: acce acbc f12c 76bb c3ec 2cbd 35da fbbc
00000050: 7c99 b4bc d8e0 46bd 4c39 32bd 16cb 543c
00000060: 50cd 75bd 91fa 53bb 4942 1fbd 5d8c 71bb
00000070: b166 d8bc 4404 253d 8be5 d33c 43e0 09bd
00000080: d8cc 00bd eed6 8e3b a03c 8cbd 3aa2 79bb
00000090: 649c 9f3b 6139 42bc 6c8b dd3c 19ef 41bd
000000a0: cad7 6ebc 0efd bb3c 1f48 30bd 89ab 36bc
000000b0: 4f20 a6bc 9f53 803b b7aa 4a3d 9700 e8ba
000000c0: 0e8b cb3c 4c97 56bd f4e0 d2bc 1889 6ebd
000000d0: 5cca 1e3b b0c9 9fbc 330c 713c e0bc 893c
000000e0: 0b50 1c3d 728e 6cbc 23d5 3f3c f722 263b
000000f0: 9ff1 9d3c 4260 273d 4d84 2b3d af6c eb3b
00000100: c985 7cbd 5298 c33c 5382 8e3b f5a3 2cbd
00000110: a436 483d 9194 9a3c 423f 113d d3d1 24bd
00000120: d659 f5bb c2dc 68bc 3493 3bbb 3161 353c
00000130: 3364 60bd f8d4 193c 12e1 1f3c ba08 7dbb
00000140: 6778 403d 0175 883d 3e04 b8bc ddf0 63bd
00000150: 99a0 073d f160 293d 86fe da3c b449 473c
00000160: dea5 4a3d 9870 e13c 83b8 e13c 75ef f6bc
00000170: a8c4 f6bb 0028 68bc 9da7 6b3d 5754 eebc
00000180: 1c66 b1bc e7c8 23bd d8a1 f03b 897f 1bbd
00000190: bb52 433d baec 52bd 1882 f6bc 05c8 693d
000001a0: cc19 ee3c 69f4 8b3b 8874 a1bc 18b3 07bc
000001b0: ebc3 a7bc dc6b 543d 8e49 0fbd eaa4 3c3d
000001c0: 03b4 b3bc ed72 cc3c 5fa3 62bd b1fa 6e3c
000001d0: aaa6 7fbd 12e5 e33c dc7e 683d d5c9 93bc
000001e0: d084 433d cb67 a43c 48ea 55bd ea13 62ba
000001f0: 9959 383d 0962 d73c d1c6 34bc b371 d63c
00000200: 2f5f 49bd df2f 473d 33d6 b6bc 9107 26bd
00000210: 753a f4bb be36 313d 14f7 3cbd aa1a 9abb
00000220: 5439 14bc 0271 603d df1c 05bd 41d6 2c3d
00000230: b546 5abd 91bb 5ebd 0aa5 1bbb bf03 c0bc
00000240: 4720 60bd c908 b03b 1780 e3bb 2b0e 13bd
00000250: 74f2 62bd eede 853c 45ba a23c 6350 f6bc
00000260: c68b 863b 25f7 313d 0bb6 0cbd 0e85 e8bc
00000270: d705 44bd c020 c2bc fe77 113d 51b7 be3b
00000280: 9b5c 20bc f47a 5fbd 690b a9ba 0521 423d
00000290: eb49 18bd 637e 233d 60d1 1a3d 5ced acbc
000002a0: 2ff7 c838 68af 653d ea32 2b3d 1624 a8bb
000002b0: 0d39 7b3d 39bf 19bd 3ea1 50bc fe1d 343b
000002c0: 6076 263c 8f4d f23c b9f8 38bd 9af1 4d3d
000002d0: 11af 89bc d855 ce3b 4071 5bbd f6cd 2f3c
000002e0: 5221 0e3d a3e4 2bbd d0bc bfbc ef78 02bd
000002f0: 08c8 1c3c ace8 28bd 14f1 9a3c 434d ec3b
00000300: 707d 5d3c 6412 2f3d 7122 5dbd acdb 38bc
00000310: 60b8 013a 408d 0dbd 97df 9cbb 81df 053c
00000320: a23e 283d 319a bc3c 057e a739 b90e 0c3d
00000330: dbff b33c e618 d3bc 9f88 3d3d 5700 4b3c
00000340: 2495 89bc 125c 42bd 34d6 39bd 4aab c23b
00000350: e7f3 d33c 41eb 3d3c 66dc 963c 7e02 45bd
00000360: 0bcc 1a3d 9d15 93bc 9f32 16bc 4c7a c33b
00000370: d9bb ecbc e3ad bcbb a620 d6bc 8ee4 6cbd
00000380: 0b8c 5dbd 570d 1cbd 80e7 13bd 73b5 90bc
00000390: b5a0 fe3c bb81 5c3c e5ed eb3c d729 00bd
000003a0: f015 9f3c 0f09 64bd 4976 0bbd a4ef 693d
000003b0: 0778 afbc 1f24 7b3c 4e6e 3b3c e837 8dbb
000003c0: 4505 473a ea27 00bb 9343 5e3d f340 cf3c
000003d0: 4574 37bd f497 143c f990 6abc d8f0 4d3c
000003e0: 42ac 293d 645c 1e3d 9427 553c 3f87 45bd
000003f0: 13ae df3b 52b2 d93c c3d7 9a3c ca20 833c
0.004273698 -0.04366724 0.047734044 0.012954839 -0.024482248 0.012888866 0.04108098 -0.026556632
0.034802455 -0.04984776 0.041709308 0.03301984 -0.05242587 0.023381058 0.04137853 -0.03949911
-0.021094643 -0.0037563408 -0.04221798 -0.030743698 -0.022045843 -0.04855427 -0.043511674 0.012987873
-0.060010254 -0.0032345394 -0.038881574 -0.0036857345 -0.026416155 0.04028727 0.02586629 -0.03366114
-0.031445354 0.0043591177 -0.06847501 -0.003809108 0.004870938 -0.0118545005 0.02704402 -0.047347162
-0.014577815 0.022947814 -0.04303753 -0.011149296 -0.020279078 0.0039162184 0.049479213 -0.0017700371
0.02484658 -0.05239038 -0.025742032 -0.05823621 0.0024229502 -0.019505352 0.014712381 0.016813695
0.038162272 -0.0144382585 0.011708531 0.002535043 0.019280253 0.040863283 0.04187422 0.007184587
-0.061651025 0.023876343 0.004349032 -0.04214855 0.048880234 0.01886967 0.035460718 -0.040239166
-0.007487516 -0.014212789 -0.0028621675 0.0110705355 -0.054783057 0.009389155 0.009758251 -0.0038609938
0.046989825 0.06662942 -0.02246296 -0.055649627 0.033112142 0.041352216 0.026732694 0.012163568
0.04947459 0.02751951 0.027553802 -0.030143479 -0.0075307675 -0.014169693 0.057532895 -0.02909295
-0.021655135 -0.039986517 0.007343512 -0.037963424 0.04768632 -0.05149529 -0.03009133 0.05707552
0.029065035 0.0042710793 -0.019708887 -0.008282445 -0.020479163 0.051860675 -0.034982257 0.04605571
-0.021936422 0.024957145 -0.055331584 0.014586137 -0.062414803 0.02781919 0.056761608 -0.018040577
0.04773408 0.020069024 -0.05222538 -0.0008624183 0.045007322 0.026291864 -0.01103373 0.026177263
-0.04916304 0.048629638 -0.022318935 -0.04053456 -0.0074532577 0.043265097 -0.04613407 -0.0047028856
-0.009046871 0.054795273 -0.032498237 0.042196516 -0.053290088 -0.054378096 -0.0023749494 -0.023439286
-0.054718282 0.005372141 -0.0069427597 -0.035902184 -0.055407003 0.016341653 0.01986421 -0.030067628
0.0041060178 0.043448586 -0.034353297 -0.028383758 -0.04785713 -0.023697257 0.035514824 0.005820193
-0.009787704 -0.054560617 -0.0012897077 0.04739477 -0.03717987 0.039915454 0.03779733 -0.021109276
9.582785e-05 0.056075484 0.041796602 -0.005131255 0.061333705 -0.03753588 -0.012733756 0.0027483697
0.010160059 0.029577998 -0.045159075 0.050279237 -0.016807111 0.0062968545 -0.0535748 0.010730257
0.034699745 -0.04196609 -0.023405463 -0.031853613 0.009569176 -0.04123752 0.018913783 0.0072113588
0.013518676 0.042742148 -0.053987924 -0.011282843 0.00049484335 -0.034558535 -0.004787396 0.008170963
0.041075356 0.023022743 0.00031946614 0.034193728 0.021972587 -0.025768708 0.04627287 0.012390218
-0.016794749 -0.047451086 -0.045370296 0.0059408294 0.025873138 0.011591733 0.018415641 -0.04809808
0.037792247 -0.017954642 -0.009167342 0.0059655067 -0.028898166 -0.0057580336 -0.026138615 -0.057835154
-0.054088634 -0.03809866 -0.036109447 -0.017664647 0.03108249 0.0134586645 0.02879996 -0.0312899
0.01941964 -0.0556727 -0.034048352 0.057113305 -0.021419538 0.015328436 0.011439873 -0.004309643
0.0007592033 -0.001955504 0.054263663 0.025299525 -0.044788618 0.009069432 -0.014316791 0.012569629
0.041424043 0.03866233 0.013009924 -0.048224684 0.006826171 0.026574288 0.018901711 0.016006846

module.rppg_feature_extractor.FeatureExtractor.5.conv_block_3d.0.weight f4 [16, 12, 3, 3, 3]
00000000: 853d 16bd dc70 a7bc cce7 fd3b 3028 9a39
00000010: 25e0 2e3d 17f2 3d3d a64b 0b3d ac31 ef3c
00000020: 4dcf 403d b75f 65bc 5a7b 90ba d66b 713b
00000030: 595b d33c 85ba d23c 7dec 033c 6a20 f83c
00000040: 494b 863b 546b 83bd e542 c9bb d983 5fbc
00000050: 7700 41bd 8893 343d 453d 543c db7f 94bc
00000060: f2fb debb 70a3 6abd 8f39 26bd 8080 89bc
00000070: e267 06bd 6035 11bd eceb 4fbd f014 16bd
00000080: 8af8 ccbc 1d8b 10bd edea 943c 795e 06bd
00000090: 6274 a3bc 58d3 ecbc 3294 fb3b b310 6e3b
000000a0: fad8 2cbd 43a2 ed3a b6f9 40bb 32ce 13bc
000000b0: 97fa fd3b 995f bc3c 5f08 83bc 004a 66bc
000000c0: 5200 b0bb 2e83 3d3d 2b8e d83c df5d 5d3d
000000d0: 116c f63c 109f 21bc 3887 bdba 65d5 48bd
000000e0: 054f 333d 1a50 b3bc 55d0 36bc 73ee 483d
000000f0: 4fd7 4dbd c697 acbc f29e 233d d518 403d
00000100: dcbe 223d 5329 9c3c d1e8 44bb 9960 47bd
00000110: 5fbd 7d3c 8395 c7bc 07a5 c0bc b05f 50bd
00000120: 93e4 0e3d 7c56 8a3d db44 873d 234f 63bb
00000130: 1954 2abc 8687 b73c 66d6 1a3d 3e16 ac3c
00000140: 0e59 353c 08c7 533d 4e94 fbbc 4da8 b9bc
00000150: 08b6 62bc da72 3ebd 2590 a0bc 5d3e 45bd
00000160: 6f62 23bd 218a 373d d118 18bd 73f9 0e3d
00000170: b521 42bd 0cd8 46bd 06a0 bbbb 37c4 63bd
00000180: d138 3a3c 4772 05bd a891 913c 7c2f e5bc
00000190: 9de9 b63b 1591 61bc 4f23 2ebd 7ef1 95bd
000001a0: 7fa3 5cbd 018f 06bd 45bd a9bc fb74 253d
000001b0: 6bc2 80bc 3c7f 993c a8be 913b a565 f33c
000001c0: dcd7 903c bbb5 ed3c 8fab 52bd 43c9 86bd
000001d0: 4b56 8a3a 2005 16bc 4f5d 21bd 6d64 eb3c
000001e0: 5c46 b2bc 2557 57bc 645a 313d 7726 913c
000001f0: d64d 15bc f890 a93b a1d2 01bc 4829 28bd
00000200: 13b5 57bd 9f95 5abd 4246 0ebd 5aa8 d9bc
00000210: eee5 123d 9091 d9bc c77e 3fbb 0b3a 893b
00000220: 951e 893a 3fc4 1d3c fde1 67bd bde4 703b
00000230: 9cb5 513d 5e3d e93c 2dfd 033d 2ab6 823c
00000240: fd39 cbbc f0d0 a03c cbce cabc 190d 383d
00000250: 7808 583d 2ce5 103c 1346 79bd f0fe e6bc
00000260: 1c6c 7bbc 7acc a43c 3299 d6bc edda 8e3c
00000270: f0b9 42bb d663 093d 84da 593d ca8d 863c
00000280: 18ab 9cbb 9d45 ff3c 1fae 62bd 101d 92bb
00000290: cbfe 11bc 3e89 453d 53fe 9dbc 1561 283d
000002a0: 57c4 16bd c3c9 013d 6236 f2bc 8e69 b03c
000002b0: ae75 40bd 20e6 babc 3681 d73c 908c 303d
000002c0: 57a4 48bc f363 1a3d 70c1 d8bc 7894 aebc
000002d0: 313f 3cbc 99fb e03c 47c0 78bd 9850 0cbd
000002e0: 4aa9 fe3b b4c5 4c3d 19d8 ddbc 6d6d 873c
000002f0: 75a1 423d 0b32 c5ba 6689 603d 3155 1f3c
00000300: d2da 6bbc afa3 34bc 4e57 173d c634 153d
00000310: 36fc 14bc 4d2d e63c ca69 16bd eee9 2dbb
00000320: f0c9 3b3d 8f54 a93b 8ad1 da3c dbc4 3fbd
00000330: a3fc 173d 8c74 39bc 9204 1abd de88 b6bc
00000340: cda0 e63c e044 c1bc bd78 513d 346a 793c
00000350: f690 2fbd de12 753c 2a57 5d3c d8c2 aebc
00000360: 1873 473c d3ef 213d 2dfc 493d 2396 42bd
00000370: bfb5 3ebd 080d 4abc 3c89 a83c 5cc8 56bd
00000380: 5d5f de3b 5fe0 f33c 71c1 92bc d05e 0fbc
00000390: f1de a0bc dae5 6bbd f1df 943c ca16 fb3b
000003a0: 7a70 7ebb 2a9d 053d 0963 d63c 819b 873c
000003b0: 7bf2 713d 7ea5 053d 033f 583d 380b 933c
000003c0: 6759 d13a 9b16 583d eb8d c63b c01d 8bbc
000003d0: 8f0c 42bd 607a 7cbd 66ba 3cbd 0a6a 0dbd
000003e0: b302 343d 23c5 3dbc 7faa 6bbb 5dc3 063d
000003f0: e1c3 07bd f8a2 f53c 4bea e93c e687 703c
-0.036679763 -0.020439558 0.0077485796 0.0002940311 0.04269423 0.046373453 0.03400769 0.02919849
0.047072697 -0.013999871 -0.001102309 0.0036837957 0.025800394 0.025723705 0.008051989 0.030288894
0.00409833 -0.064169556 -0.0061420077 -0.013642275 -0.047119584 0.04408601 0.012954061 -0.018127372
-0.0068049366 -0.057284772 -0.040582236 -0.016784906 -0.032813914 -0.035451293 -0.050762102 -0.03664106
-0.025020856 -0.03528892 0.018178428 -0.03280494 -0.019952957 -0.02890937 0.0076775784 0.0036325871
-0.042199112 0.0018130023 -0.0029445714 -0.009021329 0.00775082 0.022994803 -0.015995203 -0.014055729
-0.005371132 0.04626768 0.026434978 0.0540446 0.030080827 -0.009864584 -0.0014459854 -0.049031634
0.04377653 -0.021888781 -0.011158069 0.049055528 -0.050254162 -0.021068465 0.039946504 0.04689868
0.0397328 0.019062674 -0.0030045996 -0.048676107 0.015487044 -0.024363285 -0.023516191 -0.050872505
0.034885954 0.06754777 0.0660493 -0.003468462 -0.010396027 0.02240349 0.037802123 0.0210067
0.011068596 0.051703483 -0.030710366 -0.02266326 -0.013837345 -0.04649625 -0.019599983 -0.048155177
-0.039888795 0.044809464 -0.03713304 0.034905862 -0.047395427 -0.048545882 -0.0057258634 -0.055607047
0.011366085 -0.032579686 0.01776965 -0.027976744 0.005582048 -0.0137675 -0.04251414 -0.073214516
-0.05386686 -0.032851223 -0.020720134 0.040394764 -0.015717706 0.018737428 0.004447777 0.029711554
0.017681055 0.02901732 -0.051433142 -0.065813564 0.0010554282 -0.009156495 -0.039395627 0.02873441
-0.021762066 -0.0131433355 0.043299094 0.017718537 -0.009112796 0.0051747523 -0.007923753 -0.041054994
-0.05266292 -0.053365346 -0.03473497 -0.026569534 0.03586381 -0.026558667 -0.0029219852 0.0041878275
0.0010461385 0.009629308 -0.056612004 0.0036757432 0.051198587 0.028471645 0.03222387 0.015956003
-0.024807924 0.01963088 -0.02475681 0.044934366 0.05274245 0.008843701 -0.060857844 -0.028197736
-0.0153455995 0.020117033 -0.026196096 0.017438376 -0.0029712878 0.033542477 0.05318691 0.016425032
-0.004781138 0.031161124 -0.055341836 -0.004459031 -0.008910845 0.048226587 -0.01928631 0.04110821
-0.036808338 0.031686556 -0.029566947 0.021534707 -0.046987228 -0.02281481 0.02630673 0.0431028
-0.012246213 0.037692975 -0.026459426 -0.02131103 -0.011489675 0.027463721 -0.060730245 -0.034256548
0.0077716457 0.049993232 -0.027080582 0.01653167 0.04751726 -0.0015044821 0.054818533 0.009724901
-0.014395433 -0.011025353 0.036948495 0.03642728 -0.009093335 0.028097773 -0.036721982 -0.0026537138
0.04584688 0.005167551 0.026711244 -0.046818595 0.037106168 -0.011319291 -0.037602015 -0.02228206
0.028152848 -0.023592412 0.051140536 0.015223075 -0.042862855 0.014958112 0.013509551 -0.021333143
0.012173437 0.039535355 0.04931276 -0.047506463 -0.046560045 -0.012332208 0.020573251 -0.05243717
0.0067862705 0.029770074 -0.017914506 -0.008750632 -0.019637557 -0.05759225 0.01817319 0.007662629
-0.0038824365 0.032620586 0.02617027 0.016553642 0.059069138 0.03262853 0.052794468 0.017949685
0.0015972079 0.052755933 0.0060593984 -0.01698196 -0.047375258 -0.061640143 -0.0460762 -0.034524955
0.043947887 -0.011582646 -0.0035959778 0.032901157 -0.03314579 0.029984936 0.028554102 0.014680838

module.rppg_feature_extractor.FeatureExtractor.6.conv_block_3d.0.weight f4 [16, 16, 3, 3, 3]
00000000: 5d22 78bc cd53 483c e7e9 0ebd 3f7e 10bd
00000010: de9b 5d3c 0d00 503d 20cb b2bc 3f49 183d
00000020: d116 39bd 7b9f 12bd 2557 3bbd f812 2c3d
00000030: 5c12 2b3d d773 c8b9 0a8d 0abd fa32 27bd
00000040: f9d1 04bd 7126 55bc db29 c737 48e9 03bd
00000050: c6ac d7bb 4cbc 1d3d 411b e7ba 417a 98bb
00000060: 2257 053d 68ba 313c 2d42 233d 2f8e cb3b
00000070: 3f71 bdbc 6242 36b9 a9d1 0bbd 9533 c2bc
00000080: 75f6 e83b 12f2 40bd 9edc 2ebd 1705 a8bb
00000090: 3350 a9bc dee1 35bc b0f6 293c 2357 12bd
000000a0: 3951 c1bc b9e0 ffbb 2b8a 123b 080b 5b3d
000000b0: aaa3 8f3c d64c 9ebc 55f0 373d 81da daba
000000c0: 6646 4a3c ba5a 4b3d 25f6 58bd b3b2 4d3d
000000d0: 5cf5 17bd 3c70 8b3c 471a 2bbd 23e0 ccbb
000000e0: 08c3 4bbd 83de 3c3c ce41 d43c 7278 9e3c
000000f0: 9f21 9dbc 08ea 2fbc 03a7 c7bb ab32 1db8
00000100: 94a7 173d f26f 50bd bde7 7bbc ba7a df3c
00000110: 6d29 183c 56ac 1abd 3997 303d 1f3b f5bc
00000120: 5277 22bd 16ec 9d3c dbaf 33bd 3f23 503d
00000130: bc23 b3bc 79b3 273c 7e86 663d 8eac 22bd
00000140: 3025 b9bc 89cf 75bd c708 be3c 4712 c4bc
00000150: ad23 e4bc 6621 d5bc a2f4 293c 3578 b63c
00000160: 32b0 473c 752e 3f3d 62d9 8c3b 5adc 293d
00000170: f5f5 1f3d 6ada 1d3c f7b3 d13c bce2 913c
00000180: bd11 ce3a 1f7c 97bc 26b9 183b 7c6a 2e3d
00000190: 3d4a 37bc 4ed4 c4bc 0afd ef3b e57c 0f3d
000001a0: b4a1 46bc d3cb 35bd d26c 833c c309 1ebd
000001b0: 8e98 823c 248e 6fbc 913c 56bd 545a 2bbd
000001c0: d57a c23c 868d cd3c d7d4 ae3c 9d7d fd3c
000001d0: 9b1c eebb e7df 0bbd dab7 49bd 59b1 343d
000001e0: 72e1 48bd edf6 333b 8854 1e3d 191a 133d
000001f0: 63d4 91bc 42e4 83bc db7b 533d 99f4 d4ba
00000200: f347 3dbc 92ed 5f3a 8edf 8cb9 ee1d 6f3c
00000210: 6ae3 2ebd d0eb 073d 6b1f 283d cad5 1d3d
00000220: 91dc cabc f728 383d e623 b23b 59b2 02bd
00000230: 35f8 f83b ed67 1abd 8230 f63c eef5 77bd
00000240: bd2d 613c d755 783c 9501 39bc e772 a23b
00000250: ac83 acbb d1be 07bd 806c 233d 21c5 8c3c
00000260: 692c 403c 497a b33a 466b febc 2d91 08bd
00000270: 59e9 67bc 9cff c53c d2e9 86bc 453a 04bd
00000280: a30d 52bc 594e d83c fe63 243d 5b99 123d
00000290: 6ef6 94bc 91b9 093d a1ad 89bc b71a 92bc
000002a0: eda2 483d 15f7 893b f71e 9ebc c960 573d
000002b0: af17 35bd b8c8 98bc 2c6b a1bc 3cfb 9bbc
000002c0: 8461 e33c 8ee1 fb3c 4b58 3abd 1d85 b6bc
000002d0: 8ff9 bf3c 8c3e 1abd c953 7b3c 6ef8 0fbd
000002e0: 0d31 12bc 8a9b debc 9bcc 05bd 90c1 a23c
000002f0: 25c9 033d 1c0e 4d3d 0c55 9fbb 5163 2f3d
00000300: 9b82 773b da7d 11bd 733e 473d beeb b0bb
00000310: 0d88 4b3c 9286 bfbb 1df4 b9bc 8213 3fbd
00000320: 0ef2 443c 22e1 abbb 5d36 093d 5002 38bd
00000330: f1c2 93bb a0a9 d13c 1f44 9ebc 16c8 c5bc
00000340: 3b09 693c 2ebb 96bc a80b 35bd cc14 8f3c
00000350: d6d5 9c3c daf3 1fbd 74f8 d43c bb2b e43c
00000360: e64e 8cbc b6b0 293b ec5f 13bc dc29 bc3c
00000370: cb8a 353d 7536 763c 5323 24bd d14f 76bd
00000380: 612f 023c 79a2 063d 2b6d 19bd 05f9 113d
00000390: f68e 19bd be48 553c 1f66 033d 322d e2bc
000003a0: 325e 973b 2474 ea3b 9e2e d63c 5ca4 fb3c
000003b0: 24ee 843c 0787 cd3c f7d3 5237 abbd a0bb
000003c0: 9c6d a0bc ab40 cbbc d2ee a4bc 88e8 01bc
000003d0: fd11 12bd 0126 04bd f2a6 d6bc c139 91bc
000003e0: c9c3 b1bc 5a26 53bd fae3 49bd 49fc 2c3d
000003f0: 5793 293d 7d4b e13c f3d4 6dbc c74d 323d
-0.015144912 0.012227011 -0.034891035 -0.035276648 0.013525931 0.0507813 -0.021825373 0.037179228
-0.045187775 -0.035796624 -0.045737404 0.042010278 0.041765556 -0.0003823328 -0.03382591 -0.0408201
-0.032426808 -0.013009653 2.374214e-05 -0.032204896 -0.0065818755 0.038509652 -0.0017632024 -0.0046532457
0.0325538 0.010847665 0.039858032 0.006212018 -0.023125289 -0.00017381602 -0.034135494 -0.023706237
0.007109458 -0.047105856 -0.042690866 -0.00512756 -0.020668125 -0.011101214 0.010373756 -0.03572763
-0.0235983 -0.0078087715 0.0022360187 0.053477317 0.017534096 -0.019323748 0.044906933 -0.0016697199
0.012345886 0.04964707 -0.052969117 0.05021925 -0.037099227 0.017021291 -0.041773107 -0.006252305
-0.049746543 0.01152766 0.025910284 0.019344542 -0.01918107 -0.01073695 -0.0060929074 -3.7478905e-05
0.03702505 -0.05088801 -0.015375075 0.0272802 0.00928722 -0.03776201 0.043112967 -0.029935418
-0.039664574 0.019277614 -0.04386888 0.050814863 -0.021867625 0.010235661 0.056280605 -0.039715342
-0.02260074 -0.060012374 0.023197545 -0.023934497 -0.027849043 -0.026016902 0.010373266 0.022274116
0.012188004 0.046675164 0.004298375 0.04146991 0.039052922 0.0096345935 0.02559851 0.01780831
0.0015721839 -0.018491803 0.0023303716 0.04258202 -0.011187133 -0.024027016 0.007323866 0.035031218
-0.012123514 -0.044383835 0.0160431 -0.03858353 0.015941884 -0.014621291 -0.052303854 -0.04183419
0.023740212 0.025091898 0.021341724 0.030943686 -0.0072665936 -0.034149077 -0.0492476 0.044114444
-0.049043126 0.0027460412 0.038654834 0.03591356 -0.01780147 -0.016100053 0.05163179 -0.0016247212
-0.011552799 0.00085421756 -0.00026869442 0.014594538 -0.042697348 0.033183873 0.041045588 0.038533963
-0.024763377 0.044960942 0.0054364083 -0.031908367 0.007597948 -0.037696768 0.030052427 -0.06053727
0.013743815 0.015157185 -0.011291881 0.004957545 -0.00526472 -0.03314096 0.039898396 0.017183842
0.011729338 0.001369306 -0.031057011 -0.033341575 -0.0141547555 0.024169736 -0.016468916 -0.032282133
-0.012820634 0.026404547 0.040134422 0.035790782 -0.018183913 0.033624236 -0.016806426 -0.017835004
0.048983503 0.0042103627 -0.019301875 0.052582536 -0.04421204 -0.018650398 -0.019704424 -0.019040696
0.02775646 0.030747201 -0.04549436 -0.02228027 0.023434428 -0.037657306 0.0153398 -0.03514903
-0.008922827 -0.027173776 -0.03266583 0.019867688 0.03217425 0.050062284 -0.0048624333 0.042819325
0.0037767056 -0.035520412 0.04864354 -0.0053991964 0.012422574 -0.0058448995 -0.02269941 -0.046649463
0.012020601 -0.005245344 0.03349911 -0.04492408 -0.004509323 0.025593579 -0.019319592 -0.02414326
0.014223392 -0.018399801 -0.04420057 0.017465971 0.019144934 -0.039050914 0.025997378 0.027852884
-0.017127465 0.0025892681 -0.0089950375 0.022969179 0.044321816 0.015027632 -0.04007275 -0.060134713
0.007945866 0.03286979 -0.037457626 0.035637874 -0.037489854 0.013017831 0.032079812 -0.027609441
0.0046193833 0.0071549583 0.026145276 0.030718021 0.016226836 0.0250888 1.2566327e-05 -0.0049054227
-0.019583516 -0.02481111 -0.02013341 -0.007928975 -0.035661686 -0.032262806 -0.026202653 -0.017727735
-0.021699803 -0.051550247 -0.04928968 0.042232785 0.04140028 0.027501816 -0.014516103 0.043531206

module.rppg_head.conv_block.0.conv_block_3d.0.weight f4 [16, 16, 3, 3, 3]
00000000: ef4d 20bd bbdc 50bd 5f4d 06bd 26a2 473c
00000010: 07db b6bc 30c5 56bd 7fb9 b93c 24a6 13bc
00000020: d95d a23c 5c16 d0bc 3b22 d9bc 97ac 973c
00000030: 6d59 853c 3a3e a73b ea41 f7bc a08e 033d
00000040: 276a 043d e29c c3bc cde4 12bd ede8 47bd
00000050: 9cd6 603c fc34 853b a057 01bd 9ca4 743b
00000060: c54a bdbc 9c7e fcbb 2bb5 b63c 056c e83c
00000070: 6b9a 403d f66d e4bc 6d56 45bc 8a1d d6bc
00000080: 72ab 8ebc 4c14 e4bc 2402 47bc 2365 a2bc
00000090: d79e 14bd bd2e 473d f58c 1cbd 09b0 ab3c
000000a0: 62da f63c a5ca 78bc cd80 03bc 2ad9 813c
000000b0: 003c 463c e6b1 cf3b 0b5c 1abd 78f7 aebc
000000c0: 169b e83c 839c 2d3d e527 cc3c b856 90bc
000000d0: e9d2 9cbc f6e7 ddbc 6948 f73c 4fb6 85bb
000000e0: d37f b6bc 74b9 15bd 2703 d7bc 3c78 43bd
000000f0: 1113 a63c 891d 503d e488 b8bc e408 093d
00000100: f53e b9bc aecf 0abd b082 93bc c93f 68bc
00000110: f249 b03c 8142 043d ead8 a4bc 6e5a 5b3c
00000120: 9fc6 1dbc dedc c13c 0900 c1bb 2e90 7cbc
00000130: 8b61 ddbc dc41 af3c 2470 bfbc dc59 043d
00000140: 541c c23c f2c8 81ba 93eb 02bd 8eee 8fbc
00000150: 77ba f8bc ec1a 073d a92b 303c 8ce9 a8bc
00000160: 8676 bf3b 3232 1e3d 17c9 47bd 9285 c2bc
00000170: 5ebb 473c b4c5 713c ddf3 1f3d 2116 903b
00000180: 59f2 15bd 20c1 99bc 431e 253d 1c8a 1b3c
00000190: 52ed 43bc 07b3 8fbc c2d1 e53c 70a5 16bd
000001a0: 67e6 06bc 46be e43c 3ee8 fbbc 017f 063d
000001b0: 6901 b0bc a54f abbc da69 393d 182a 553d
000001c0: 4abe 2c3d 3385 873c b9f2 34bc aa9c 2d3b
000001d0: 9323 163d 7fbe 053d 445f 393d 1530 273d
000001e0: ea95 cc3c 5a15 443d fb76 ea3c 5734 22bd
000001f0: c3f7 d3bc 9068 1e3d 101c 41bd 4f86 a93c
00000200: 9e28 16bd 8751 ce3b 7ee9 dabc dc33 60bb
00000210: 4db4 46bb 02f6 67bb 942c 8b3a 41c4 533d
00000220: 25f7 cbbc 4988 dabc 18b5 323d 71a0 f93c
00000230: 0ec6 12bd 50a9 393b bf0f 01bd 58b7 a5bb
00000240: 2e0a 8ebb 1673 f1bb 8feb 683c 2a58 a0bc
00000250: 623f a1bb 17d3 14bd c3ba 943c f03e b43c
00000260: a538 bfbb 5312 8ebc 53e2 25bd 0ce5 733b
00000270: 2e8a 09bd e7dd e8bc a66e 39bc 8350 fa3c
00000280: e6b4 293b 7971 1dbd 95d7 83bc d779 dcbc
00000290: 219a babb e2d0 c03a d5ec 5dbd fa7f 0cbd
000002a0: 4166 4cbc 37d5 f93c 7e15 c6bb f372 1e3d
000002b0: 69a9 74bc 0468 babc 6401 9f3c b240 3abd
000002c0: 781f 263d c962 b03c 3c3c febc f02c 263d
000002d0: add4 293d c977 9cbc ee19 213d 72eb 3c3c
000002e0: 77dc a43b 2991 183c 1379 0dbd 3fcf bf3c
000002f0: c20b 2dbc 5ed7 633d 2017 3e3d 4a9f 963b
00000300: 30d0 133c c0af 61bd d7c4 01bd b290 5ebd
00000310: 3c59 69bd e53b 9f3b 4b91 263d 0605 a13c
00000320: 14be a03c 4b77 39bd 5676 56bd 229e 2d3a
00000330: c943 4bbc 9dc1 d4bc 7e26 853c aaab 81bc
00000340: dca6 373c 6e7a b33a 303e 063d dc1b 1f3d
00000350: cf8a 8ebc 5998 38bb 7a79 563d 820f 0ebc
00000360: 2316 3cbd 43be 303c 5ca0 0f3d dba1 2bbd
00000370: 1cda 393d 80d5 acbc 3323 b5bb fb8b 44bd
00000380: d79e 853c 238d 2b3d 777a 753b 8ed8 26bd
00000390: d318 fbbc 2e80 b3bc 1c04 0ebd 1d80 29bc
000003a0: 14cb 1a3d 628e cbbc 7e4e 893b 68c9 223d
000003b0: 9886 85bc 8024 1a3d 5a96 f3bc 17dd ab3c
000003c0: e8f6 1ebb 5157 b93c 2fd0 0abd 2aa7 50bd
000003d0: 7453 4c3c d62a 5fbb 2478 1e3c 503b 2e3c
000003e0: fb26 e53b 966c de3c 9dfb 18bd 74ca 42bc
000003f0: 60f3 04bd 784e 243b 34b3 193c c9b8 48bc
-0.039136823 -0.050991755 -0.03278863 0.012184655 -0.022321237 -0.052434146 0.02267146 -0.009011779
0.01982014 -0.025401287 -0.02650558 0.018514914 0.016277993 0.0051038535 -0.030182797 0.03211844
0.032327797 -0.023878518 -0.035862733 -0.04880612 0.013723042 0.004065154 -0.031577706 0.003732956
-0.023106942 -0.0077055227 0.022303184 0.02837182 0.047022264 -0.027884465 -0.012044531 -0.026137132
-0.017415736 -0.02784171 -0.012146506 -0.019823616 -0.036284294 0.048628557 -0.038220365 0.020957964
0.03013343 -0.015185033 -0.008026314 0.015850622 0.012099266 0.006338346 -0.037685435 -0.021358237
0.028394263 0.04238559 0.024921367 -0.017619476 -0.019143539 -0.027088147 0.030185895 -0.004080571
-0.022277748 -0.036553815 -0.02624662 -0.047722086 0.020272763 0.050809417 -0.022526212 0.033455744
-0.022613028 -0.033889465 -0.018006653 -0.014175364 0.021519635 0.032289986 -0.020122964 0.013388259
-0.0096298745 0.023664888 -0.005889897 -0.0154152345 -0.027024051 0.021393709 -0.023368903 0.03231226
0.023695149 -0.0009901805 -0.031962942 -0.017569806 -0.03036235 0.03298466 0.010752597 -0.020619176
0.0058429865 0.03862209 -0.04877576 -0.023745332 0.012190668 0.014756609 0.039050926 0.004397169
-0.036608074 -0.018768847 0.040312063 0.009493377 -0.011958437 -0.017541422 0.028054122 -0.036778867
-0.008233643 0.02792276 -0.03075039 0.032835964 -0.021485047 -0.020912 0.045266964 0.052042097
0.04217366 0.016543007 -0.011044198 0.0026491084 0.03665502 0.032652374 0.045256868 0.04081734
0.024973828 0.047871925 0.028621187 -0.039600696 -0.025874978 0.038673937 -0.047145903 0.020693926
-0.03665983 0.00629634 -0.026722666 -0.0034210598 -0.003031987 -0.0035394435 0.0010618144 0.051700834
-0.024898121 -0.026676314 0.043629736 0.030472012 -0.03583341 0.0028329678 -0.031509157 -0.0050572567
-0.0043347096 -0.0073684556 0.014216318 -0.01957329 -0.004920886 -0.036334123 0.018155461 0.022002667
-0.00583561 -0.017342722 -0.040499043 0.003721538 -0.033579044 -0.028426124 -0.011317885 0.03055597
0.0025895177 -0.038438294 -0.016094008 -0.026913567 -0.005694643 0.001471069 -0.05418094 -0.034301735
-0.012475551 0.030497177 -0.0060450425 0.038683843 -0.014932969 -0.022754677 0.019409843 -0.045471855
0.040557355 0.02153148 -0.031034581 0.0405702 0.04146259 -0.019100087 0.03933137 0.011530744
0.0050311643 0.009311953 -0.034539293 0.023414252 -0.010561885 0.055625312 0.046408772 0.0045966255
0.009021804 -0.05509925 -0.03168186 -0.05433721 -0.056969866 0.004859435 0.040665906 0.019655716
0.019621886 -0.045279782 -0.052358948 0.000662299 -0.012406298 -0.025971228 0.016253706 -0.015828926
0.011209216 0.0013693103 0.03277415 0.03884493 -0.017400173 -0.0028166978 0.052361943 -0.00867069
-0.04591955 0.010787549 0.03506504 -0.041902404 0.04537402 -0.021097898 -0.0055278777 -0.04798506
0.016311092 0.041882645 0.0037457028 -0.040733866 -0.030651486 -0.021911707 -0.034671888 -0.010345486
0.037791327 -0.024848167 0.004190265 0.039742857 -0.01629953 0.037632465 -0.02973478 0.020979447
-0.0024256054 0.022624644 -0.033889946 -0.05094067 0.012471069 -0.0034052632 0.009672198 0.010634258
0.006993172 0.027151387 -0.037349332 -0.011889089 -0.032458663 0.0025071185 0.009381104 -0.012251087
